output/merfish/model_pth/merfish_trained_gae_model.pth (torch, 226143 bytes, 10 tensors)

encoder.encoder_g.conv1.bias f4 [32]
00000000: a422 98bc 207e 14bd c330 debd 5e69 72bd
00000010: 0eac 31bc e27e 9c3a e256 b6bc 28dd 57bd
00000020: c3b7 d9bd f4f1 34bd 651c 853d 4bd0 adbd
00000030: 209b 88bd 2ac6 a2bd 6229 b33c 4c14 80bd
00000040: 055d 00bd 33e8 c8bc b4aa 033b 54f4 0ebd
00000050: ffe8 abbc 6bed 8bbd 6a9f e4bd 65eb afbd
00000060: 203b 95b8 8687 edbd 2fba a5bd 44fd 80bd
00000070: 089f 8fbd 1571 efbd d86d babd 3a9d acbd
-0.018571205 -0.036253095 -0.10849144 -0.059182517 -0.010844244 0.001193967 -0.022258226 -0.052701145
-0.10630753 -0.044176057 0.064995565 -0.08486994 -0.06670213 -0.07947953 0.021870319 -0.06253871
-0.03133871 -0.024524784 0.002009076 -0.03490098 -0.020985125 -0.06832393 -0.11163218 -0.0858982
-7.1158865e-05 -0.11598115 -0.08092152 -0.062983066 -0.07012755 -0.116914906 -0.09102982 -0.08428426

encoder.encoder_g.conv1.lin.weight f4 [32, 64]
00000000: 94a2 4fbe ba75 cb3b 41a6 26be 412a 14bd
00000010: 4553 a13d 71c9 933e 249f 54be c782 2bbd
00000020: b2ef 9abd 2f90 19be c922 54be f081 febb
00000030: 8c14 573e 4655 ca3e f774 33bd 3132 fcbd
00000040: 594a 1bbe 8474 fd3e d82e e23e 806a b63d
00000050: 816b 133d 1404 56be 7d27 b6be 800a b23d
00000060: 980c 1dbe a671 1dbe bcec 503d bd9c f7be
00000070: a790 3b3e 1516 b53d 80c7 ba3d 91ac e4bd
00000080: c6c4 e1bd 9d27 693d 5dd6 3f3e 0859 6e3e
00000090: c952 9b3e 9169 febc ac46 25be 7890 7e3e
000000a0: 97d9 0a3e 1f82 c4bd 6b86 e03e f5f4 873e
000000b0: 7e99 00be c567 5abe 8864 8cbe b344 c33e
000000c0: 75dc 44be d0cf 70be 7089 8dbc 0819 02be
000000d0: 95a2 d9be 7bcb 06be 0199 4d3e fc21 cc3d
000000e0: 0d77 943e 6c19 b93e 37a2 cdbe 244d 68be
000000f0: 2e87 cb3d f366 2d3e db2b 86be 3511 4b3e
00000100: 29b5 a8be eb15 b03e 44c5 59be bbb1 06bd
00000110: d82c 463e 7987 8b3e ddb3 41be c22b c33d
00000120: 3c4e c7be 4c50 103e 4404 e63d 105a f93b
00000130: 46e3 4c3d 0a02 bc3e 0b2e 02be bba1 a8be
00000140: 593a 42be a477 57be 8bee 673e 36f7 abbe
00000150: e6b6 12be 7b01 1e3b 9de0 2fbf 5d36 593d
00000160: 64fc 01be c0cc 53bd f770 dabd ed2f 18be
00000170: ac49 153e 306b 7bbe 945f fcbc 3727 bdbc
00000180: a52d 9cbe 6ecd 0d3d a0b8 07bf d9c0 29be
00000190: 1270 4c3d ae94 4a3e 4e7a efbd 6947 e83d
000001a0: f663 44be 9f91 203e 52a5 1f3e 343b 203e
000001b0: 4ee6 9b3d ab0e 7bbe 1b45 f1be c5c6 ac3e
000001c0: a088 443e 690f 343e c487 99ba a393 373e
000001d0: e70f 083e ce14 c7be 2fc9 993d 2c9a 153f
000001e0: 2c50 70be 23e8 9a3e 8b15 41be 6c29 4bbd
000001f0: 4338 f4bd 5c79 e0bc 46b5 bc3c 61e9 263e
00000200: 8b94 7fbe 8fb9 143e fa5c 043d 41e6 27be
00000210: 61df 0e3e be76 be3e 8d41 2a3d d287 a3bd
00000220: d955 9ebe 972b 5cbd d8a1 93be 1c9c 0c3e
00000230: eab7 dd3d f9e1 b1bd cfc5 213e 39f5 063e
00000240: 7bdd ab3d 4973 07be a4b0 003e afdd ff3d
00000250: ee0d 06be c056 61be a79d 8f3d 676e 8d3d
00000260: e978 8ebd 29e9 dabc 51f0 473e d4f9 073e
00000270: 7f46 1a3e 6cc7 8dbd f60b 913d 6a39 23bd
00000280: 6c29 8bbe d17c 9abe d61d 95be ccec 4ebe
00000290: 8e38 773e 5b56 0b3e 392a 33bd 54a3 963e
000002a0: 62a1 8dbe cad5 073e 9b11 45bd 8150 ee3d
000002b0: 7ceb 89bd 4dcb 76be 9d6c 093e 6eb9 9c3b
000002c0: 197f e9bd 2a5e e23d 16a8 0cbc fd71 38be
000002d0: 7659 e33d 5cd7 a43d 8606 1d3e 63a9 133e
000002e0: 36e4 f2bd ef2d 3fbe 275d 66be 4d50 50be
000002f0: 25d5 503e b557 6f3e 965c c93c 0e50 57bd
00000300: c0cb 813d 875e 883d b0f0 823e cc80 3b3d
00000310: 312b a7bc 3790 423e 01fa c53d 9434 b23c
00000320: 55d6 1abe 508c 503a 0222 e53c d6ae f0bd
00000330: 776e 71be f575 40be 6f4f 923b 1edb 0d3e
00000340: 22af e93d ed59 d6bd 1773 573e 1c09 123e
00000350: 49be cdbc 5fde e1bc 1fc2 573d b613 2cbe
00000360: 41f1 d8bd ba72 07be f685 5e3e 86f4 f1bd
00000370: c8b6 8d3d 86ec be3d 9b65 3c3e 047c 833e
00000380: b2ce 7bbd 50eb 2bbb 7982 5c3e 5009 adbd
00000390: ce74 5a3e 9108 2c3e 205c a4bd 0e76 e8bd
000003a0: 1eab 323e 6b03 a63d 9438 e73c c475 a03e
000003b0: 8047 cbbd a52a a1bc 8e37 0b3d a476 33bd
000003c0: 4933 6e3d 89ec 773e 889f 22be feba 46be
000003d0: 9045 8ebd 577d c7bd 0835 1d3e efc3 02be
000003e0: be85 d73d dab2 313e b73c cebd a9bb bd3d
000003f0: 5c7f 493e fabe 35be 9b48 8c3d 584f 95bd
-0.20276862 0.0062091025 -0.16274358 -0.03617311 0.078772105 0.28864625 -0.20763832 -0.041872766
-0.075652495 -0.14996408 -0.20716394 -0.0077669546 0.21003932 0.39518183 -0.04381272 -0.12314261
-0.1516508 0.49502957 0.44176364 0.08907032 0.035991196 -0.20899993 -0.35577002 0.08693409
-0.15336835 -0.15375385 0.051007017 -0.4836177 0.18316899 0.088421024 0.09120083 -0.11165727
-0.1102386 0.056922544 0.18734117 0.2327615 0.30336598 -0.031056197 -0.1614024 0.24859798
0.13559566 -0.09595131 0.43852553 0.26554075 -0.12558553 -0.21328647 -0.2742045 0.3813835
-0.19224723 -0.23516774 -0.01727745 -0.12704861 -0.42506853 -0.13163559 0.20077898 0.099674195
0.2899708 0.36152208 -0.40162823 -0.22685677 0.09937893 0.16933803 -0.26205334 0.19830783
-0.32950714 0.34391722 -0.21266657 -0.03288434 0.19353044 0.27251795 -0.18916269 0.095298305
-0.38926876 0.14093131 0.11231282 0.0076096132 0.050021432 0.36720306 -0.12712876 -0.3293589
-0.1896757 -0.21041733 0.2264959 -0.33587044 -0.14327583 0.002410977 -0.6870211 0.05303036
-0.12693936 -0.051708937 -0.106660776 -0.14862032 0.14578885 -0.24552608 -0.030807294 -0.023089988
-0.30503574 0.03461974 -0.5301609 -0.16577472 0.049911566 0.1978328 -0.1169325 0.113417454
-0.19178757 0.1568055 0.15590408 0.15647584 0.076122865 -0.24517314 -0.47123036 0.337454
0.19192743 0.17584004 -0.0011713435 0.17927413 0.13287316 -0.3888306 0.07509076 0.5843837
-0.23468083 0.3025523 -0.18855874 -0.04960005 -0.119247936 -0.027401619 0.023035657 0.16299964
-0.24959008 0.1452391 0.03231523 -0.16396429 0.139524 0.37199968 0.04156642 -0.0798489
-0.30924872 -0.053752508 -0.28834414 0.13731426 0.108260944 -0.08685679 0.15798114 0.13179483
0.083918534 -0.13227572 0.12567383 0.12493455 -0.13091251 -0.22005749 0.07012492 0.06905823
-0.069566555 -0.026722508 0.19525267 0.13278896 0.15065955 -0.06922802 0.070823595 -0.039849676
-0.2718004 -0.30173352 -0.29124326 -0.20207518 0.24142668 0.13607161 -0.04374144 0.29421484
-0.27662188 0.13265148 -0.048112493 0.11636449 -0.06734368 -0.2410099 0.13420339 0.004782847
-0.11401195 0.110531166 -0.008584997 -0.18012233 0.11101048 0.08048889 0.1533452 0.14420085
-0.11859934 -0.18669866 -0.22496472 -0.20343132 0.20393808 0.23373301 0.024580281 -0.05256658
0.0633769 0.06658655 0.25574255 0.045777127 -0.020406337 0.19000326 0.09666825 0.021753587
-0.15120824 0.00079554785 0.027970318 -0.11752097 -0.23577295 -0.18794997 0.0044650356 0.13853118
0.11410357 -0.10466371 0.21039997 0.14261287 -0.02511515 -0.027571855 0.052675363 -0.16804394
-0.105928905 -0.13227358 0.2173079 -0.11814217 0.069196284 0.09322457 0.18398134 0.25680554
-0.061476417 -0.0026232786 0.21534146 -0.08449042 0.2133362 0.16800143 -0.08025384 -0.11350642
0.17448089 0.08106121 0.02822522 0.31339848 -0.09925747 -0.019673655 0.033988528 -0.043814316
0.058154378 0.24211325 -0.15881169 -0.1940727 -0.06946862 -0.097407036 0.15352261 -0.12770055
0.10523556 0.17353383 -0.10070174 0.09264309 0.1967749 -0.17748633 0.06849786 -0.07290524

encoder.encoder_g.conv2.bias f4 [32]
00000000: 6f3d 6e3c b9b0 533e b4ef ccbe de3b 1e3e
00000010: 6d87 933e 5c46 7d3e e0dc f8bc a32b 563d
00000020: d804 d13e d968 dabd bb41 b43d dcc8 b83e
00000030: 9710 663e 4da2 6abe e5a7 fbbd 41fb acbc
00000040: b1ad a4bd c33f 3ebf 5cb2 d23d ec6c ad3e
00000050: 9ee9 f23c f889 4d3d e84c 4e3e 64b0 573e
00000060: c91d b13d 3c16 7b3e 8893 03bf afdb d6bd
00000070: ab36 80be f4cb 7abe 06a1 c13e aae3 c93e
0.014541014 0.20672883 -0.4002663 0.15452525 0.2881426 0.24733871 -0.030378759 0.05228771
0.40824008 -0.10664529 0.088015996 0.36090744 0.22467266 -0.22913475 -0.12287883 -0.021115901
-0.080409415 -0.7431604 0.102879256 0.33872163 0.029652413 0.050180405 0.20146525 0.21063381
0.08648259 0.245202 -0.5139699 -0.1049112 -0.25041708 -0.24491864 0.37818164 0.39431506

encoder.encoder_g.conv2.lin.weight f4 [32, 32]
00000000: 4477 98bd 5799 4e3e 3483 8f3e bc84 36be
00000010: e754 7d3e 35f3 01ba 2849 0b3e bc0d 933c
00000020: 28d7 21be 7f56 5d3e 2294 b2bd 5bc8 3fbd
00000030: 03d1 d53d 41fd 523e ae15 35bd b7dc c63d
00000040: 1730 80be cddd 4e3c 00eb ebbb 6315 53be
00000050: ce67 d9bd 2dba 1fbe af3f 27be 7a9f 84bd
00000060: 2e46 323c f0e7 7b3e bc63 c8bd 8ed3 7d3e
00000070: f203 7dbc b6af 803e 91d0 9fbe a541 9b3c
00000080: 010b 19bd 80d5 e4be b820 b73e bb00 0c3e
00000090: 6872 b0bd c1ff 9bbd 5906 19bd 7ffd 353e
000000a0: d673 58be 25de 9d3c f2d7 1fbe b2ec 863d
000000b0: 77a0 8f3e ce78 b2be 5acb 89be 85f3 0b3e
000000c0: bbb5 aa3d b812 1dbe 0fb0 333d 4ef6 2abd
000000d0: e2ec 1bbe f107 0f3e 0d1c de3d 5e07 133e
000000e0: 79a5 dd3d 9085 0b3e ac0b 87be a98c f6be
000000f0: 8fe2 a0bd e43c 303e d66f 8abe 600d 0dbe
00000100: 28a1 d93e 0c3f b43e 3cd3 8abe 8dc1 80be
00000110: e1e7 b33e c23f ae3e 8d18 f03e 83e8 72bd
00000120: 5551 9cbc 3e32 a83d 66e1 2e3e 4e33 4b3e
00000130: 9dc9 8b3e eddf 1c3e 0ca6 81be 8300 67be
00000140: 05ee a1be bd2f 32be d6f7 fc3d 35c0 ff3d
00000150: cf1a acbe a267 dabb f1c0 753e 198a 7a3e
00000160: 47f0 02be b03e 37be 5cf1 02be edf6 713e
00000170: 5696 2fbd 5641 01be 2d0a e3bd 59b5 bbbc
00000180: c02d 5fbe cbdb 3d3e e21b 6abe 8c53 4bbe
00000190: 39de 863e 9d3e 3cbe 87fb 81be 5743 79bd
000001a0: 33bb 453e fc53 3a3e f3d2 cf3e 84ff 1abe
000001b0: f8fb 01bc 1cf8 8d3d f8b5 93be 7ca9 023e
000001c0: 2450 95be 5607 643e debe 69bd 5a47 163e
000001d0: ab89 433e e565 5b3e 35e8 033e 9ede 713c
000001e0: c0c8 77be f68b f5bd 1918 66be 8306 93bd
000001f0: b389 56bd 3d36 a5bd 947e acbe 944b 163d
00000200: d76f b3be 84e8 1f3e 0b86 71be 5301 43bd
00000210: 5d15 8dbe 7154 593e f745 043e e1dd d73d
00000220: 9386 b8bb 43d4 08be 489e 25be 8a63 23be
00000230: 864a 4e3d 0216 a23e ffde 433e d84e 1a3e
00000240: cce0 9cbe 759c 973e 5789 79bb 768e 213e
00000250: 82e5 f03d f76e 8d3d cf6a 33be 0fba ad3e
00000260: fe88 bbbd 8c0d 843c 053d d9be d74f 77bd
00000270: ca4f 82be 39ca cc3e 5142 5f3e 976a 03bd
00000280: 919d 50be af7b 20bf 3ce6 dbbd 4031 983e
00000290: 8b3e 2ebe 1f4f 77be bdd2 b1bd 5cac 143e
000002a0: 4db1 83be 7219 34bd 451a b93d 6137 7cbd
000002b0: ab66 e8be e031 98bd e910 703e 281c 313e
000002c0: ae29 4d3e d3fa 9cbe 393e b73d ebd4 a4be
000002d0: 4b5b 4f3d 245a 853e f9ea 95bd 7e75 74be
000002e0: 2831 7c3c 25fd 923e 7cd4 53be 7645 3bbe
000002f0: 25b1 5e3e 864b 3c3e c448 96bc 72bf 37be
00000300: 81f2 0e3d b6cc 0e3e 35af 44bc 28aa 6d3e
00000310: 0d3b 693e f0c2 44bb baa2 123e ab22 8cbe
00000320: 112a 88be 51af c23e 5c1c 85be b99a a6bc
00000330: c2d6 f8bd 7340 033e ea92 97be 9bc3 273d
00000340: b5b6 793e 2138 513e 5b96 7abe 6176 e2bd
00000350: a111 b0bd 1ca5 6f3d 5264 f13c 1666 abbc
00000360: 9e37 563e f5ca 7abe 314b 95be 16b4 81be
00000370: c1d6 163e d5f6 f7bd 3ce5 d5bd 5276 bbbd
00000380: eb19 0abd 408f e33e a713 b43d e9eb 16be
00000390: f926 8a3e 17a0 863e f4a4 78bd 0846 09be
000003a0: b47b 6d3e b9f2 54be 4ebd ecbd 94de 3cbd
000003b0: 3e83 343e 9d20 a5bd a7e5 c4bd 8c71 483d
000003c0: ccc0 33bc 19f9 703e 4cf6 0d3e 37bc c2bd
000003d0: f873 6b3e 2acd 13bd a5c6 9b3e 60e5 9a3e
000003e0: 6443 8fbe 9030 68be ecf8 08be 6fb5 44be
000003f0: babc 8e3e c84b 0abe 99fe fdba 2547 37be
-0.07444623 0.20175682 0.28029788 -0.17824072 0.24739419 -0.00049572 0.13602126 0.017950885
-0.15804732 0.21615027 -0.0871966 -0.046821933 0.104402564 0.20604421 -0.04421013 0.09710067
-0.2503669 0.012626124 -0.007199645 -0.20613627 -0.10615502 -0.15598364 -0.16332887 -0.0647573
0.01088099 0.24600196 -0.09784648 0.24787733 -0.015442835 0.25134057 -0.3121381 0.0189522
-0.03736401 -0.44694138 0.3576715 0.13672154 -0.08615571 -0.076171406 -0.03735957 0.17772482
-0.21137938 0.019270966 -0.1560972 0.06588115 0.28052112 -0.34857792 -0.26912957 0.13667114
0.083354436 -0.15339172 0.043869074 -0.0417388 -0.15227082 0.13967873 0.10845194 0.14358279
0.10822577 0.13625169 -0.26376092 -0.4815419 -0.078557126 0.17210728 -0.2703845 -0.13774633
0.42505765 0.3520435 -0.27114284 -0.25147668 0.35137847 0.34033018 0.4689373 -0.05930377
-0.01908175 0.08212708 0.1707817 0.1984379 0.27302256 0.15319796 -0.25321996 -0.22558789
-0.31626907 -0.17401023 0.123519585 0.124878325 -0.33614203 -0.006665186 0.23999383 0.24466743
-0.12786971 -0.17895007 -0.12787384 0.23629351 -0.04286798 -0.1262258 -0.11085925 -0.022913622
-0.21794796 0.18540876 -0.22862199 -0.1985609 0.26341417 -0.1838326 -0.25387213 -0.060855236
0.19309692 0.181961 0.4059063 -0.15136534 -0.007933609 0.06932089 -0.2884977 0.12759966
-0.29162705 0.22268423 -0.05706679 0.14675656 0.19095485 0.21425588 0.12881549 0.014762549
-0.24197674 -0.11989586 -0.2247013 -0.071789764 -0.052377414 -0.08066986 -0.3369032 0.03669317
-0.35046265 0.15616041 -0.2358629 -0.047608685 -0.2755536 0.21223618 0.12917314 0.10540367
-0.005631277 -0.13362221 -0.16173661 -0.1595594 0.05036404 0.31657416 0.19128035 0.15069139
-0.30640256 0.29611555 -0.0038076246 0.15777001 0.11762525 0.069059305 -0.17521213 0.33931014
-0.091569886 0.01611974 -0.42429367 -0.060378876 -0.254515 0.39998034 0.21802641 -0.032084074
-0.20372607 -0.62688726 -0.10737273 0.29725075 -0.17016046 -0.24151276 -0.08682773 0.14518875
-0.25721207 -0.04396958 0.09038214 -0.06157625 -0.4539083 -0.07431388 0.2344395 0.17295897
0.20035431 -0.30660114 0.08947415 -0.32193694 0.050624173 0.26045334 -0.07320208 -0.23872945
0.015392579 0.2870876 -0.20686525 -0.18288216 0.21747263 0.18388185 -0.018345244 -0.17944124
0.03489924 0.13945279 -0.012004663 0.2320944 0.22776432 -0.0030023418 0.14319888 -0.273702
-0.26594594 0.3802438 -0.259982 -0.02033745 -0.12150337 0.12817554 -0.29604274 0.04095803
0.24386103 0.20431568 -0.24471419 -0.11057735 -0.085971124 0.05850707 0.029466782 -0.020922702
0.20919654 -0.24491484 -0.2915893 -0.25332707 0.1473036 -0.12107626 -0.104441136 -0.09153427
-0.033716124 0.4444523 0.08792811 -0.1473843 0.2698286 0.26294014 -0.060704187 -0.13405621
0.2319172 -0.20795716 -0.115595445 -0.046110705 0.1762819 -0.08062861 -0.09614115 0.04893641
-0.010971259 0.23532523 0.13863486 -0.095085554 0.22993457 -0.03608433 0.3042499 0.30253124
-0.27981102 -0.22674775 -0.13376206 -0.19209836 0.27878362 -0.13505471 -0.0019378244 -0.17898233

encoder.encoder_g.linear.weight f4 [32, 1440]
00000000: 3d62 63bd d51d 30bc d57d 96bc 84a2 b4bc
00000010: 5e8e cf3d 8ffd b53d d628 62be 42e7 703d
00000020: 814b 123e 8f31 5dbd 26d9 91bd 0c6b 623d
00000030: 7300 4a3e 7c9c 94bb c674 30be 3904 783c
00000040: 310f b43d 5fc1 873c b08d bfbd 9530 c8bd
00000050: 6575 ae3d f7c2 a03d 8608 563d 592c 75bd
00000060: f233 4a3d 261c 1fbe b90a 55bd 2884 c33c
00000070: fb41 85bc 4c92 8dbd bb97 e23d b3e1 0dbe
00000080: 4504 c53d dea2 7dbb 55a6 08be 6271 033d
00000090: 92cd 813e 9538 143c 1b7b 89bd 9574 fabd
000000a0: 2af2 58bd e2cc f83d 5d35 28bd e704 9e3d
000000b0: dab5 31bd 65aa 1bbd 358e 4d3e e8a4 4bbc
000000c0: 5e02 40bd 6c81 60be 2b3e 023e 4e87 1e3e
000000d0: 9ff7 29be 04c2 cc3c 509d 833d 1204 c13d
000000e0: bb72 52bd cf55 3d3e 5727 0abe b0d2 d03c
000000f0: dd8b 843c 8019 f3bd 0d2b afbc 8711 0d3e
00000100: 6e77 2a3e e0c1 2c3e 31b8 4f3d bdd2 d43d
00000110: 71ad 7c3e fc90 b63b 7c22 adbc a51f c9bd
00000120: c7cf 6f3e 7b57 fa3d 4fa8 d3bc 0254 0f3e
00000130: fee8 febd e984 0cbe fd80 263e 4452 a33d
00000140: a143 113e 3c92 0dbd e296 8ebd 898f ae3c
00000150: fc0b 13bd 2850 4a3e 994a 6a3e f9d3 003e
00000160: 2366 2d3e b6d9 a73d 5aaa 1cbe 5e0d 243d
00000170: 04c5 46bd 72e0 ebbd 6758 90bd 1259 983d
00000180: c90f ef3b a1a3 853c 8315 25bd d659 99bd
00000190: c9d4 c23d e2ff a43d 20f0 28be 1cd0 0d3d
000001a0: 655c 0e3e bcc2 0fbd 41d4 c7bc 30c3 fe3c
000001b0: a3ca ff3d bfd1 d3bc 03f9 e9bd a5e7 033d
000001c0: e53f e93d ad3a f53c d2a9 a7bd 3c18 b9bb
000001d0: 9647 593d 0b96 eebc ce1f 483d c4ca aaba
000001e0: 3cdc 7d3d 9299 fabd 8cdd 35bd bc16 e73d
000001f0: e670 23bd f8b0 98bd 2a91 b53d dfec 95bd
00000200: 7ace 013e 42c9 8c3d 6011 b83c e9c4 c4bd
00000210: 4283 593e 81ef c1bc d1d0 223d e8d6 d9bd
00000220: 3c4e 553e 3031 1cbc 7fc5 1bbd bf3b c43c
00000230: 751b b5bd 044f 68bd 8160 383e 734c 6cbc
00000240: 628e 8abd fa0a 03be eb9f e23b 9115 233e
00000250: 843a 83bb 8852 633d fe57 8a3d c770 e93d
00000260: 94d8 843d 30fc 1a3d 2c99 63be a694 8abd
00000270: e668 28be 19dc 8abd 05f7 593d 9137 e63d
00000280: 0501 773d 4d08 033e 691d 6cbd 89a9 cb3a
00000290: 37db 553e 4543 083e 38f4 213d 10ea a6bd
000002a0: c64a 593d 191d a0bd 56d7 94bb 5faf 1d3d
000002b0: 2c36 4cbd 2541 0abd f409 583e dd29 303e
000002c0: abab b3bd a94a 7dbe da9a 653d 0ea2 073e
000002d0: 235f a9bc 5707 ccbd 130e 033e f35d 403e
000002e0: d93b e43d 6381 18bc 1975 0cbe 91c6 173d
000002f0: 4676 753d 96dd 1dbe 9336 cfbd da73 0d3e
00000300: 174e bc3c aa72 4cbb b1f2 2bba 0a41 1ebd
00000310: bd5c e93d 5a4c e53c f8f6 0fbe fad6 3c3d
00000320: 0031 0f3e 07f6 fabc d52f bfbd b71f ae3d
00000330: 79d9 233e 0ee0 453c 4303 ffbd 7e17 23bc
00000340: bddc 7b3d c797 e33b a272 3bbd 30b3 b9bc
00000350: a960 1e3d 8d8e 9c3c 3562 7c3d 26a2 9dbc
00000360: e4f2 9a3c 4cc4 b1bd 5411 f2bc f251 443d
00000370: 6dae 453c 17ac 3bbd b2a1 cf3d bce7 94bd
00000380: f80f 333e 4180 e43d fb00 13bd d9e6 c4bd
00000390: e8c4 1e3e ad17 30bd 6e72 933d 1ce8 84be
000003a0: 4489 273e bd9c 3e3e 6572 933c be6b 793d
000003b0: 91d0 8dbd 73d1 00be a362 723e c0a6 f13b
000003c0: b35c 853d 5ce0 c1bd d274 c6bd 8eb9 4d3e
000003d0: 79b2 a8bd ecf6 0e3e e827 c93d 4e51 743d
000003e0: 6c73 943d fe42 093e f92c 42be 6806 02bd
000003f0: 6755 68be 0449 e9ba 31da 0dbd 0a1a 513e
-0.05551361 -0.0107493 -0.018370548 -0.02205015 0.10134576 0.08886253 -0.2208589 0.058814295
0.14286615 -0.05400234 -0.07121496 0.05527787 0.19726734 -0.004535256 -0.17232046 0.0151377255
0.0879196 0.016571699 -0.093531966 -0.09774891 0.08518485 0.078496866 0.052254222 -0.059856746
0.049365945 -0.15538082 -0.05201218 0.023866728 -0.016266814 -0.069126695 0.110640965 -0.13855629
0.09619955 -0.0038701813 -0.133447 0.032090552 0.2535215 0.009046693 -0.06712934 -0.122292675
-0.05296532 0.12148453 -0.041066516 0.07715779 -0.043386318 -0.038004298 0.20073779 -0.012429453
-0.046877258 -0.2192437 0.12719028 0.15481302 -0.16598366 0.024994858 0.06426489 0.094246045
-0.051378947 0.18489765 -0.1349157 0.025491089 0.016179973 -0.11870098 -0.021382833 0.13776217
0.16647121 0.16870832 0.050712768 0.10391758 0.24675538 0.0055714827 -0.021134607 -0.09820489
0.23419105 0.12223717 -0.025837092 0.1399689 -0.124467835 -0.13722576 0.16260143 0.07974675
0.14185955 -0.034563288 -0.06962372 0.021308677 -0.0359001 0.1975714 0.22880019 0.12580861
0.16933493 0.08195822 -0.15299359 0.04005181 -0.048527732 -0.11517419 -0.070481114 0.07438864
0.007295583 0.016313376 -0.04030372 -0.07487838 0.09513242 0.08056618 -0.1649785 0.034622297
0.13902433 -0.035097823 -0.024393203 0.031098932 0.12489822 -0.02585685 -0.11424448 0.032203335
0.1138914 0.029935205 -0.081866875 -0.005648641 0.053046785 -0.02912428 0.048858456 -0.00130304
0.06197761 -0.122363225 -0.044400737 0.11283633 -0.03990259 -0.07455629 0.088655785 -0.0732057
0.12676421 0.068743244 0.022469223 -0.0960787 0.21241477 -0.023673775 0.039749924 -0.10636693
0.20830625 -0.009533212 -0.038030144 0.02395427 -0.08843128 -0.05671598 0.18005563 -0.014422524
-0.067654386 -0.12797156 0.0069160364 0.15926196 -0.0040047783 0.05549863 0.067550644 0.11398464
0.064866215 0.03783816 -0.22226399 -0.06766634 -0.16446266 -0.067802615 0.05321409 0.11241067
0.060303707 0.12796135 -0.057645235 0.0015538196 0.20884405 0.13306911 0.039539546 -0.08150113
0.053049825 -0.0781805 -0.0045422716 0.038497325 -0.04985635 -0.033753533 0.21097547 0.1720347
-0.087729774 -0.24735512 0.05605588 0.13245413 -0.020675248 -0.099623375 0.12798338 0.18785839
0.111442275 -0.009308192 -0.13716544 0.037054602 0.059927247 -0.1541656 -0.10117831 0.13813725
0.022986455 -0.0031196275 -0.0006559296 -0.038636245 0.113946415 0.027990509 -0.14059055 0.046103455
0.13983536 -0.030634893 -0.09335295 0.08502143 0.16000928 0.012077345 -0.12451794 -0.009954331
0.06148981 0.0069455835 -0.04576362 -0.022668451 0.0386664 0.019110942 0.061617095 -0.019242357
0.018914647 -0.08680019 -0.029549278 0.04792971 0.012065512 -0.045818415 0.10138263 -0.07270762
0.1748656 0.11157275 -0.035889607 -0.09614343 0.15504801 -0.04299133 0.0719956 -0.25958335
0.16360956 0.18614478 0.017998884 0.060893767 -0.069245465 -0.12579899 0.2367044 0.0073746145
0.065118216 -0.09466621 -0.096902505 0.20090315 -0.08237166 0.1396138 0.09822065 0.05964785
0.072485775 0.13404462 -0.18962468 -0.03174439 -0.22688828 -0.001779825 -0.03463191 0.2042009

encoder.encoder_g.linear.bias f4 [32]
00000000: 9ed0 99bc 8b44 cbbe daaa 013e 028c 9dbd
00000010: 4e95 1dbd ff80 86be e8ed 133e 3e09 a63e
00000020: 8367 bdbe 66d0 83bc 8aab 05be da8c 9f3e
00000030: 94f1 6cbe 5d77 41bd e40a dfbd 342f 8a3e
00000040: 6c5e 643e e28e 5dbd d1dc bbbe 7540 29bd
00000050: 7b7b ec3d fede 7c3d bd9c 313e a804 4a3e
00000060: 231c 37bd d85b 8e3d d1b3 b4be c976 18bd
00000070: 1a08 fdbd 5ade 133d 2469 4b3e 6c85 87be
-0.018776234 -0.39700732 0.12662831 -0.0769272 -0.038472466 -0.2627029 0.14446223 0.32428926
-0.36993036 -0.016090583 -0.13053718 0.3116215 -0.2313903 -0.047232974 -0.10890749 0.26989138
0.22301644 -0.05409134 -0.36691907 -0.041321237 0.115469895 0.0617361 0.17344947 0.19728339
-0.044704568 0.069511116 -0.3529344 -0.037222657 -0.12355061 0.036100723 0.19864327 -0.2646898

encoder.encoder_c.conv1.bias f4 [32]
00000000: 4855 943d 120f 3abd 9005 9a3b 8422 17bd
00000010: 076b 963d dfd2 72bc c31c dbbd 7187 a43c
00000020: 608e 85bc 33af e63c 78d0 c73b 7495 043d
00000030: a666 97bc 60c9 c23c 1e05 983b 37a1 13bd
00000040: 5331 7e3b b38f 4bbd c80b 833c 1136 0f3b
00000050: 1156 31bd 24f9 ddbc 7459 773c 491a 2ebc
00000060: 563c ccbb de99 81bc 581a 843c 9a28 c93b
00000070: 3082 a73c 6819 93bd b5b6 e8bc 71c9 223d
0.072428286 -0.04542453 0.00470037 -0.03689815 0.073446326 -0.014820783 -0.10698845 0.020084115
-0.016303241 0.028159713 0.0060978495 0.032369092 -0.018481564 0.023777664 0.004639282 -0.03604242
0.0038786724 -0.04969759 0.015996829 0.0021852294 -0.04329497 -0.027096339 0.015097011 -0.010626384
-0.0062327785 -0.01582044 0.016125843 0.0061388733 0.02044782 -0.0718258 -0.028407434 0.03974289

encoder.encoder_c.conv1.lin.weight f4 [32, 160]
00000000: fd63 243e 95f9 32bd 8d48 ab3e c5a8 47be
00000010: a3b8 8ebb 1d3e 4b3e 6725 92bc 78ab c5bc
00000020: 2b65 033e 9934 9a3d 09c8 093e 1c3f 4b3e
00000030: 758c e93e 24b6 22be 6a29 003e 8b05 debd
00000040: 5f81 c7bd d5fc 693d bdae da3d e092 063e
00000050: 0b3a 2ebf cfba 923d 66b4 dabe a9d2 d3be
00000060: ae9b abbe 263f c73e 85c0 b93c 6d7b 8c3e
00000070: 336a 8d3d 4b69 ebbb dfa8 8abd b425 44be
00000080: 381c f4bb 5156 ce3d fbcd dabd 1353 8c3b
00000090: feaa d43e c766 093d 21a7 de3d aff7 c23a
000000a0: bd4a 34be d351 48be 1311 dfbd ae70 a0be
000000b0: 0031 f53e a3d7 1b3d 3596 3d3e a336 14be
000000c0: 36d3 44be 5f0f 143e e736 84bd 7dbf 083e
000000d0: 1ac9 d3bd 78c8 003f 9a60 3cbe 7ffb 06bf
000000e0: ebff 2e3f c2c9 05be aa75 1bbe e926 a8bc
000000f0: 4dee 6f3d 952f 863e a84c 143e 1218 1fbe
00000100: c053 e33e 515b 313d 4d75 2d3e 0715 9e3e
00000110: 14cd 3c3e f8ed 52bd 459e 6fbd 3ac0 c8be
00000120: 77c0 253d d81f c73d 5db0 293e f0b0 d43e
00000130: a077 133e 6cdb ba3d 3c11 b3be d097 0c3e
00000140: 503c 193f 452d 053f 62bf 823e 545c fbbe
00000150: 532b cabe a44f d7bc 9017 f53e ea3b 50bd
00000160: 0b8e 9ebe 937c e5bc 030e 043f 3d47 193e
00000170: 6d35 5dbf a47e 4d3d 7e7c 0a3e a55a e83d
00000180: 82a7 103d d0a6 ee3e 5494 0a3e 87e5 1cbd
00000190: 9257 f43e 8cb4 9ebd 08e5 733d 19fd a9bd
000001a0: 6100 48bc eeeb 1dbe 79eb 823d 9ca1 083e
000001b0: dd56 2c3e db4b c23e e363 02be cbab 9a3c
000001c0: a1f6 dd3d 3847 b9bd 23fd a43d aa11 d33e
000001d0: b1b8 4c3e 89d9 683d 59d9 6c3e 607f babe
000001e0: dccf 903e 1ff7 38bf b953 32be 6c41 3abc
000001f0: f2a9 ae3d a440 873c 4f71 36be f1f6 2fbd
00000200: bf78 4d3e 67c2 43be 7eff 91be 49f8 8abd
00000210: 4418 4d3e 0ae2 4b3e 7136 a4be f3ed bd3e
00000220: 47ac 33be a6b0 473e 8f65 b2bd 0c72 f23d
00000230: 7ad9 b4be fb01 0fbe 44e5 6fbd 01cd 1fbd
00000240: b16f a33e e54f b1be 1636 0abe bd89 9ebe
00000250: dcc4 ab3b 4d6c d0be b740 1f3d 1fe6 fb3d
00000260: 73a9 c3be 27fb 31bf 88dd 25bf 9706 bcbe
00000270: a554 8bbe c00c d0bd cb7b b6be 2b81 693d
00000280: 6b94 d33e 24f9 9c3d 931b 223c b807 97be
00000290: 9e34 403d 3633 ec3b c60b c5be 61b6 683e
000002a0: 3891 683e 9097 043e 6f18 44be b242 7abd
000002b0: 5275 a2bd c625 bbbd 4c7d 763d 2897 63be
000002c0: b335 313e c67c 3ebe 8786 07bd 9a79 29be
000002d0: 0fee aebd c40f c23e 03d8 24be c10a 4d3e
000002e0: af35 76bd 9a93 0cbf f0f4 943e 8a71 af3d
000002f0: e6c6 693e a8cf 00bf a597 28be 7b1a 66be
00000300: babb 29bc fdb9 153d f66a e6be b219 3d3d
00000310: 8fe9 82bd 3cfe 1e3d 2ee8 bd3e 03c4 193c
00000320: fe90 5abe 9f00 4abe daa4 1e3d d7ce a9bd
00000330: a0c5 853e fde4 053e 577e 02be 1ab0 90bd
00000340: c268 93bd 401a 803e 755e ac3e dfc0 c93e
00000350: d7f4 cc3e 917b 073d da59 ef3e 1fc7 2fbe
00000360: d966 263f c0da a7be 8178 3c3e ff25 c9be
00000370: 4ec6 8f3d c6fd 9a3d 09ca 9e3e 6199 02be
00000380: c08c 8cbc 344f 2a3e 658c 57be c7ae 993c
00000390: 6691 45bf ec78 0fbe 59ad b3be 3967 63be
000003a0: faae 67bd 974d 8e3e 37a4 15be a5da 0ebc
000003b0: 3125 e63d cfe7 9f3d d26c c8be 218c 8bbd
000003c0: 6409 9e3e bc86 ee3c 2b0c f73c 8b3d f0bd
000003d0: 03a8 613e 3dec 2c3d 7303 493e 9f87 78bd
000003e0: b98a 653c 2e1f 8abe 8074 073f 3c18 473d
000003f0: 83d7 99be 6788 3e3d 5f07 553e 4120 8b3e
0.16053768 -0.04369505 0.3345379 -0.19497974 -0.0043555065 0.19847913 -0.0178401 -0.024129614
0.12831561 0.075295635 0.13455214 0.19848293 0.45614973 -0.15889794 0.12515798 -0.10840901
-0.097414725 0.057125885 0.1067786 0.13141966 -0.68057317 0.07164537 -0.42715758 -0.41371658
-0.33517212 0.38915366 0.022674808 0.27437916 0.069050215 -0.0071841828 -0.06770491 -0.19155008
-0.007449653 0.10075057 -0.10683819 0.004282364 0.41536707 0.03354528 0.10871721 0.0014874841
-0.17606635 -0.19562463 -0.108919285 -0.31335968 0.47888947 0.038047444 0.1851433 -0.14473967
-0.19221196 0.14458989 -0.06455784 0.13354297 -0.103410915 0.5030589 -0.18396226 -0.527275
0.6835925 -0.13065246 -0.15181604 -0.020526366 0.05857687 0.26208177 0.14482367 -0.15536526
0.44399834 0.043299977 0.16939278 0.30875418 0.18437606 -0.051496476 -0.058500547 -0.39209157
0.040466752 0.097228706 0.16571184 0.41541243 0.14401102 0.09123883 -0.34974086 0.13729787
0.59857655 0.520222 0.25536638 -0.49093878 -0.3948618 -0.026283093 0.4786954 -0.05083839
-0.30967745 -0.028013503 0.5158388 0.14968581 -0.86409646 0.050169602 0.13524053 0.11345414
0.035315998 0.46611643 0.13533145 -0.03830483 0.4772306 -0.0774928 0.059544593 -0.08300228
-0.012207122 -0.15422031 0.06392569 0.13342899 0.1683001 0.37948498 -0.12733416 0.018880745
0.10838056 -0.09046787 0.080560945 0.41224414 0.19992329 0.056848083 0.23129787 -0.36425304
0.28283584 -0.72252077 -0.1741475 -0.011368137 0.08528508 0.016510315 -0.17816661 -0.04296011
0.20065592 -0.19117127 -0.28515238 -0.06785638 0.20028788 0.19910446 -0.32072785 0.37095603
-0.17546187 0.1950098 -0.08710777 0.11838159 -0.3532217 -0.13965599 -0.058568254 -0.039013866
0.3192115 -0.34631267 -0.13497195 -0.3096446 0.0052419733 -0.40707627 0.038880076 0.122997515
-0.38215217 -0.69523853 -0.64791155 -0.36723778 -0.27213016 -0.10158682 -0.35641322 0.05700795
0.4132417 0.07664707 0.0098942695 -0.29498076 0.04692518 0.0072082533 -0.38485545 0.22725822
0.22711647 0.12948442 -0.19149946 -0.06109876 -0.07932533 -0.09138064 0.060178086 -0.2222563
0.17305641 -0.18602285 -0.03308728 -0.16550294 -0.085415 0.37902653 -0.16098027 0.20023634
-0.06010979 -0.5491272 0.29093122 0.08566578 0.2282978 -0.5031686 -0.16464098 -0.22471039
-0.010359699 0.036554325 -0.4500348 0.046167083 -0.06392204 0.038816676 0.37091202 0.009385112
-0.21344373 -0.197268 0.038731433 -0.08291405 0.26127338 0.13075633 -0.12743507 -0.07064839
-0.07197715 0.25020027 0.33665815 0.3940496 0.40030548 0.033076826 0.4674824 -0.17165802
0.65000683 -0.3278408 0.18405344 -0.392868 0.070202455 0.07567935 0.31013516 -0.12753822
-0.017156959 0.16631776 -0.2104965 0.018760098 -0.77174985 -0.14010972 -0.3509319 -0.22207345
-0.056563355 0.2779357 -0.14613424 -0.008719121 0.112375624 0.07807886 -0.39145523 -0.06813837
0.3086654 0.02911698 0.03015717 -0.117304884 0.22036748 0.042217482 0.19630222 -0.060676213
0.014010125 -0.26976913 0.5291214 0.048607096 -0.30047235 0.046516802 0.20803593 0.27173045

encoder.encoder_c.conv2.bias f4 [32]
00000000: e6bd 343e addc 95bc b8d3 c0bc 676c 5e3d
00000010: c384 bfbd bee7 1f3d 66cf 16be 287e 533d
00000020: ad4a 97bd 053c b3bd e9cc 123e 3820 53bd
00000030: e540 09be 4223 e83d df1c 4c3b 0d19 973d
00000040: 9825 063e 46c4 02be c7b9 e43d 872f 81bd
00000050: 6845 d73c 35c6 d83d 4c79 0c3e 0c70 123e
00000060: 505b 0abd 1da2 acbc f314 fbbd 02cd bcbd
00000070: 6c4a 6cbd 924c 2dbe 54a9 8b3d dcad 973d
0.17650566 -0.018293703 -0.023538455 0.0543026 -0.09351494 0.039039366 -0.14727554 0.051633984
-0.0738729 -0.08751682 0.1433598 -0.051544398 -0.13403662 0.1133485 0.0031145138 0.07377825
0.13100278 -0.12770185 0.11168247 -0.06307893 0.026278213 0.1058468 0.13718146 0.14300555
-0.03377849 -0.021073395 -0.12259855 -0.0921879 -0.05768816 -0.1692374 0.06819406 0.07406208

encoder.encoder_c.conv2.lin.weight f4 [32, 32]
00000000: 769b 823e 5c20 3ebc 7ce8 bfbe 3ccb d2be
00000010: 3f6b a73e 02b6 05bf 10bd 73be b890 c63e
00000020: e2bf abbe 90c5 8b3e 4078 ce3e 56f1 2abe
00000030: 5e11 803a 54cd f83d ed94 62be d783 edbe
00000040: 0331 ccbd 4c00 31bd 9350 bdbe 3b8f cabe
00000050: da68 b13e b90e b13e 9720 75be e225 ccbd
00000060: 4a7a b93e 58c9 b7be ccd0 f6bc ffd7 a63e
00000070: 8e47 8c3d e635 023f d8b8 843a 86a6 303e
00000080: 8066 5f3e 63ad de3d 1eae 613d 2e40 153e
00000090: 74c2 96be 1475 d3be 4927 10be f9e1 debe
000000a0: f115 20be d1c4 1ebf 1185 73be c271 873e
000000b0: 9866 013f 2b73 89be dafa 93bd 1aeb 823e
000000c0: 090d c8bd 5822 45be f4f7 1f3d 8391 663e
000000d0: 01b2 bb3e dd7e 4d3e 17a4 97be 8b8a 9ebe
000000e0: 1c0f 0b3f b2d2 923e aed5 03bf e71d 2f3e
000000f0: a6b7 b23e 80c8 30be 1f93 723e 878f 3a3e
00000100: 9b56 0cbe 2337 8fbe a0ab cd3e 1581 2a3e
00000110: adb5 06be e3f8 29be 09e5 36be 29b9 2a3e
00000120: 6bea 27bf 8780 18be c7eb 063e 71c5 55bc
00000130: e1f2 a23e 5ddd 59bd 14b0 adbe 0826 633e
00000140: 5514 19bd 07b0 a23d 89be 85bc ddad cf3d
00000150: 8fcc 09bf 3482 1fbf 08b4 9b3c d26a 28bd
00000160: baca b03e 4d63 e93e ea6a b83e b684 803e
00000170: 3925 98bd d15e debe cad9 0e3e d2cb 3fbe
00000180: ebf1 ce3e 857d ac3d e94c b63e 9d72 fe3e
00000190: 8aeb e6be a3e2 39be fe26 e0bd 4d91 953e
000001a0: d5e4 63bd 9fd4 cf3d c6a5 f8be 879c 4ebd
000001b0: 60df dbbd 486b a2be eb00 b1bd 6643 803e
000001c0: 86c9 be3e 856d 64be f262 37be 813d b83d
000001d0: 7f8e a33e 6f5f 9fbc 4e72 0b3e 458a 1abf
000001e0: 8873 a4be 01ca fabe 7f31 023f 8452 8a3e
000001f0: f3b2 a93d cb9a e6be 2c73 99be af3b 26bd
00000200: 13a0 13be 6093 633d cb4f 813e ec2d ab3e
00000210: da35 debd 5722 91be d1f0 3b3e a8c1 a2be
00000220: 7120 a93e 0092 593e 9c35 183e 9dbd 733e
00000230: fe2b c03e c6c3 0bbf 73b8 5bbd 8c94 9bbe
00000240: 58b5 553e 1f2d 55be 0d89 7e3e 093c 86bd
00000250: fa9e c1be d2f7 6f3e 3921 06bd a40a 8f3e
00000260: 4fff bfbe 6ff7 283e e1eb 793e ab18 b4bd
00000270: 570f 823e 7b94 20bf b8ee 543e 5fc2 55be
00000280: 18b0 963d e352 63bd fa9b b63e 769f 62be
00000290: 4679 d93e 0b6e 05be 6fbd babd f742 263f
000002a0: db9e b5be 1b48 a9be 7411 453e ca8e d9bd
000002b0: 8f9f b13e 2844 4c3c 1239 173e d84d 02bf
000002c0: 225b 05bf 0156 13bf 8b03 e8be 6385 b63d
000002d0: 3465 1ebe 7c36 ed3e b03d afbe d31c 853e
000002e0: 0e9a e8be d503 9e3e f6f3 db3e b1e5 963e
000002f0: 97b7 83be 382a 5ebe 8261 893e c911 a4be
00000300: 65e7 3cbd 1bee debe 2ddc cd3d ca09 74be
00000310: 7253 723d 7ba2 023f fe24 d5bd c1b3 e33e
00000320: eb54 04bf 08f6 21be 569c f0bd e682 31be
00000330: 7d02 a1be 6b93 fabd a752 a53d 05c4 50be
00000340: 6337 d53e 4e70 003f d4d0 9b3e 1b39 9a3e
00000350: a0e0 98bd e295 343f 3ce1 963d ae0e 05be
00000360: ec64 0cbf ee90 063e c1ca 733c 46d7 48be
00000370: 187f 043f c33b 573e d6d2 edbe 03fd b9be
00000380: 695e 433e c5f6 c5bc d48a cd3e 6e76 733e
00000390: 53c1 b03e 569a c3be 5362 3dbf bcd3 05bd
000003a0: 285d 4a3e adec 413e 3dd7 aa3e aa6c 9fbe
000003b0: ef12 87be 0afa 1f3e 27f6 e5be 3a60 62bd
000003c0: d79a b03d a141 983e bf6d afbe 31e2 a0bd
000003d0: 9891 86bd cfae a7be 4b3c 85be 617a 013f
000003e0: 2ef6 b63e 3ef3 113e 8d30 f7be 693a 8bbe
000003f0: df09 0ebd 2b97 b33e a027 cebd ca9d 1dbe
0.25509232 -0.011604395 -0.3748206 -0.4117068 0.3269901 -0.52230847 -0.2380259 0.38782287
-0.33544832 0.27299166 0.40326118 -0.16693625 0.0009770801 0.12148538 -0.22127123 -0.46389648
-0.09970286 -0.043213174 -0.36975536 -0.395624 0.34650308 0.34581545 -0.23938213 -0.09968163
0.36226112 -0.358958 -0.030128859 0.32586667 0.068495855 0.5086349 0.0010125889 0.17251024
0.21816444 0.10872915 0.05509769 0.14575264 -0.2944523 -0.4130026 -0.14077486 -0.43531778
-0.1563337 -0.6201907 -0.2378123 0.26453978 0.5054717 -0.2684568 -0.072255805 0.25569993
-0.09768111 -0.19251382 0.039054826 0.22516446 0.36659244 0.20067926 -0.29617378 -0.30965075
0.5431993 0.28676373 -0.51497924 0.1710125 0.34905738 -0.17263985 0.23688935 0.18218814
-0.13704912 -0.27971753 0.40170002 0.16650803 -0.13155241 -0.16598849 -0.17860807 0.16672195
-0.6559207 -0.1489278 0.1317588 -0.013047562 0.31825927 -0.053189624 -0.339234 0.22182477
-0.037372906 0.07943731 -0.016326206 0.10140584 -0.53827757 -0.6230805 0.019006744 -0.041117497
0.34529668 0.45583573 0.3601907 0.2510125 -0.07428975 -0.43431714 0.13950267 -0.18730095
0.40418944 0.084223785 0.35605553 0.49696818 -0.45101577 -0.18152861 -0.10944937 0.29212418
-0.055638153 0.10147976 -0.48563975 -0.050442245 -0.10735965 -0.31722474 -0.08642753 0.2505142
0.37263125 -0.22307403 -0.17908838 0.08996106 0.31944653 -0.019454686 0.13617823 -0.6036723
-0.32119393 -0.48982242 0.50856775 0.2701608 0.08286085 -0.45039973 -0.29970682 -0.040584262
-0.14416532 0.05556047 0.2525619 0.33433473 -0.10850115 -0.28346512 0.18353583 -0.31788373
0.33032563 0.21247101 0.148642 0.238028 0.37533563 -0.545956 -0.0536427 -0.3038677
0.20869958 -0.20817994 0.24856968 -0.065544195 -0.37816602 0.2343438 -0.032746527 0.27937806
-0.37499472 0.16500638 0.24406387 -0.087937675 0.25402328 -0.62726563 0.20794189 -0.20874928
0.07357806 -0.05549897 0.35665876 -0.22131142 0.42475337 -0.1303026 -0.09118163 0.6494593
-0.3547276 -0.33062825 0.19244939 -0.10622938 0.34692046 0.012467422 0.14767864 -0.5090003
-0.5209218 -0.57553107 -0.45315203 0.0891216 -0.15468293 0.4633063 -0.3422675 0.25998554
-0.45430034 0.308623 0.42959565 0.29472116 -0.25726005 -0.21695793 0.26832205 -0.3204482
-0.046119113 -0.43541035 0.10051761 -0.23831859 0.05916161 0.51029176 -0.10407446 0.4447308
-0.51692075 -0.1581651 -0.11748569 -0.1733509 -0.3144721 -0.12235149 0.08072405 -0.20387276
0.4164382 0.50171363 0.3043276 0.30121693 -0.07464719 0.70541203 0.07367179 -0.12993881
-0.54841495 0.13141224 0.014879883 -0.1961337 0.5175643 0.21018891 -0.46449918 -0.36325845
0.19078983 -0.02416552 0.4014498 0.23775646 0.34522495 -0.38203686 -0.73978156 -0.03267263
0.19762099 0.18937941 0.3336734 -0.31137592 -0.26381633 0.15622726 -0.44914362 -0.05526755
0.08623283 0.2973757 -0.34263417 -0.078556426 -0.065707386 -0.32750556 -0.26022562 0.5057736
0.35734695 0.14252946 -0.4827923 -0.27193 -0.034677383 0.3507627 -0.100661516 -0.15392223
