output/merfish/model_pth/sc_trained_gae_model.pth (torch, 220899 bytes, 10 tensors)

encoder.encoder_g.conv1.bias f4 [32]
-0.0147941075 -0.035761394 -0.05198751 -0.10680074 0.0075009344 -0.08412229 -0.048520114 -0.06839475
-0.15226825 -0.106424645 -0.047168013 -0.05224973 -0.040601682 -0.1144679 -0.06251106 -0.09755778
-0.05913846 -0.052831877 -0.009377152 -0.038053516 -0.08362014 -0.03533362 -0.035737563 -0.024987789
0.015112955 0.0015601828 -0.06357694 -0.12524953 -0.036047973 -0.08563386 -0.019850666 0.008409567
00000000: fc62 72bc 8a7a 12bd dbf0 54bd 59ba dabd
00000010: 66ca f53b 4f48 acbd 07bd 46bd 8c12 8cbd
00000020: 35ec 1bbe 2af5 d9bd 3f33 41bd d003 56bd
00000030: f34d 26bd 256e eabd cc05 80bd 60cc c7bd
00000040: 2b3b 72bd 3d66 58bd a0a2 19bc 01de 1bbd
00000050: 0941 abbd fcb9 10bd 8d61 12bd 31b3 ccbc
00000060: 549c 773c 0c7f cc3a a034 82bd 6a41 00be
00000070: 0aa7 13bd ce60 afbd dd9d a2bc 48c8 093c

encoder.encoder_g.conv1.lin.weight f4 [32, 64]
0.15817934 0.41568914 0.1338917 0.4492453 -0.066553436 0.055938475 -0.070539996 -0.21272567
-0.18479255 -0.24473695 0.07436724 -0.023425322 -0.25062785 0.077623636 0.008139362 0.14186414
-0.2273876 0.16188374 0.11337823 0.18308397 0.14318627 0.22466782 0.22331887 0.011876423
0.017582275 0.1332557 0.04565864 -0.18267144 -0.033657297 0.14064644 -0.17878118 -0.016001392
-0.0888225 -0.0780615 0.112138905 -0.16241227 -0.06335453 -0.20458518 0.045022033 -0.11831052
-0.27348667 -0.09716102 0.26853356 -0.110984854 -0.09422772 0.23313522 -0.0022093453 -0.23334366
0.07179513 -0.19165248 0.25026622 0.38038057 -0.13867664 0.23417635 0.1177325 -0.08871701
0.2941238 -0.15475163 -0.06802881 0.20463373 0.23763917 -0.12676075 0.05903293 -0.17295446
0.3253127 0.22467302 -0.17101786 -0.17083158 0.08427284 -0.04281522 0.0034135464 0.17617364
-0.120545745 0.25388402 0.15662897 0.019924719 -0.13904163 -0.0076209526 -0.040700145 -0.1924971
-0.14841531 0.113551065 0.22314338 -0.17971301 0.025849843 0.06581456 -0.24482949 -0.09292513
-0.08914311 -0.09732669 -0.09342273 0.13434991 -0.04023018 -0.062211324 0.03554789 0.3751807
-0.17376451 -0.14127238 0.15227224 -0.06341299 -0.12654586 0.14388183 0.07033157 0.3374346
0.01949719 0.12535457 0.21299016 -0.1460404 -0.07580853 -0.0018863163 -0.26302287 -0.24068268
0.014365638 0.069575764 -0.19263835 -0.10586616 0.06468402 0.02855855 0.24771287 -0.097289994
-0.088967875 0.28380153 0.19209065 0.16454582 0.24532822 -0.3050923 0.22619367 0.049306385
0.08932786 0.04050707 -0.1558515 -0.15735853 -0.0021137893 -0.12440631 -0.10973784 -0.15086293
0.07932248 0.29075116 0.08217556 -0.21736926 0.099112 -0.22079878 -0.2554516 -0.36567688
0.007886238 -0.037117854 -0.08946368 0.1654074 0.25085288 -0.13396095 -0.23200613 0.008195523
-0.10497133 -0.017207699 0.06624505 -0.2730686 0.27029043 -0.032230828 -0.0875521 -0.13468152
-0.03359423 -0.2161923 -0.12541907 -0.033301357 -0.1504543 -0.233532 0.0051390314 -0.24124773
0.08252584 -0.16869827 0.27665487 0.16317064 0.23605803 0.059472296 -0.014701966 0.22239488
0.00066655764 -0.02155494 0.19305298 -0.06478789 0.18389964 0.09504374 0.11530041 -0.19870873
-0.13177043 -0.021538893 -0.059987742 -0.14404981 0.19428732 0.22077589 0.06924876 -0.09392566
0.052600037 -0.20792791 -0.09679649 0.30117455 0.064088166 0.2594945 -0.13362466 0.07184743
0.27353507 -0.0046063964 -0.1604383 -0.117511176 0.33180228 0.042900663 0.0935552 -0.08967562
0.118219584 0.028595291 -0.05818539 -0.3316809 0.11461289 0.1554228 -0.10857081 -0.13943172
-0.06770631 0.42244455 -0.06392818 -0.44754317 0.049987566 0.050913155 0.24375765 0.1907528
-0.08569539 0.13498613 0.1912202 0.058508188 -0.06852378 0.016466482 0.07995851 -0.002968846
0.12583594 -0.12999581 -0.14985347 -0.18859722 0.020373859 -0.11048493 0.18304531 0.051459704
-0.09563477 -0.13910794 0.2562329 -0.12482759 -0.043429647 -0.023910677 -0.14445354 -0.09885124
0.18841615 -0.13309729 -0.107696205 -0.057207044 0.20363967 -0.3099002 -0.07424586 0.043662053
00000000: c4f9 213e 35d5 d43e e81a 093e 7b03 e63e
00000010: 2b4d 88bd be1f 653d 4677 90bd c2d4 59be
00000020: 423a 3dbe 539c 7abe da4d 983d 76e6 bfbc
00000030: 4b52 80be 24f9 9e3d f55a 053c d544 113e
00000040: 4cd8 68be dac4 253e d832 e83d 5d7a 3b3e
00000050: 6c9f 123e 520f 663e b4ad 643e 5495 423c
00000060: b408 903c 2f74 083e 8e04 3b3d 390e 3bbe
00000070: 3cdc 09bd 9f05 103e 6a12 37be 5a15 83bc
00000080: 92e8 b5bd b5de 9fbd 15a9 e53d 674f 26be
00000090: 05c0 81bd c77e 51be 0669 383d c94c f2bd
000000a0: 7206 8cbe 5bfc c6bd 3b7d 893e 074c e3bd
000000b0: 76fa c0bd 00bb 6e3e aaca 10bb a4f1 6ebe
000000c0: 5309 933d 8c40 44be e522 803e 3ec1 c23e
000000d0: 4001 0ebe edcb 6f3e bd1d f13d 44b1 b5bd
000000e0: 6597 963e 3677 1ebe b052 8bbd 818b 513e
000000f0: af57 733e 92cd 01be 83cc 713d f91a 31be
00000100: 638f a63e af10 663e 4e1f 2fbe 79ee 2ebe
00000110: 3d97 ac3d 035f 2fbd ceb5 5f3b dd66 343e
00000120: b0e0 f6bd 16fd 813e 5863 203e 2a39 a33c
00000130: ee60 0ebe 2fb9 f9bb 32b5 26bd f61d 45be
00000140: 2ffa 17be 768d e83d b37f 643e b006 38be
00000150: 0dc3 d33c c9c9 863d 95b4 7abe 884f bebd
00000160: aa90 b6bd 3753 c7bd 6b54 bfbd 0693 093e
00000170: 67c8 24bd 4dd1 7ebd aa9a 113d af17 c03e
00000180: 53ef 31be b5a9 10be 41ed 1b3e abde 81bd
00000190: 3d95 01be c255 133e 000a 903d 3ac4 ac3e
000001a0: 92b8 9f3c f35c 003e 181a 5a3e 9d8b 15be
000001b0: 8141 9bbd 463e f7ba efaa 86be 8575 76be
000001c0: da5d 6b3c bd7d 8e3d fd42 45be 5bd0 d8bd
000001d0: 0e79 843d 9ff3 e93c 71a8 7d3e fa3f c7bd
000001e0: ca34 b6bd 6f4e 913e 69b3 443e b37e 283e
000001f0: 5237 7b3e 0f35 9cbe 509f 673e 7ef5 493d
00000200: 86f1 b63d beea 253d 8997 1fbe 9822 21be
00000210: 8087 0abb bcc8 febd 3cbe e0bd d07b 1abe
00000220: d373 a23d 56dd 943e a94b a83d 0c96 5ebe
00000230: 3bfb ca3d 1319 62be 8dca 82be 003a bbbe
00000240: 4835 013c e408 18bd bc38 b7bd 8f60 293e
00000250: ca6f 803e 0f2d 09be 0493 6dbe 8446 063c
00000260: 35fb d6bd 29f7 8cbc 7cab 873d a6cf 8bbe
00000270: 8263 8a3e 7904 04bd 844e b3bd f4e9 09be
00000280: 1a9a 09bd 8461 5dbe db6d 00be 0167 08bd
00000290: b110 1abe 0323 6fbe 5265 a83b a509 77be
000002a0: 4f03 a93d 3dbf 2cbe b5a5 8d3e 3416 273e
000002b0: 32b9 713e 3999 733d 84e0 70bc 7cbb 633e
000002c0: edbb 2e3a fc93 b0bc aeaf 453e 83af 84bd
000002d0: 3050 3c3e 4ba6 c23d 9f22 ec3d 4d7a 4bbe
000002e0: d4ee 06be 5572 b0bc b5b5 75bd cb81 13be
000002f0: 41f3 463e 1313 623e 4bd2 8d3d 195c c0bd
00000300: 2373 573d 0eeb 54be 3d3d c6bd 8d33 9a3e
00000310: a840 833d 77dc 843e e7d4 08be bf24 933d
00000320: ca0c 8c3e 41f1 96bb f049 24be b3a9 f0bd
00000330: fde1 a93e 9bb8 2f3d de99 bf3d daa7 b7bd
00000340: 1c1d f23d ac40 ea3c ce53 6ebd 14d2 a9be
00000350: 2aba ea3d 2827 1f3e 5f5a debd 30c7 0ebe
00000360: 9ba9 8abd a74a d83e c7ec 82bd 6124 e5be
00000370: c3bf 4c3d 508a 503d 9b9b 793e b454 433e
00000380: 1181 afbd ce39 0a3e 3acf 433e 48a6 6f3d
00000390: 3256 8cbd b7e4 863c 4ac1 a33d f890 42bb
000003a0: 23db 003e 9f1d 05be 3073 19be a11f 41be
000003b0: 14e7 a63c ec45 e2bd 3b70 3b3e 69c7 523d
000003c0: 2adc c3bd 5072 0ebe f530 833e 9ca5 ffbd
000003d0: 49e3 31bd 53e0 c3bc a1eb 13be 8572 cabd
000003e0: 2af0 403e a84a 08be d48f dcbd ef51 6abd
000003f0: eb86 503e 3dab 9ebe 370e 98bd fbd6 323d

encoder.encoder_g.conv2.bias f4 [32]
-0.26414394 0.1465199 0.096629016 -0.020403853 -0.10107571 -0.23477001 0.065767676 -0.07026093
-0.16141988 -0.01520911 -0.115618736 -0.10944129 0.059301723 -0.105196945 0.032786697 -0.14587222
0.22764602 0.38730446 -0.35270482 0.02288409 -0.018020248 0.0031042988 0.25393462 -0.12562269
-0.17566614 0.09464166 0.0512569 -0.17561519 0.108002655 0.3233364 -0.019734288 0.40735093
00000000: e03d 87be 5009 163e 6fe5 c53d fb25 a7bc
00000010: c800 cfbd 8d67 70be 34b1 863d f6e4 8fbd
00000020: 414b 25be a22f 79bc 84c9 ecbd c122 e0bd
00000030: 5de6 723d 7f71 d7bd 584b 063d 875f 15be
00000040: 0a1c 693e c54c c63e ba95 b4be 6a77 bb3c
00000050: 339f 93bc 7e71 4b3b b803 823e 3ca3 00be
00000060: d3e1 33be 7dd3 c13d c1f2 513d 78d4 33be
00000070: 7f30 dd3d 598c a53e cda9 a1bc 4d90 d03e

encoder.encoder_g.conv2.lin.weight f4 [32, 32]
-0.15703572 -0.0011998832 -0.10575839 0.12590933 0.35327268 -0.15315896 0.6240972 -0.0443952
-0.22990689 0.08479747 -0.29191026 0.17136504 -0.2362564 0.012194846 0.32339773 -0.10546106
0.15573469 -0.10631462 -0.23303461 -0.08997471 -0.31270173 -0.2635016 0.22240345 0.18876539
0.02822826 0.06356174 -0.20255114 0.0056355516 -0.29890323 0.3784899 0.47006562 -0.04384349
-0.19916584 0.19402793 -0.24507701 -0.14906873 -0.15085518 -0.09868714 0.08161904 0.11722272
0.0054023205 0.13444535 -0.30212668 -0.19339404 0.27245882 0.27216002 -0.086367115 0.31911883
0.076383844 0.037098352 0.030943645 0.25400233 0.09282208 0.06328623 0.24893998 0.26406294
0.049750503 -0.008757381 0.509666 -0.081664585 -0.1795883 -0.05058051 -0.25290093 0.19941233
0.13892469 -0.28642467 -0.03859003 0.093880594 0.27350047 0.27647796 -0.032746814 -0.071776025
-0.20113325 -0.24981423 0.24004385 0.18647811 0.03539522 0.24491164 -0.29373345 -0.23969196
-0.09129716 0.22713768 0.096056625 0.1428434 0.12764272 -0.04443336 -0.041785896 0.24023923
-0.14660709 -0.30681545 -0.030730331 0.14218701 0.07668647 -0.010789236 -0.33292493 0.17899542
0.14002734 0.1397214 0.13589898 0.05566433 -0.00804316 0.24416758 -0.12440513 0.056778993
0.036729414 -0.013905817 -0.24908446 -0.007745603 0.13214386 -0.20962213 -0.37716773 0.21418998
0.2900157 -0.3096645 0.2926654 0.14805917 0.2550491 -0.3957529 0.27448216 -0.08137323
-0.27416864 0.07252925 0.014339642 0.195143 -0.30395383 -0.22284356 0.24746023 -0.014646586
-0.07572999 0.05209106 -0.008007963 0.05471717 0.04756056 -0.39572862 0.070424065 -0.37867197
-0.11849186 -0.34274003 -0.13742211 -0.23662226 0.2415789 0.16000557 0.18491319 0.1614884
-0.37284476 -0.29307088 -0.20501754 -0.29299694 -0.5402185 0.16630255 -0.022763655 0.09460424
0.16550691 0.11038495 -0.09834669 -0.11201601 -0.21238682 0.13236545 0.07975688 0.27210093
-0.13043289 0.12855169 0.32817072 0.046745606 0.05664351 0.27351505 0.1170651 0.28015634
-0.055685353 0.009867055 -0.14886728 0.14832395 0.1493603 -0.30014265 0.06390428 -0.29190525
0.35325578 -0.18497188 -0.292001 -0.25388888 0.10388408 0.3018104 -0.20902418 0.22550485
0.0972068 -0.25568172 0.07625568 -0.35318306 -0.12603708 0.033729233 0.03854735 -0.08455871
0.12968323 0.14623189 -0.30887628 -0.10371657 0.18793821 -0.13173155 -0.13100648 0.2717922
-0.042844117 -0.16615473 -0.23165451 -0.09063986 0.004053959 -0.09657306 0.35143125 0.40430456
0.14112425 -0.030044252 0.029980827 0.062845014 -0.47922796 0.10111661 -0.07749688 0.2022589
0.122961275 0.10334495 -0.08221033 0.15186752 -0.035456482 0.084030345 0.29212913 0.2950007
0.029909518 0.33412004 0.008485365 0.2978298 -0.28661773 -0.114040494 -0.08196198 -0.072583504
-0.025113573 0.1720114 -0.13579829 0.12299055 -0.33022708 0.21142408 -0.016731532 -0.34030813
0.21404542 0.24773356 0.049451396 -0.21284819 0.07810749 -0.11041053 -0.27920744 0.20852742
-0.3258936 -0.051189307 -0.05903268 0.11608697 -0.29531842 -0.16833395 0.07689319 -0.09246012
00000000: f9cd 20be 6645 9dba db97 d8bd 60ee 003e
00000010: 28e0 b43e b4d5 1cbe d6c4 1f3f bed7 35bd
00000020: b66c 6bbe 4caa ad3d 4375 95be 517a 2f3e
00000030: 33ed 71be e4cc 473c 6394 a53e f8fb d7bd
00000040: ea78 1f3e 7bbb d9bd a0a0 6ebe a944 b8bd
00000050: 711a a0be afe9 86be bbbd 633e b74b 413e
00000060: f43e e73c a82c 823d 9169 4fbe 6faa b83b
00000070: d809 99be 6ec9 c13e 71ac f03e 3b95 33bd
00000080: 21f2 4bbe 42af 463e 78f5 7abe 79a5 18be
00000090: c879 1abe 7c1c cabd e227 a73d 7712 f03d
000000a0: f305 b13b 0bac 093e 59b0 9abe 1609 46be
000000b0: b97f 8b3e 8f58 8b3e 3ee1 b0bd 8b63 a33e
000000c0: 226f 9c3d 71f4 173d 877d fd3c 980c 823e
000000d0: 8119 be3d 369c 813d 1fea 7e3e 4233 873e
000000e0: 2fc7 4b3d 1e7b 0fbc 7979 023f c33f a7bd
000000f0: ffe5 37be 822d 4fbd 3b7c 81be bf32 4c3e
00000100: 4642 0e3e 41a6 92be 9410 1ebd 7844 c03d
00000110: 4108 8c3e 858e 8d3e 8621 06bd 4fff 92bd
00000120: e0f5 4dbe 4dcf 7fbe 0ece 753e 1ef4 3e3e
00000130: 94fa 103d 1eca 7a3e 3b64 96be cf71 75be
00000140: 01fa babd c896 683e 56b9 c43d 8a45 123e
00000150: c6b4 023e c1ff 35bd b027 2bbd 4601 763e
00000160: 2b20 16be ea16 9dbe 2dbe fbbc 7999 113e
00000170: cc0d 9d3d 56c5 30bc 2375 aabe 934a 373e
00000180: 5463 0f3e 2013 0f3e 1a29 0b3e 4800 643d
00000190: 75c7 03bc 1107 7a3e 1ec8 febd 1791 683d
000001a0: 9571 163d 39d5 63bc ff0f 7fbe d4ce fdbb
000001b0: b850 073e 2fa7 56be 211c c1be 9e54 5b3e
000001c0: f07c 943e 588c 9ebe 3dd8 953e d39c 173e
000001d0: cc95 823e 20a0 cabe ed88 8c3e 02a7 a6bd
000001e0: d55f 8cbe 378a 943d d1f0 6a3c 91d3 473e
000001f0: d69f 9bbe 1a31 64be 3766 7d3e 3cf8 6fbc
00000200: 5318 9bbd 6f5d 553d d533 03bc 1c1f 603d
00000210: ddce 423d f19c cabe 7e3a 903d 4be1 c1be
00000220: dcab f2bd 9f7b afbe 62b8 0cbe 1b4d 72be
00000230: 7660 773e 80d8 233e e259 3d3e 375d 253e
00000240: 82e5 bebe 630d 96be 1ef0 51be b203 96be
00000250: c24b 0abf 374b 2a3e d87a babc debf c13d
00000260: a57a 293e 8111 e23d fd69 c9bd a668 e5bd
00000270: ee7b 59be cf8a 073e 9357 a33d d050 8b3e
00000280: 3390 05be 0ea3 033e fe05 a83e 5278 3f3d
00000290: 0603 683d 2a0a 8c3e d4bf ef3d a770 8f3e
000002a0: 5316 64bd 6ea9 213c aa70 18be 3ce2 173e
000002b0: e8f1 183e 4cac 99be 3fe0 823d 9b74 95be
000002c0: f1dd b43e 4569 3dbe 2881 95be b9fd 81be
000002d0: 2dc1 d43d e586 9a3e 6f0a 56be beea 663e
000002e0: 5c14 c73d b7e8 82be f02b 9c3d 69d4 b4be
000002f0: dd0f 01be aa27 0a3d d3e3 1d3d 1e2d adbd
00000300: aecb 043e d0bd 153e 0825 9ebe 5a69 d4bd
00000310: e072 403e a3e4 06be 9026 06be 5928 8b3e
00000320: 507d 2fbd 7724 2abe d736 6dbe 64a1 b9bd
00000330: 13d7 843b 19c8 c5bd ccee b33e 0201 cf3e
00000340: e082 103e 5d1f f6bc 5a9a f53c e3b4 803d
00000350: 5e5d f5be 3a16 cf3d afb6 9ebd f51c 4f3e
00000360: 1fd3 fb3d 84a6 d33d e45d a8bd 2983 1b3e
00000370: d13a 11bd 1a18 ac3d f391 953e 550a 973e
00000380: ce04 f53c c811 ab3e 3306 0b3c 267d 983e
00000390: 8fbf 92be 108e e9bd afdb a7bd a9a6 94bd
000003a0: fbba cdbc c223 303e b50e 0bbe 78e2 fb3d
000003b0: 8613 a9be 8e7f 583e 9110 89bc de3c aebe
000003c0: b92e 5b3e dead 7d3e 8c8d 4a3d e0f4 59be
000003d0: d2f6 9f3d ea1e e2bd 47f4 8ebe 3688 553e
000003e0: 87db a6be e1ab 51bd 40cc 71bd 01bf ed3d
000003f0: fa33 97be bc5f 2cbe 2d7a 9d3d bb5b bdbd

encoder.encoder_g.linear.weight f4 [32, 1440]
0.09502646 -0.11668578 0.060398486 0.0024142463 -0.12724775 -0.086007036 -0.019006263 -0.0020877563
0.062981874 0.097339265 0.08115799 0.05578527 -0.111064844 -0.08303541 -0.076570846 -0.07917279
-0.09363143 -0.09830207 -0.07211138 -0.06638294 -0.06343474 -0.046115156 0.017406277 -0.05937487
0.012368151 -0.11558503 0.08371953 -0.06935025 -0.09446114 -0.1261596 0.14040825 -0.13853252
-0.09406778 -0.06309122 -0.107133694 0.02574423 -0.004749505 0.11477687 -0.05569097 0.0327782
0.045470696 0.08130718 -0.08240983 -0.0028285994 0.046745963 0.14707862 -0.0020310024 0.0805661
0.04973643 -0.019523315 -0.032948744 0.16076617 -0.1272158 -0.13103417 0.02699238 0.03181541
-0.083460726 -0.09612872 0.008783454 -0.042527657 0.02597357 -0.04376204 0.15662098 0.13341306
0.10648861 -0.057453983 0.031832606 -0.2624298 0.016065182 0.08557119 -0.008524128 0.048567563
0.20544071 -0.14968671 0.04352921 0.11368399 0.117944196 0.09184523 -0.1490057 0.17008807
-0.06000582 -0.20752093 0.048726317 -0.018840706 0.18310344 -0.08089347 0.12311006 -0.07418826
0.019114414 0.10164313 0.11664606 0.07446964 0.063750796 -0.029307663 -0.0046991403 -0.14044683
0.07611578 -0.09665539 0.06029087 -0.006036753 -0.120714694 -0.06341323 0.0011504642 -0.019271
0.028766852 0.11125444 0.1116568 -0.015423423 -0.050969556 -0.09101763 -0.0061282157 -0.1182911
-0.08777759 -0.079397365 -0.044154495 -0.044412583 -0.055948567 -0.050983097 0.0528815 -0.026511196
-0.005689249 -0.118256316 0.030322414 -0.13594578 -0.11326909 -0.1149846 0.08856251 -0.13104485
0.044998 -0.019616725 0.083583884 -0.0716863 -0.037000142 0.013713667 -0.06720412 0.06902746
0.15192902 -0.06272874 0.11340638 0.09465878 0.11510654 -0.018611962 -0.120392665 0.17306386
-0.1145359 -0.11007713 0.0020949016 0.0018133414 0.12799378 -0.09525295 0.010048648 -0.09547744
-0.018258454 -0.16265187 0.14083791 -0.009511635 0.044278927 0.07627872 0.20777869 -0.033906497
-0.069796674 -0.06289888 -0.13575481 -0.048040096 0.035088472 -0.025288006 -0.061933253 0.0022339965
0.04524618 0.06523285 -0.118103355 -0.15299724 0.004054991 0.052280243 0.06270132 -0.03297754
0.05548541 0.023258999 -0.1010995 -0.007478853 -0.13010487 -0.07087289 0.031099973 0.028594092
-0.02966416 -0.04414705 0.009947037 -0.0584025 0.026305089 0.002368703 -0.038475964 0.019023402
0.06668573 -0.11780726 0.11294933 -0.05356705 -0.12262991 -0.052146938 -0.0296011 0.011631813
0.10707912 0.08287434 0.13078116 0.090320006 -0.08171181 -0.04650558 -0.08213588 -0.024725549
-0.053377762 -0.061725944 -0.040555686 -0.04381425 -0.07200962 -0.037404977 0.05575057 -0.06494466
0.013780698 -0.039067946 0.050220877 -0.1167682 -0.11349614 -0.1506067 0.12797333 -0.12732774
0.0058210073 -0.05796439 -0.12966816 -0.12938951 0.05993905 0.19448812 0.06871945 0.08585318
0.13930449 -0.17719987 -0.07499172 0.009483937 0.08478625 0.16530691 -0.033478115 -0.052015312
-0.08207099 -0.14188486 -0.04707475 0.08431043 0.007815208 -0.09525513 0.049462073 -0.010118915
-0.052246388 0.020521075 -0.03737808 0.051674336 0.12100887 0.018965522 0.066767186 0.1548493
00000000: 3c9d c23d f4f8 eebd 6764 773d 5538 1e3b
00000010: 3c4d 02be 7524 b0bd 06b3 9bbc bdd2 08bb
00000020: a4fc 803d cf59 c73d 2936 a63d 187f 643d
00000030: f775 e3bd 780e aabd 2dd1 9cbd 5825 a2bd
00000040: d6c1 bfbd 9852 c9bd 22af 93bd c7f3 87bd
00000050: 13ea 81bd 3fe3 3cbd 9c97 8e3c 1033 73bd
00000060: c9a3 4a3c d8b7 ecbd 2575 ab3d 8107 8ebd
00000070: d874 c1bd fb2f 01be 2ec7 0f3e 78db 0dbe
00000080: 9ca6 c0bd f835 81bd e968 dbbd 90e5 d23c
00000090: bca1 9bbb 2310 eb3d 371c 64bd 6f42 063d
000000a0: 7b3f 3a3d 6184 a63d 7cc6 a8bd 0660 39bb
000000b0: b278 3f3d c79b 163e 911a 05bb d7ff a43d
000000c0: 6db8 4b3d 5cef 9fbc 43f5 06bd e39f 243e
000000d0: dc44 02be d22d 06be 201f dd3c e050 023d
000000e0: 75ed aabd 22df c4bd 7ae8 0f3c 7b31 2ebd
000000f0: 86c6 d43c d33f 33bd 4061 203e 6f9d 083e
00000100: b316 da3d de54 6bbd e862 023d 335d 86be
00000110: 219b 833c f33f af3d c9a8 0bbc c8ee 463d
00000120: 0d5f 523e 7947 19be af4b 323d 27d3 e83d
00000130: ba8c f13d 5a19 bc3d f394 18be 912b 2e3e
00000140: aac8 75bd 5e80 54be 3f95 473d d357 9abc
00000150: 787f 3b3e 7aab a5bd 2121 fc3d 04f0 97bd
00000160: d595 9c3c 462a d03d 21e4 ee3d 8a83 983d
00000170: c78f 823d a016 f0bc 3ffb 99bb 4bd1 0fbe
00000180: 97e2 9b3d 43f3 c5bd 8ff3 763d f4cf c5bb
00000190: 4439 f7bd ccde 81bd 2ccb 963a 37de 9dbc
000001a0: 76a8 eb3c 5ed9 e33d 52ac e43d 86b2 7cbc
000001b0: 74c5 50bd 7467 babd 33cf c8bb 9b42 f2bd
000001c0: bdc4 b3bd 169b a2bd 58db 34bd f8e9 35bd
000001d0: 532a 65bd a7d3 50bd 469a 583d 022e d9bc
000001e0: e16c babb 5e30 f2bd b666 f83c 5f35 0bbe
000001f0: a0f9 e7bd 0c7d ebbd 4360 b53d 9f30 06be
00000200: d34f 383d 41b3 a0bc 072e ab3d 44d0 92bd
00000210: 768d 17bd 4aaf 603c 50a2 89bd 455e 8d3d
00000220: 4893 1b3e ed77 80bd 9b41 e83d 76dc c13d
00000230: fabc eb3d 1d78 98bc 6e90 f6bd a737 313e
00000240: cc91 eabd 1e70 e1bd 9e4a 093b a4ad ed3a
00000250: cd10 033e fb13 c3bd 16a3 243c ad89 c3bd
00000260: c192 95bc 368e 26be d037 103e b0d6 1bbc
00000270: d25d 353d 0438 9c3d f0c3 543e 8ae1 0abd
00000280: 8ff1 8ebd 21d1 80bd 4f03 0bbe b1c5 44bd
00000290: eeb8 0f3d cb28 cfbc b9ad 7dbd 3e68 123b
000002a0: 0f54 393d cd98 853d 2ce0 f1bd 4fab 1cbe
000002b0: bbdf 843b cf23 563d 8d69 803d 7513 07bd
000002c0: ab44 633d a889 be3c 410d cfbd 2b11 f5bb
000002d0: 363a 05be ce25 91bd 5fc5 fe3c 283e ea3c
000002e0: 4102 f3bc 89d3 34bd e6f8 223c 7637 6fbd
000002f0: c57d d73c 3e3c 1b3b f998 1dbd f7d6 9b3c
00000300: 8792 883d ef44 f1bd fa51 e73d 1f69 5bbd
00000310: 6425 fbbd 0798 55bd 027e f2bc 5c93 3e3c
00000320: 4c4c db3d 06ba a93d 7feb 053e b2f9 b83d
00000330: 8558 a7bd a37c 3ebd db36 a8bd 3c8d cabc
00000340: a4a2 5abd 58d4 7cbd b81d 26bd 9276 33bd
00000350: c879 93bd f635 19bd b65a 643d b501 85bd
00000360: 70c8 613c b605 20bd 68b4 4d3d 2b24 efbd
00000370: aa70 e8bd a538 1abe 710b 033e 3462 02be
00000380: 26be be3b 116c 6dbd bbc7 04be af7e 04be
00000390: a682 753d e527 473e c8bc 8c3d cbd3 af3d
000003a0: d6a5 0e3e e273 35be 4295 99bd 8462 1b3c
000003b0: 6aa4 ad3d 3746 293e 5920 09bd 020e 55bd
000003c0: d614 a8bd 444a 11be 74d1 40bd f2aa ac3d
000003d0: 5c0b 003c 1f15 c3bd be98 4a3d cec9 25bc
000003e0: 4f00 56bd d01b a83c c219 19bd 78a8 533d
000003f0: 80d3 f73d 955d 9b3c 3cbd 883d d190 1e3e

encoder.encoder_g.linear.bias f4 [32]
-0.09786117 0.36433595 -0.15683384 -0.21443388 0.051598795 -0.0015803352 -0.27279943 0.03680134
-0.07978255 -0.15516648 0.072281994 0.14935108 -0.022641191 0.2643399 0.18416107 -0.2561832
0.044969738 -0.061291676 0.06807128 -0.12835015 0.38269868 0.015485936 0.01915355 0.1464403
0.03372388 0.391999 0.20384055 0.099932924 0.042015556 0.13680953 0.13866669 -0.29880607
00000000: 706b c8bd 3e8a ba3e 0d99 20be 8e94 5bbe
00000010: 4259 533d 4023 cfba 5eac 8bbe 00bd 163d
00000020: 0965 a3bd f6e3 1ebe 9508 943d 7def 183e
00000030: 057a b9bc 8f57 873e b894 3c3e 722a 83be
00000040: 3032 383d fb0c 7bbd f568 8b3d 396e 03be
00000050: 15f1 c33e b9b8 7d3c e8e7 9c3c 72f4 153e
00000060: 0d22 0a3d 18b4 c83e 94bb 503e a2a9 cc3d
00000070: 8118 2c3d cc17 0c3e a4fe 0d3e 1cfd 98be

encoder.encoder_c.conv1.bias f4 [32]
-0.112938106 -0.13069215 0.011547977 -0.07441424 -0.1200996 0.029289735 -0.11991362 0.038690284
-0.0778903 -0.029697124 -0.13542284 0.06908349 0.064023785 -0.0014079895 0.029181149 0.018824607
-0.03689301 0.025966963 0.020623237 0.016964246 0.025809893 -0.059484113 0.042258974 0.020052064
0.03927122 -0.0014938522 0.020300534 -0.042583708 -0.026912468 -0.13326104 0.033254594 0.011642206
00000000: 184c e7bd 2ad4 05be ba33 3d3c 7e66 98bd
00000010: c7f6 f5bd 07f1 ef3c 4695 f5bd b479 1e3d
00000020: f384 9fbd 6247 f3bc 49ac 0abe a57b 8d3d
00000030: e71e 833d 4a8c b8ba 4e0d ef3c 1036 9a3c
00000040: 201d 17bd abb8 d43c 10f2 a83c 9af8 8a3c
00000050: 456f d33c 9da5 73bd bf17 2d3d 3a44 a43c
00000060: dcda 203d 5dcd c3ba 4e4d a63c 416c 2ebd
00000070: 8977 dcbc 9575 08be f835 083d f4be 3e3c

encoder.encoder_c.conv1.lin.weight f4 [32, 120]
-0.12780882 0.02025098 -0.11606775 0.1266187 -0.21182111 0.0737531 -0.13429767 0.057474438
-0.06102259 -0.057805236 -0.107858464 -0.010756984 -0.17471364 0.13831156 0.04223481 0.0003761933
-0.028863635 0.03638532 0.19884402 0.1451676 -0.05017798 0.13447225 -0.12284628 0.049225654
-0.2562418 -0.04096772 -0.15871346 -0.1466019 -0.24086425 -0.14078829 0.038553793 -0.039824724
-0.06975919 -0.008956022 0.025587428 -0.06699377 -0.13305846 -0.04629733 -0.25378096 -0.034655735
-0.13433382 -0.092863806 -0.0073164375 0.099403605 0.03904 -0.14141738 0.013610474 -0.30456525
-0.27220616 -0.25164315 0.17358205 0.15374956 -0.029481916 -0.109802626 -0.048838083 0.13321035
0.14168082 0.003706218 0.11022362 0.04638914 0.033329878 -0.055490065 -0.061155666 -0.09261371
0.08661755 -0.17709745 0.18281297 -0.11619364 -0.20215613 -0.16950044 -0.2426854 -0.013203389
-0.014625442 0.13433145 -0.012751686 0.14633921 -0.09079884 -0.28588274 -0.11388152 -0.10394372
-0.03681277 -0.029638909 -0.12518789 0.07126549 -0.27171078 -0.10114054 0.11823514 0.07519232
-0.04773755 -0.23166054 0.082476616 -0.055304475 -0.06681997 -0.12276317 -0.28145254 0.08986643
0.010114328 -0.21175656 0.20175493 -0.13963819 0.02281266 0.08031496 0.06773115 0.06945911
-0.072801515 0.13915226 -0.22147304 0.071938604 -0.14184828 0.07205882 -0.19614565 -0.12126907
-0.10784275 -0.1501933 -0.18248269 -0.18380423 0.01558556 0.049185522 -0.14599045 -0.1429496
-0.10707024 -0.15226324 -0.03971289 0.023492659 0.113077156 -0.30863723 -0.12819351 -0.15233782
-0.055388305 -0.20343558 -0.12990038 0.022150531 -0.3023975 0.08667335 -0.14785674 -0.13685302
0.11092589 -0.011222995 0.1754026 -0.16869944 -0.058421664 -0.2247452 -0.35354576 0.20756772
-0.17652445 0.020912735 -0.1032203 -0.031052556 -0.19372934 -0.10142914 -0.28194776 -0.34483933
-0.22391874 0.12330453 0.026958598 -0.04284123 0.09482029 -0.20097785 -0.024482705 0.006332551
-0.25966606 -0.32192484 -0.117439196 0.08244214 -0.087575845 -0.09839146 -0.27541882 -0.08489586
-0.22537394 -0.037958298 -0.114427105 0.07416028 0.08619812 0.045904927 -0.0561273 0.08618561
0.047292627 -0.2583556 0.16602612 -0.11893716 0.19978209 -0.08589845 -0.29428086 0.14304213
-0.16882128 -0.21159214 0.05133679 -0.056866292 0.16158876 0.007470706 0.030304043 -0.07623509
-0.05683314 0.2442532 0.15349883 -0.0025125511 -0.11522643 -0.047800403 -0.28398606 0.01264919
-0.04492798 -0.06563912 -0.012303669 0.14556025 -0.14302391 0.09614625 0.122271046 -0.0032487572
-0.08863825 0.18532212 -0.025684828 -0.22911358 0.10316064 -0.10576651 -0.13846442 0.06326437
-0.14668366 -0.13196799 0.081206076 0.161136 -0.15299234 0.043645814 -0.14358398 -0.0026743598
-0.18170045 -0.18619795 -0.17697781 -0.13029903 -0.093432136 -0.33979192 -0.27675262 0.04610986
-0.0002920254 -0.18799129 0.17768215 0.12913315 0.19326349 -0.01250105 -0.08822538 -0.35712397
0.34206086 0.101686075 -0.023955323 -0.2244401 0.16706085 0.13747673 0.02299741 -0.23122744
-0.34098133 0.028367642 0.13808481 -0.12535596 0.03578982 0.20223977 -0.023687605 0.13658597
00000000: 51e0 02be 62e5 a53c eeb4 edbd 55a8 013e
00000010: a2e7 58be de0b 973d 5485 09be 516a 6b3d
00000020: d3f2 79bd 2fc5 6cbd e6e4 dcbd 103e 30bc
00000030: 22e8 32be 8ca1 0d3e 68fe 2c3d cf3b c539
00000040: 6e73 ecbc c608 153d c49d 4b3e d1a6 143e
00000050: 6d87 4dbd 18b3 093e d596 fbbd d7a0 493d
00000060: 2032 83be c5cd 27bd c885 22be cf1e 16be
00000070: 1ea5 76be ce2a 10be 95ea 1d3d 401f 23bd
00000080: e8dd 8ebd 47bc 12bc ba9c d13c 0834 89bd
00000090: 7a40 08be 45a2 3dbd 94ef 81be 2cf3 0dbd
000000a0: ce8e 09be 612f bebd babe efbb 1e94 cb3d
000000b0: 68e8 1f3d b8cf 10be 77fe 5e3c faef 9bbe
000000c0: 9b5e 8bbe 5fd7 80be 7ebf 313e 8670 1d3e
000000d0: 0f84 f1bc 33e0 e0bd 710a 48bd 4b68 083e
000000e0: c714 113e 05e4 723b ecbc e13d 8a02 3e3d
000000f0: e984 083d 8d49 63bd 5d7e 7abd 42ac bdbd
00000100: 8b64 b13d 0959 35be 5333 3b3e eef6 edbd
00000110: 0402 4fbe 8691 2dbe 8682 78be 0753 58bc
00000120: 8d9f 6fbc 2f8e 093e 73ec 50bc f2d9 153e
00000130: bef4 b9bd 395f 92be b73a e9bd 72e0 d4bd
00000140: fdc8 16bd 4ccd f2bc 4131 00be a4f3 913d
00000150: ad1d 8bbe c522 cfbd 4425 f23d 6efe 993d
00000160: 7388 43bd 6c38 6dbe 80e9 a83d f286 62bd
00000170: e9d8 88bd 426b fbbd 8c1a 90be e40b b83d
00000180: 91b6 253c b6d6 58be d898 4e3e 50fd 0ebe
00000190: 9ee1 ba3c 2b7c a43d a1b6 8a3d 9440 8e3d
000001a0: f618 95bd ee7d 0e3e d4c9 62be 8c54 933d
000001b0: ad40 11be 9393 933d 68da 48be eb5b f8bd
000001c0: a9dc dcbd 46cc 19be bedc 3abe 2d37 3cbe
000001d0: 945a 7f3c c276 493d 857e 15be 6161 12be
000001e0: a447 dbbd e5ea 1bbe fca9 22bd ad73 c03c
000001f0: ff94 e73d b305 9ebe 2945 03be 72fe 1bbe
00000200: d9de 62bd 6b51 50be 9b04 05be 0875 b53c
00000210: d8d3 9abe cc81 b13d c267 17be 3323 0cbe
00000220: 1d2d e33d a7e0 37bc bd9c 333e 8cbf 2cbe
00000230: 8e4b 6fbd 9b23 66be f303 b5be a28c 543e
00000240: d3c2 34be 2f51 ab3c 2a65 d3bd ee61 febc
00000250: fc60 46be 15ba cfbd 755b 90be c88e b0be
00000260: f44a 65be 1687 fc3d 47d8 dc3c 497a 2fbd
00000270: 2431 c23d 23cd 4dbe f48f c8bc 4a81 cf3b
00000280: f3f2 84be 55d3 a4be f683 f0bd 6dd7 a83d
00000290: f75a b3bd 7681 c9bd b203 8dbe e1dd adbd
000002a0: 6dc8 66be 297a 1bbd c258 eabd 58e1 973d
000002b0: a488 b03d ce06 3c3d bde5 65bd 1582 b03d
000002c0: eab5 413d 2f47 84be c002 2a3e 5395 f3bd
000002d0: ad93 4c3e 87eb afbd fbab 96be a379 123e
000002e0: 7cdf 2cbe 9cab 58be 8746 523d a1ec 68bd
000002f0: 8677 253e d3cc f43b 2f40 f83c 2521 9cbd
00000300: dec9 68bd 831d 7a3e cc2e 1d3e 9da9 24bb
00000310: d6fb ebbd 5bca 43bd 9f66 91be 8c3e 4f3c
00000320: 6706 38bd ce6d 86bd 5495 49bc bf0d 153e
00000330: dc74 12be 53e8 c43d 3e69 fa3d 1ae9 54bb
00000340: f987 b5bd 15c5 3d3e fd68 d2bc c09c 6abe
00000350: e345 d33d 1d9c d8bd 9ec9 0dbe c090 813d
00000360: 3e34 16be 9e22 07be 5f4f a63d d600 253e
00000370: 06aa 1cbe f4c5 323d ae07 13be 5044 2fbb
00000380: af0f 3abe adaa 3ebe ac39 35be 1c6d 05be
00000390: 5959 bfbd 35f9 adbe 85b2 8dbe b1dd 3c3d
000003a0: fc1a 99b9 ca80 40be 4ff2 353e 7b3b 043e
000003b0: dde6 453e 34d1 4cbc 82af b4bd f4d8 b6be
000003c0: 9a22 af3e ca40 d03d f43d c4bc a0d3 65be
000003d0: 0012 2b3e b3c6 0c3e 1065 bc3c e3c6 6cbe
000003e0: 1b95 aebe 4263 e83c 1b66 0d3e 505d 00be
000003f0: 5998 123d f117 4f3e 820c c2bc 31dd 0b3e

encoder.encoder_c.conv2.bias f4 [32]
-0.18352517 -0.17428242 -0.0030251835 -0.23260367 -0.23670137 0.039853163 0.19403853 0.27969968
0.038757678 -0.03414485 0.24342757 0.085476406 0.14101191 0.103427745 0.10054139 0.2443995
-0.14922254 -0.04183175 -0.067969054 -0.09223609 -0.09901042 0.08089064 -0.13047346 0.14192991
-0.13632298 0.049301025 0.011480402 0.17463654 -0.063946225 -0.23614772 0.12477305 -0.1849682
00000000: 06ee 3bbe 1777 32be 2842 46bb a82f 6ebe
00000010: d861 72be 123d 233d 09b2 463e cc34 8f3e
00000020: 5fc0 1e3d 78db 0bbd 1445 793e 410e af3d
00000030: 6d65 103e edd1 d33d a5e8 cd3d dd43 7a3e
00000040: cbcd 18be c557 2bbd 5c33 8bbd 46e6 bcbd
00000050: fac5 cabd fea9 a53d d69a 05be 1356 113e
00000060: 4098 0bbe dfef 493d 4c18 3c3c ecd3 323e
00000070: 3df6 82bd b5d0 71be 0389 ff3d 4e68 3dbe

encoder.encoder_c.conv2.lin.weight f4 [32, 32]
-0.29294604 0.045150753 -0.2573874 -0.19760546 -0.039059404 -0.0914708 0.09123823 -0.29833183
0.053429704 0.12236564 0.12445782 0.36645904 0.04178465 -0.038507197 0.0119322175 0.08869185
-0.1601522 0.73283917 -0.11202117 0.36093992 0.08457456 -0.41565552 -0.25384995 0.1963619
0.09331437 -0.033426676 -0.09077246 -0.19567803 -0.3351176 -0.08432906 -0.01801456 0.12748514
0.07108713 -0.45863116 -0.23687358 0.3586303 -0.23728989 0.16505247 0.053260237 0.23348637
-0.26907948 0.01086049 0.01903019 -0.023159927 0.08595652 0.08409553 0.09544472 0.11072679
0.16419768 0.97721344 0.00858622 -0.23224044 -0.18667528 -0.08056299 -0.103782475 0.43012783
-0.20791669 -0.2786849 0.14770487 0.036387425 0.16381986 0.119665146 -0.10825115 0.030811192
-0.2176466 0.12436303 0.0710384 -0.10936254 0.31504762 0.19468419 0.011447161 -0.11116405
0.11374678 -0.32560718 0.23342323 0.14596695 0.0339516 0.14269157 -0.11735086 -0.05990924
0.09234427 0.37891483 -0.16452855 -0.2871265 0.22056869 -0.23290004 -0.17981659 0.28386232
-0.24405019 0.51350754 0.11274461 0.04086172 -0.18527369 -0.14338471 -0.13936396 -0.07093325
-0.19211572 -0.012671629 -0.0038721533 0.029178126 0.12097341 -0.06687884 -0.007861507 -0.23936391
-0.086013585 0.07869892 -0.13478942 0.11089897 0.19382156 -0.27464607 0.4490135 -0.05222297
-0.07086017 -0.043730352 -0.117767185 -0.22793248 0.11337593 0.19921054 -0.011488486 -0.029211389
0.3022521 -0.28634256 -0.034086045 0.25430182 0.123978816 -0.104575224 0.14727205 0.103811406
0.060159612 -0.08507763 0.016323023 -0.050501652 -0.17220238 -0.15410031 0.029883465 0.0092827575
-0.11172225 -0.2512066 -0.12682259 0.10514908 -0.2150443 -0.29113224 0.25443447 0.094041735
0.18208079 0.18328652 0.37486193 -0.16902584 0.31931335 0.20255761 0.08770065 0.174727
-0.463168 -0.06736506 0.13994764 0.2583122 -0.39602607 0.4153066 -0.24575526 -0.07679195
0.04421837 -0.104351856 0.16986315 0.093253635 -0.2303185 -0.03329518 0.11563669 0.27238232
0.01276432 0.049157195 -0.0102232015 0.13826269 0.22507253 0.0093096215 -0.13372438 0.02260573
0.123829685 0.19672427 -0.15258251 0.011839192 -0.3661408 -0.041251995 -0.19641136 0.053836398
-0.17753483 -0.4882195 0.23549995 -0.1902529 0.20044538 -0.19315891 0.28159925 0.08451258
-0.080709614 0.073117636 0.23084936 0.16244525 0.18374604 -0.1790706 -0.15673567 -0.20866886
-0.064307794 -0.19001384 -0.08130083 0.011245878 0.32514954 0.36293975 -0.015929827 0.07831442
0.19392689 0.111924306 0.059016254 0.18535948 0.23416674 0.19868924 -0.11393408 -0.0806734
-0.3596939 -0.06828488 -0.29595548 0.16823128 -0.12169611 0.2863596 -0.011361297 -0.017055122
-0.017140862 -0.22735552 -0.043853775 0.18618642 0.10236087 -0.5296663 0.26278046 0.088680536
0.07864366 -0.2355678 0.21147701 -0.16443828 -0.31862238 0.026234182 -0.0065983254 -0.06384845
-0.3546814 -0.7867748 -0.22124287 0.14716838 0.2754192 0.23435412 0.04943881 0.35428816
-0.027284214 -0.067607105 -0.055453014 -0.1964034 -0.06774052 -0.22629607 0.08396248 0.28392866
00000000: 06fd 95be ffef 383d 48c8 83be 1659 4abe
00000010: c1fc 1fbd 0b55 bbbd 1cdb ba3d f3be 98be
00000020: 1bd9 5a3d d69a fa3d bee3 fe3d 85a0 bb3e
00000030: 6226 2b3d b9b9 1dbd 597f 433c 13a4 b53d
00000040: f0fe 23be 599b 3b3f 5b6b e5bd 1ecd b83e
00000050: 6d35 ad3d cdd0 d4be 9ff8 81be 1813 493e
00000060: 9b1b bf3d 69ea 08bd e9e6 b9bd d25f 48be
00000070: 8994 abbe b7b4 acbd 4593 93bc 778b 023e
00000080: 2196 913d b4d1 eabe fd8e 72be 649e b73e
00000090: 1ffc 72be 8403 293e 6827 5a3d 0d17 6f3e
000000a0: c9c4 89be 32f0 313c 33e5 9b3c e3b9 bdbc
000000b0: f909 b03d 473a ac3d 8578 c33d bac4 e23d
000000c0: 7023 283e a92a 7a3f 38ad 0c3c 70d0 6dbe
000000d0: ce27 3fbe 35fe a4bd e88b d4bd b739 dc3e
000000e0: 1de8 54be caaf 8ebe f23f 173e fb0a 153d
000000f0: 65c0 273e 0013 f53d c7b2 ddbd c167 fc3c
00000100: c0de 5ebe 0bb2 fe3d 957c 913d 78f9 dfbd
00000110: ec4d a13e 4b5b 473e e08c 3b3c faa9 e3bd
00000120: 12f4 e83d fcb5 a6be 8006 6f3e 5c78 153e
00000130: d510 0b3d bd1d 123e a655 f0bd 6463 75bd
00000140: fe1e bd3d 2001 c23e 2c7a 28be 3f02 93be
00000150: c2dc 613e 597d 6ebe d721 38be 6756 913e
00000160: 4be8 79be 3b75 033f a5e6 e63d 9e5e 273d
00000170: 63b8 3dbe 71d3 12be 6db5 0ebe 7445 91bd
00000180: fcb9 44be aa9c 4fbc f4c3 7dbb f706 ef3c
00000190: e8c0 f73d c6f7 88bd 8dcd 00bc d01b 75be
000001a0: e427 b0bd e62c a13d 3d06 0abe 001f e33d
000001b0: 2979 463e 699e 8cbe 19e5 e53e c1e7 55bd
000001c0: 231f 91bd 991e 33bd ec2f f1bd 2267 69be
000001d0: a431 e83d d9fd 4b3e 343a 3cbc b94c efbc
000001e0: cac0 9a3e 7e9b 92be cf9d 0bbd d933 823e
000001f0: 9be8 fd3d 892b d6bd 7cce 163e 139b d43d
00000200: ed69 763d 2e3d aebd dcb7 853c d2da 4ebd
00000210: d255 30be 79cc 1dbe 2bce f43c b516 183c
00000220: a3ce e4bd 279e 80be c8dd 01be 6758 d73d
00000230: 9334 5cbe 490f 95be 3c45 823e f498 c03d
00000240: 6373 3a3e 76af 3b3e e7ed bf3e 1c15 2dbe
00000250: 0a7d a33e 436b 4f3e 669c b33d a2eb 323e
00000260: 5b24 edbe b1f6 89bd 6f4e 0f3e 7f41 843e
00000270: eec3 cabe 11a3 d43e 44a7 7bbe 1945 9dbd
00000280: 521e 353d 6db6 d5bd 9bf0 2d3e c3fb be3d
00000290: 9dd8 6bbe 8760 08bd eed2 ec3d b275 8b3e
000002a0: 7021 513c 0e59 493d 377f 27bc bc94 0d3e
000002b0: 6a79 663e 6287 183c 0bef 08be a72f b93c
000002c0: 6b9a fd3d 1672 493e 973e 1cbe 2cf9 413c
000002d0: cf76 bbbe daf7 28bd 0f20 49be 8e83 5c3d
000002e0: b1cb 35be e8f7 f9be e626 713e a8d1 42be
000002f0: 8e41 4d3e 73cb 45be c72d 903e ee14 ad3d
00000300: 154b a5bd b3be 953d c663 6c3e 0c58 263e
00000310: ec27 3c3e 495e 37be 517f 20be 4aad 55be
00000320: ceb3 83bd fd92 42be 0d81 a6bd a240 383c
00000330: 007a a63e 3dd3 b93e 457f 82bc 5063 a03d
00000340: c594 463e 9238 e53d 07bb 713d e0ce 3d3e
00000350: 68c9 6f3e 3175 4b3e 4556 e9bd 1838 a5bd
00000360: cd29 b8be f1d8 8bbd 7a87 97be d244 2c3e
00000370: cf3b f9bd ba9d 923e bc24 3abc 2fb7 8bbc
00000380: fe6a 8cbc e3cf 68be 04a0 33bd a7a7 3e3e
00000390: 93a2 d13d 3698 07bf 298b 863e 249e b53d
000003a0: ed0f a13d af38 71be 6e8d 583e 8262 28be
000003b0: 7922 a3be 11e9 d63c c436 d8bb fac2 82bd
000003c0: cd98 b5be 136a 49bf 7e8d 62be 4fb3 163e
000003d0: bf03 8d3e 87fa 6f3e 5a80 4a3d 4265 b53e
000003e0: 2583 dfbc 9875 8abd b322 63bd f91d 49be
000003f0: 8bbb 8abd 28ba 67be 85f4 ab3d 195f 913e
