output/merfish/model_pth/seqfish_trained_gae_model.pth (torch, 221663 bytes, 10 tensors)

encoder.encoder_g.conv1.bias f4 [32]
-0.06232336 -0.13653623 -0.15771154 -0.084451385 -0.123587385 -0.071997866 -0.07276068 -0.122621685
-0.022608638 -0.08175089 -0.07795437 -0.07544566 -0.04025066 -0.108561434 -0.018709196 -0.010639971
-0.15362959 -0.075030476 -0.04876224 -0.07926873 -0.059154447 -0.051735036 -0.039999057 -0.058173437
-0.051888768 -0.03358864 -0.15670139 -0.016254336 -0.058244888 -0.07756293 -0.014447908 -0.1629438
00000000: c846 7fbd 27d0 0bbe 227f 21be d9f4 acbd
00000010: 621b fdbd 9e73 93bd 8d03 95bd 1421 fbbd
00000020: c035 b9bc 036d a7bd 8aa6 9fbd 4183 9abd
00000030: e0dd 24bd 7555 debd 0744 99bc 4653 2ebc
00000040: 1351 1dbe 94a9 99bd eaba 47bd a557 a2bd
00000050: ef4b 72bd 1ee8 53bd 0dd6 23bd 4547 6ebd
00000060: 5189 54bd 3e94 09bd 5476 20be d027 85bc
00000070: 3192 6ebd 50d9 9ebd ebb6 6cbc bdda 26be

encoder.encoder_g.conv1.lin.weight f4 [32, 64]
-0.18504149 -0.21876733 0.037104033 0.24136141 0.16276212 -0.23482129 0.28348067 -0.07153178
-0.04421043 -0.009483071 -0.0041210908 0.09085541 0.037500214 0.18770105 -0.2619388 0.0871517
0.18799105 0.115355715 0.19779421 -0.13142967 -0.2490565 0.084778585 -0.41217917 -0.09499915
-0.08656424 -0.1803283 0.36340252 0.052493453 0.18536395 -0.25049403 -0.15512429 0.23493868
-0.1801465 0.23885962 0.17387769 0.06498187 -0.1255162 0.43923226 -0.20872113 0.10862652
-0.003223149 0.28518522 -0.056460794 0.00330308 0.0036891543 0.071946844 -0.19702399 -0.11779054
-0.23200394 -0.053847037 0.016687032 0.2032182 -0.23067555 -0.14434342 -0.014906947 0.11245518
0.34665135 0.1645994 -0.35017088 -0.21470155 -0.14264615 -0.115457706 -0.41755053 -0.30360144
-0.22987938 -0.040233858 0.3595632 -0.2771476 0.058862865 0.13393158 -0.17592035 0.078333065
0.17766686 -0.12246562 0.09293275 0.061818484 0.20857577 0.04120136 -0.020641599 0.042815335
0.12708062 0.23191705 0.33236793 -0.14951096 0.08540732 0.25104472 -0.2445116 -4.39206e-05
0.1583755 0.22785561 0.2882646 -0.22559644 0.13256434 0.1086668 -0.054076605 -0.21966237
-0.018397598 0.14674601 -0.20282651 -0.13898468 0.12051422 0.20573996 0.09485234 -0.106245264
0.004870425 -0.07954441 -0.14377071 0.23298092 0.04667863 -0.069499314 -0.009662259 0.27490583
-0.24929707 0.2674776 -0.04472568 0.12760054 -0.19565398 0.009712733 0.2334023 0.13564767
-0.20453548 0.2428655 0.13962479 -0.16883576 0.14652568 -0.017514385 -0.08353527 -0.26223576
0.051564768 -0.05505528 0.07224335 0.1394277 -0.09455108 0.029420186 -0.059363417 0.22303393
0.15687697 0.15042715 -0.06320191 0.029877542 -0.14888936 -0.021173475 0.25770596 0.08174903
0.06523068 0.19295661 0.15938517 -0.033387408 0.050882697 0.036400314 -0.29406384 0.15971878
0.0052890247 -0.15357465 -0.0040810327 -0.18436912 -0.013383734 -0.31254685 0.19821821 -0.036402218
-0.23154221 -0.22578269 -0.045046493 0.092785 0.09318345 0.23330691 0.016105006 0.08897541
-0.031464648 -0.24048306 -0.002376762 0.053879213 -0.19133791 0.041068878 0.044216596 0.13134399
-0.088743664 0.35688236 0.03719302 0.25953618 0.087047465 0.1173783 -0.03513252 0.27093387
0.16790934 0.36669344 -0.07876125 -0.11150101 0.08466099 -0.031849045 0.22674155 -0.16644223
-0.08722838 -0.3238718 -0.018083572 -0.025093257 -0.10530482 0.14700925 0.12138047 0.022628628
0.003914578 -0.28461018 0.09179096 -0.15280232 -0.010170204 0.07714782 0.030286595 -0.0458641
-0.060366195 0.1777297 0.10153079 -0.16513865 -0.102460265 0.2232899 -0.24504733 0.11463669
-0.062464874 0.10222296 0.3527865 0.095788024 0.38019818 -0.21362449 -0.1547322 -0.009284172
-0.06598743 0.217018 -0.2213288 0.26239413 -0.08374808 0.09658469 -0.11266067 -0.098883286
-0.0762485 -0.4169756 -0.15557705 0.05178216 -0.151068 0.00010614219 -0.1558837 -0.17052722
-0.108104505 0.17808084 -0.013201715 0.19084394 -0.19107364 -0.071003884 -0.27217472 0.24903801
0.020414932 -0.11724502 0.31191328 -0.25469533 -0.28267884 -0.0833023 0.08340023 0.058635175
00000000: 847b 3dbe 8b04 60be 66fa 173d 7227 773e
00000010: 1dab 263e fe74 70be 6124 913e 417f 92bd
00000020: ff15 35bd e25e 1bbc 370a 87bb 6712 ba3d
00000030: d399 193d b434 403e d81c 86be 977c b23d
00000040: ba80 403e 9e3f ec3d 918a 4a3e 8095 06be
00000050: ab08 7fbe 65a0 ad3d 2609 d3be ea8e c2bd
00000060: 9848 b1bd fba7 38be e50f ba3e 6003 573d
00000070: 0cd0 3d3e c140 80be e7d8 1ebe c493 703e
00000080: 5378 38be 9e97 743e fe0c 323e 3715 853d
00000090: 5287 00be 0de3 e03e feba 55be 9577 de3d
000000a0: 783b 53bb cc03 923e 6f43 67bd 7d78 583b
000000b0: bdc5 713b de58 933d a8c0 49be 2b3c f1bd
000000c0: 7192 6dbe b68e 5cbd 3eb3 883c 6f18 503e
000000d0: 3636 6cbe c3ce 13be 443c 74bc e74e e63d
000000e0: 497c b13e bf8c 283e 9949 b3be b9da 5bbe
000000f0: d511 12be 1775 ecbd 2fc9 d5be a671 9bbe
00000100: 8065 6bbe 42cc 24bd ab18 b83e 4ae6 8dbe
00000110: 301a 713d 5c25 093e 7724 34be 166d a03d
00000120: 4dee 353e 41cf fabd 8753 be3d 6135 7d3d
00000130: e394 553e c2c2 283d 9218 a9bc 225f 2f3d
00000140: 6c21 023e aa7b 6d3e 212c aa3e 6719 19be
00000150: 08ea ae3d ef88 803e 4061 7abe 6337 38b8
00000160: 302d 223e fb52 693e 6b97 933e c102 67be
00000170: f2be 073e b38c de3d 6e7f 5dbd 2cef 60be
00000180: 8fb6 96bc 9644 163e c1b1 4fbe 0052 0ebe
00000190: 29d0 f63d 7fad 523e f241 c23d 1e97 d9bd
000001a0: 1698 9f3b 2ee8 a2bd a138 13be 8d92 6e3e
000001b0: 1732 3f3d a855 8ebd 744e 1ebc 75c0 8c3e
000001c0: bb47 7fbe d3f2 883e 4632 37bd b7a9 023e
000001d0: 8459 48be 2822 1f3c 0301 6f3e 39e7 0a3e
000001e0: c071 51be bcb1 783e cdf9 0e3e 48e3 2cbe
000001f0: d40a 163e 547a 8fbc 8a14 abbd c443 86be
00000200: 9435 533d a581 61bd 52f4 933d 23c6 0e3e
00000210: ffa3 c1bd 9a02 f13c 0e27 73bd 0263 643e
00000220: 5ba4 203e 9309 1a3e 0170 81bd bfc1 f43c
00000230: 7476 18be ff73 adbc 09f2 833e 096c a73d
00000240: aa97 853d 6b96 453e de35 233e 3cc1 08bd
00000250: 606a 503d 7f18 153d 898f 96be 528d 233e
00000260: 8e4f ad3b ac42 1dbe 2fba 85bb 42cb 3cbe
00000270: 7347 5bbc 2406 a0be b7f9 4a3e 7e1a 15bd
00000280: 6719 6dbe 9433 67be ac82 38bd 1006 be3d
00000290: f7d6 be3d 02e8 6e3e a5ee 833c bd38 b63d
000002a0: 13e1 00bd 3141 76be 73c3 1bbb 73b0 5c3d
000002b0: 16ee 43be d737 283d 761c 353d 0a7f 063e
000002c0: 3dbf b5bd 49b9 b63e b557 183d ede1 843e
000002d0: f145 b23d 0964 f03d 1ee7 0fbd d8b7 8a3e
000002e0: 6df0 2b3e 3ebf bb3e 944d a1bd a45a e4bd
000002f0: be62 ad3d 2574 02bd f02e 683e d56f 2abe
00000300: cba4 b2bd 86d2 a5be 0024 94bc 6090 cdbc
00000310: 0eaa d7bd 9889 163e 5396 f83d ac5f b93c
00000320: dc45 803b 6db8 91be e6fc bb3d 3678 1cbe
00000330: eda0 26bc adff 9d3d 981b f83c ffdb 3bbd
00000340: 8b42 77bd c6fe 353e 60ef cf3d 1b1a 29be
00000350: b0d6 d1bd 1ca6 643e b0ed 7abe a4c6 ea3d
00000360: 2bdb 7fbd 455a d13d 6fa0 b43e 832c c43d
00000370: 56a9 c23e 61c0 5abe 1e72 1ebe a41c 18bc
00000380: 6b24 87bd f739 5e3e 04a4 62be 8658 863e
00000390: 1d84 abbd 32ce c53d a3ba e6bd 5283 cabd
000003a0: 2c28 9cbd d37d d5be 974f 1fbe 8819 543d
000003b0: 92b1 1abe a898 de38 fa9f 1fbe b09e 2ebe
000003c0: e565 ddbd d35a 363e 024c 58bc 986c 433e
000003d0: cfa8 43be 7c6a 91bd 7c5a 8bbe d203 7f3e
000003e0: 373d a73c 281e f0bd 19b3 9f3e 6d67 82be
000003f0: 48bb 90be 659a aabd bdcd aa3d 702b 703d

encoder.encoder_g.conv2.bias f4 [32]
0.09799645 -0.39567816 -0.29796913 0.3167789 0.022164324 -0.5705255 -0.42686257 -0.13820083
0.21447466 -0.097655 -0.27167755 -0.1388482 0.38395402 -0.25856277 0.38200197 -0.35575384
0.37056914 -0.15908907 -0.24151625 0.6027831 -0.6520189 -0.08687959 0.45163804 -0.075372934
0.70926416 0.2711332 -0.19397908 0.23043728 0.31082937 -0.3725715 0.581299 0.22944517
00000000: 5db2 c83d 5496 cabe 698f 98be d830 a23e
00000010: f591 b53c f60d 12bf bb8d dabe 8584 0dbe
00000020: 3f9f 5b3e 58ff c7bd 5219 8bbe 392e 0ebe
00000030: 9f95 c43e 5762 84be c395 c33e 5e25 b6be
00000040: 3dbb bd3e 3fe8 22be 0950 77be fe4f 1a3f
00000050: b6ea 26bf eded b1bd 1a3d e73e 205d 9abd
00000060: 5692 353f f9d1 8a3e 74a2 46be c0f7 6b3e
00000070: 0725 9f3e b1c1 bebe 03d0 143f adf3 6a3e

encoder.encoder_g.conv2.lin.weight f4 [32, 32]
0.13879596 -0.20400888 0.05026954 0.1519882 0.18172592 0.21921529 0.16124721 0.18161045
-0.29290798 0.38887122 -0.25016 -0.27045906 -0.05266834 0.1526036 0.03590578 -0.18372743
0.006100926 -0.13580698 0.22829162 -0.2630634 -0.23637295 0.11191883 0.041471448 -0.22285177
0.35233748 -0.044602763 0.044112593 -0.23160191 0.3499146 -0.13679919 0.1512832 0.15573066
-0.17852549 -0.24788198 -0.16166168 0.043072805 -0.19501558 0.051676646 0.25502783 0.3051973
0.005593015 0.45631894 -0.029142942 0.24976176 0.22190893 -0.032892276 -0.026809916 -0.17348051
-0.23745328 -0.0028522057 -0.24063411 0.3075385 -0.15531 0.15773341 -0.16663098 0.04516332
-0.12105769 0.22850762 -0.24955241 -0.31895503 -0.011089633 -0.2568808 0.021199193 -0.06225366
0.0060822316 -0.026462069 0.023602447 -0.19787765 -0.31314886 -0.18205087 -0.22647794 0.39483407
-0.1444936 -0.22187574 0.2198487 -0.00418218 -0.15638801 -0.21943837 0.33372986 0.016955214
-0.043188777 0.32040966 -0.10374644 0.32460836 -0.29549137 0.21270533 0.1295692 -0.09606941
-0.29518008 0.10406708 -0.012508638 -0.18601228 -0.2214262 0.019591385 0.12397436 0.07693759
-0.46717572 0.12599178 -0.1848965 -0.09610839 0.11560777 0.124424525 -0.2299213 -0.026068449
-0.1293473 0.16778742 0.060754865 0.103651054 0.10792065 0.04725316 0.23930316 -0.12555833
-0.16065711 -0.08445704 0.2616693 0.14838743 -0.37119082 -0.14267626 0.13960034 0.1342723
0.04321846 0.19634792 -0.20128508 -0.1726436 -0.39831188 0.16697724 0.016765937 0.14711617
-0.10840994 -0.30742678 -0.14893733 0.15435484 0.15093116 -0.14038359 -0.008383543 -0.17395931
0.13275541 -0.15084772 -0.027496906 -0.14724974 -0.05524776 -0.31371206 0.22057642 -0.027847242
-0.030985309 0.20953257 -0.05731675 -0.090557784 0.1981208 -0.06549247 0.03835152 -0.0037845476
0.25780067 0.05141475 -0.27599502 0.28519064 0.19654651 -0.3547904 0.20653681 0.17355816
-0.19278093 -0.23605238 0.00078704284 0.30796424 -0.3228297 0.056123868 0.21562678 0.029371414
0.19842646 0.077325866 -0.13525997 0.25366855 -0.18976113 -0.19736107 -0.007841173 0.21295816
-0.0029200164 -0.14289713 0.048552122 0.033637334 -0.00022652204 0.27242064 -0.2656417 -0.017772542
0.17771931 -0.24934065 -0.07484606 -0.22757536 -0.15633108 -0.20306067 0.008668109 -0.12659441
-0.23803064 0.019568749 -0.31817582 -0.069372535 -0.09488322 0.056217335 0.1124825 0.07104368
0.089027055 -0.0818077 0.115547545 -0.15573704 0.208571 -0.3070511 0.14876363 0.08447313
0.21931356 -0.018683117 -0.23570491 0.0012528404 -0.10990358 0.20893368 -0.11791813 -0.1668227
-0.03658079 0.13815837 0.23699187 -0.061592255 0.11104282 0.22361398 0.3530383 -0.15975636
-0.22857718 0.23607308 0.27677685 -0.032775704 0.057520732 0.27182406 -0.0074820695 -0.21458545
-0.09432856 0.7219367 -0.07909269 0.06557092 0.15309022 0.06459569 0.042772174 0.49257866
0.010814447 0.041073516 0.24130842 -0.15131636 0.13656244 0.044287335 -0.11005489 0.10229505
0.45480314 -0.11057964 -0.070069425 -0.14903715 0.086983845 0.34167954 -0.18487433 0.26222336
00000000: 8720 0e3e b4e7 50be 6fe7 4d3d cba2 1b3e
00000010: 5c16 3a3e f979 603e fd1d 253e 17f8 393e
00000020: 09f8 95be 211a c73e f914 80be 9c79 8abe
00000030: c2ba 57bd 1e44 1c3e f011 133d 0b23 3cbe
00000040: 47ea c73b fc10 0bbe 47c5 693e 3fb0 86be
00000050: c00b 72be b335 e53d f7dd 293d 4133 64be
00000060: 9465 b43e 63b1 36bd 68af 343d 0d29 6dbe
00000070: 0228 b33e 1615 0cbe fce9 1a3e dc77 1f3e
00000080: 63cf 36be c6d4 7dbe a48a 25be 1c6d 303d
00000090: 2ab2 47be e4aa 533d 0293 823e d242 9c3e
000000a0: 9c45 b73b a3a2 e93e 2ebd eebc 8cc1 7f3e
000000b0: 183c 633e 0dba 06bd 78a0 dbbc e0a4 31be
000000c0: f426 73be 12ec 3abb ca68 76be b075 9d3e
000000d0: 9609 1fbe de84 213e 50a1 2abe 2cfd 383d
000000e0: 18ed f7bd e7fd 693e ab8a 7fbe 134e a3be
000000f0: 4bb1 35bc e185 83be eea9 ad3c b2fd 7ebd
00000100: 754d c73b fbc6 d8bc eb59 c13c 70a0 4abe
00000110: 0c55 a0be 8b6b 3abe d5e9 67be b127 ca3e
00000120: 21f6 13be 6533 63be 0520 613e ab0a 89bb
00000130: 2e24 20be 74b4 60be a4de aa3e a9e5 8a3c
00000140: b7e6 30bd bc0c a43e 0379 d4bd 1133 a63e
00000150: a54a 97be 6dcf 593e caad 043e 0ac0 c4bd
00000160: d821 97be 1f21 d53d 08f1 4cbc 017a 3ebe
00000170: 8dbd 62be 1d7e a03c 45e6 fd3d 7591 9d3d
00000180: a831 efbe fd03 013e 8255 3dbe 7ad4 c4bd
00000190: c4c3 ec3d 49d2 fe3d 7d70 6bbe 808d d5bc
000001a0: 9e73 04be 77d0 2b3e 18da 783d 0147 d43d
000001b0: 8005 dd3d 888c 413d e30b 753e 5d92 00be
000001c0: 4c83 24be d0f7 acbd 85f9 853e e0f2 173e
000001d0: b90c bebe ba19 12be 64f3 0e3e ae7e 093e
000001e0: d705 313d 6e0f 493e ad1d 4ebe 7cc9 30be
000001f0: 89ef cbbe 15fc 2a3e b858 893c 9fa5 163e
00000200: 0806 debd 0b67 9dbe 0783 18be 320f 1e3e
00000210: b38d 1a3e b7c0 0fbe 215b 09bc 6422 32be
00000220: 09f1 073e d377 1abe 3141 e1bc a3c8 16be
00000230: 7a4b 62bd de9e a0be c9de 613e e61f e4bc
00000240: e7d4 fdbc b58f 563e f8c4 6abd 5c76 b9bd
00000250: 2ee0 4a3e eb20 86bd 7c16 1d3d 2c06 78bb
00000260: 73fe 833e 4698 523d 384f 8dbe 8204 923e
00000270: 7d43 493e 16a7 b5be 637e 533e 3bb9 313e
00000280: 5d68 45be b7b7 71be 8d51 4e3a 7dad 9d3e
00000290: ef49 a5be 24e2 653d 44cd 5c3e 529c f03c
000002a0: 4e30 4b3e 065d 9e3d 9781 0abe d8e0 813e
000002b0: be50 42be 0519 4abe 4378 00bc b411 5a3e
000002c0: bf5d 3fbb a053 12be 97de 463d 4dc7 093d
000002d0: 8c86 6db9 b87a 8b3e 3002 88be b997 91bc
000002e0: 0dfc 353e 2853 7fbe e448 99bd 8409 69be
000002f0: 4115 20be 23ef 4fbe af04 0e3c f7a1 01be
00000300: 4ebe 73be a44e a03c f1e7 a2be 3013 8ebd
00000310: 2252 c2bd 2644 663d 3a5d e63d 597f 913d
00000320: d153 b63d cc8a a7bd 31a4 ec3d 8879 1fbe
00000330: a393 553e cd35 9dbe 7e55 183e 4000 ad3d
00000340: bc93 603e 560d 99bc a15c 71be 5936 a43a
00000350: 2115 e1bd b6f2 553e 0f7f f1bd 92d3 2abe
00000360: bdd5 15bd 6379 0d3e ffad 723e 2948 7cbd
00000370: 6b6a e33d 10fb 643e 70c1 b43e 2c97 23be
00000380: 2310 6abe 24bd 713e b2b5 8d3e d13f 06bd
00000390: dc9a 6b3d 862c 8b3e 262c f5bb 4abc 5bbe
000003a0: 552f c1bd d8d0 383f 59fb a1bd 0c4a 863d
000003b0: afc3 1c3e bf4a 843d e031 2f3d 4533 fc3e
000003c0: 142f 313c b43c 283d 8e19 773e adf2 1abe
000003d0: 06d7 0b3e a366 353d 7564 e1bd 1180 d13d
000003e0: f5db e83e 9477 e2bd 8f80 8fbd 329d 18be
000003f0: 9624 b23d 9ff0 ae3e b24f 3dbe 2442 863e

encoder.encoder_g.linear.weight f4 [32, 1440]
-0.027299272 -0.02208397 0.12124101 -0.06835965 0.0003558083 0.015927315 0.046690755 0.12662713
-0.080771215 -0.06536778 -0.012964323 0.1023632 -0.11372305 -0.049999133 0.025568081 0.35706067
-0.119628616 0.06726613 0.021466613 -0.02295296 0.19150014 0.104327515 -0.3051001 0.16125247
-0.08151938 -0.020509297 0.14138107 -0.073866665 0.07882064 0.11931213 -0.21403843 -0.044031844
-0.08236147 -0.06128377 0.013134295 -0.053728633 -0.067760326 0.04933697 -0.11593967 -0.01909377
-0.010600721 -0.00056141015 -0.03271434 0.15718898 -0.001993411 -0.010029727 0.085442975 -0.005252137
-0.019268742 -0.16698699 -0.06025942 -0.043626692 0.09171896 0.081886105 -0.11015308 -0.026040697
-0.16800983 -0.088653356 0.08861187 -0.0660494 -0.07055849 -0.048467208 -0.1295698 0.0822246
0.01485565 0.07720124 0.041089542 -0.020900685 -0.18014327 0.40766618 0.029621236 0.042076483
-0.14871058 0.01910132 -0.11249905 -0.07938136 -0.107975565 0.114249595 -0.28236902 0.0021025403
-0.03061029 -0.05255374 -0.080198646 -0.12366793 -0.028252041 0.0649713 0.030200554 -0.03070559
-0.013379159 0.13160765 0.033950314 -0.10272941 -0.1737325 -0.030290106 -0.10687667 0.010014696
-0.023036987 -0.10048354 0.031105183 -0.053301908 0.071273945 -0.045271777 -0.023351671 0.09806131
-0.062403854 0.030545825 0.024276381 0.1157242 -0.1565852 -0.05160455 0.087460876 0.23730463
-0.08478988 0.00892862 0.00967928 -0.037091844 0.18387382 0.12283899 -0.23169242 0.17220946
-0.05519622 0.039068963 0.12603748 -0.08191768 0.040950403 0.09440325 -0.20742297 -0.02424546
-0.11857273 -0.046749882 0.03845065 -0.11174994 0.06125054 0.055643346 0.05024018 0.02939415
-0.20107247 0.03009687 -0.063861035 0.30202714 -0.0473374 0.10476616 -0.104607575 0.073154084
-0.16657098 -0.05681644 0.1315288 -0.06626243 0.18481809 0.095340125 -0.009918474 0.08268832
0.002278767 0.036430065 0.29623997 -0.15169604 -0.09658208 0.19738051 -0.3076412 -0.09293375
-0.016840909 -0.09972098 -0.010480756 -0.04139054 0.0040459335 0.09074755 -0.04122247 -0.0011420852
-0.0061758556 0.024417408 -0.067956194 0.053068753 -0.018626066 0.16129589 -0.05822645 -0.06889768
0.011896025 -0.21505535 0.03552302 -0.090066396 -0.025193479 0.04395275 0.03315112 -0.012146643
-0.015237443 0.081271544 0.1214332 -0.26024303 -0.044520512 -0.046228636 0.12488756 -0.026569553
-0.00033004413 -0.06914547 0.013553172 -0.052679747 0.048960693 0.033436295 0.07132585 0.07044468
-0.054272458 -0.0017278789 0.04994673 0.08707438 -0.19656849 -0.010987684 0.05153707 0.22723722
-0.09119608 0.05161684 -0.004655304 -0.026607499 0.18420891 0.08795664 -0.19639048 0.15614833
-0.06404031 0.027342297 0.12994355 -0.055222325 0.056573663 0.090552405 -0.21556826 0.00069601065
-0.07863305 0.0942007 0.08530441 -0.021358287 0.006828678 0.18708551 0.13789946 0.0025571673
0.02913818 -0.1908035 -0.032230996 0.048499063 0.113253914 0.084381685 -0.0980713 0.06899444
-0.016383713 -0.07900486 -0.002858729 -0.15059502 0.017385546 -0.077802554 -0.098728605 -0.15694833
-0.021095825 0.028508855 0.041580886 -0.17244515 -0.09834784 -0.037375413 -0.021973856 0.006464078
00000000: b9a2 dfbc 71e9 b4bc 354d f83d 2500 8cbd
00000010: c88b ba39 007a 823c ce3e 3f3d 8baa 013e
00000020: 616b a5bd 8bdf 85bd 5068 54bc cca3 d13d
00000030: a1e7 e8bd e4cb 4cbd 2774 d13c a8d0 b63e
00000040: d9ff f4bd d3c2 893d c0da af3c d907 bcbc
00000050: 9d18 443e aaa9 d53d 1536 9cbe 5e1f 253e
00000060: a2f3 a6bd 1d03 a8bc 33c6 103e 6847 97bd
00000070: b76c a13d eb59 f43d e42c 5bbe bc5a 34bd
00000080: 21ad a8bd b104 7bbd 3a31 573c 8e12 5cbd
00000090: edc5 8abd 9015 4a3d c771 edbd 8a6a 9cbc
000000a0: a6ae 2dbc 992b 13ba 79ff 05bd 26f6 203e
000000b0: e3a3 02bb b953 24bc bafc ae3d 1e1a acbb
000000c0: 7bd9 9dbc a3fe 2abe 95d2 76bd e7b1 32bd
000000d0: 26d7 bb3d e7b3 a73d f097 e1bd 4d53 d5bc
000000e0: c50a 2cbe e48f b5bd 247a b53d e844 87bd
000000f0: f880 90bd 8d85 46bd f2ad 04be 5f65 a83d
00000100: 1d65 733c af1b 9e3d 824d 283d ea37 abbc
00000110: 7a77 38be 9fb9 d03e 3ca8 f23c 6458 2c3d
00000120: 9647 18be 5f7a 9c3c e765 e6bd b292 a2bd
00000130: 4b22 ddbd b1fb e93d ac92 90be c6ca 093b
00000140: 6ec2 fabc 9742 57bd 303f a4bd 9d45 fdbd
00000150: d370 e7bc ac0f 853d 2767 f73c 4a8a fbbc
00000160: 4334 5bbc 28c4 063e 7c0f 0b3d cc63 d2bd
00000170: efe6 31be f522 f8bc 28e2 dabd ae14 243c
00000180: 10b8 bcbc 50ca cdbd 4cd0 fe3c 1a53 5abd
00000190: 13f8 913d e66e 39bd 014c bfbc 5ed4 c83d
000001a0: 2f9b 7fbd 3d3b fa3c 43df c63c cf00 ed3d
000001b0: df57 20be 4b5f 53bd b01e b33d fcff 723e
000001c0: 51a6 adbd 5949 123c d895 1e3c 9eed 17bd
000001d0: 6b49 3c3e 0293 fb3d c740 6dbe ad57 303e
000001e0: 6e15 62bd c706 203d f80f 013e 75c4 a7bd
000001f0: 9cbb 273d 7e56 c13d b066 54be 6a9e c6bc
00000200: 42d6 f2bd ce7c 3fbd 6e7e 1d3d 27dd e4bd
00000210: d9e1 7a3d 47ea 633d a6c8 4d3d 00cc f03c
00000220: f1e5 4dbe b68d f63c 93c9 82bd 4da3 9a3e
00000230: dde4 41bd a48f d63d 7f3c d6bd cfd1 953d
00000240: 9591 2abe 5bb8 68bd 7caf 063e 99b4 87bd
00000250: f440 3d3e af41 c33d 1881 22bc 7e58 a93d
00000260: 5e57 153b b137 153d c4ac 973e 3556 1bbe
00000270: d3cc c5bd 1e1e 4a3e 2683 9dbe 0d54 bebd
00000280: f2f5 89bc 833a ccbd 7ab7 2bbc 2089 29bd
00000290: c093 843b dad9 b93d e5d8 28bd 05b2 95ba
000002a0: d55e cabb 0407 c83c 9e2c 8bbd 9f5e 593d
000002b0: b195 98bc c02a 253e dc7e 6ebd 3a1a 8dbd
000002c0: 8ce7 423c 7837 5cbe 9680 113d bb74 b8bd
000002d0: 8e62 cebc cc07 343d 78c9 073d b702 47bc
000002e0: 78a6 79bc b271 a63d f8b1 f83d 933e 85be
000002f0: 245b 36bd 3d5a 3dbd 0dc5 ff3d 64a8 d9bc
00000300: c609 adb9 249c 8dbd 200e 5e3c b8c6 57bd
00000310: 028b 483d 7ff4 083d 4a13 923d 4d45 903d
00000320: cc4c 5ebd ff79 e2ba f194 4c3d 0d54 b23d
00000330: 4049 49be b005 34bc 8918 533d e0b0 683e
00000340: 03c5 babd 2e6c 533d 858b 98bb f8f7 d9bc
00000350: 43a1 3c3e 9c22 b43d 961a 49be 59e5 1f3e
00000360: 9127 83bd f4fc df3c ec0f 053e ce30 62bd
00000370: c9b9 673d 8a73 b93d edbd 5cbe 7c74 363a
00000380: 5d0a a1bd 4cec c03d 14b4 ae3d 93f7 aebc
00000390: 1ac3 df3b 5893 3f3e 8435 0d3e 2696 273b
000003a0: 31b3 ee3c fe61 43be a604 04bd f4a6 463d
000003b0: abf1 e73d 4ed0 ac3d 9bd9 c8bd f54c 8d3d
000003c0: 2337 86bc 4dcd a1bd 8459 3bbb 9535 1abe
000003d0: 226c 8e3c f256 9fbd 3932 cabd 10b7 20be
000003e0: 27d1 acbc 678b e93c b850 2a3d 7695 30be
000003f0: 986a c9bd f616 19bd 8402 b4bc 9ed0 d33b

encoder.encoder_g.linear.bias f4 [32]
-0.13868932 -0.044186033 -0.25758767 -0.12065436 0.039923165 0.14950262 0.14767618 0.03404936
0.28936616 0.08167711 0.10396795 0.1291088 -0.08087303 0.13540146 -0.10905232 0.122374944
0.15905571 -0.28603303 0.052585766 0.1198594 0.11671206 0.14716858 -0.09156454 -0.12612088
0.20619789 -0.20263492 -0.09900773 0.042227406 0.18523797 0.07791821 0.20509455 -0.13729894
00000000: 9304 0ebe 6afc 34bd 88e2 83be a219 f7bd
00000010: 7986 233d 3717 193e 6d38 173e 5777 0b3d
00000020: cd27 943e 5446 a73d 26ed d43d 1935 043e
00000030: c2a0 a5bd aea6 0a3e d356 dfbd b79f fa3d
00000040: 80df 223e ec72 92be 2c64 573d d878 f53d
00000050: bc06 ef3d 5cb3 163e 3186 bbbd d525 01be
00000060: 8a25 533e 877f 4fbe 91c4 cabd a5f6 2c3d
00000070: 06af 3d3e 9593 9f3d 4e04 523e 1898 0cbe

encoder.encoder_c.conv1.bias f4 [32]
0.08239387 0.16104312 0.09048125 0.104668625 -0.020572 0.14943533 0.122011766 0.10345499
0.004816891 0.107391424 0.117025174 0.09463251 0.08924152 0.06606136 0.07981852 0.16178136
0.07524708 0.097654015 0.108011484 0.0950587 0.09879168 0.12883298 0.09545419 0.11636029
0.07852941 0.18428934 0.15440664 0.1685374 0.060374055 0.13310748 0.12323198 0.078451715
00000000: 1ebe a83d 7de8 243e 3c4e b93d 815c d63d
00000010: 9c86 a8bc 9305 193e 4ee1 f93d 36e0 d33d
00000020: 03d7 9d3b 09f0 db3d e5aa ef3d b0ce c13d
00000030: 42c4 b63d 2e4b 873d e477 a33d 03aa 253e
00000040: 241b 9a3d d4fe c73d 2035 dd3d 23ae c23d
00000050: 4b53 ca3d cbec 033e 7d7d c33d 4e4e ee3d
00000060: 07d4 a03d 58b6 3c3e c61c 1e3e 1195 2c3e
00000070: c94a 773d 544d 083e 0c61 fc3d 4bab a03d

encoder.encoder_c.conv1.lin.weight f4 [32, 125]
0.20098571 0.045220617 0.26427922 0.07057087 0.32695323 0.49302563 0.19560187 -0.16507405
-0.72659457 0.27051196 0.46833548 0.16558485 0.13195452 -0.10950475 -0.50256735 0.17856066
-0.6095273 0.45946234 0.26466298 -0.14102106 -0.1344881 -0.2155798 -0.019608114 0.07319427
-0.30914977 0.13606289 -0.3228304 0.18646073 0.3537293 -0.10248312 0.2487219 0.250139
0.016071303 -0.07967683 0.42229414 0.00672143 -0.29672375 -0.06536911 0.07053337 0.022603067
0.36268154 0.268694 -0.21365762 0.25512117 0.27426648 -0.25096524 0.39846495 -0.0031579197
0.19629677 0.1469577 0.0043468443 -0.08981602 0.14355348 0.011667874 0.104076035 -0.1373327
0.06882813 0.10463977 0.24573246 -0.26738384 0.6266106 0.0658893 0.18845494 0.5569381
-0.03646951 -0.80073553 -0.3847451 0.28315234 -0.2611119 -0.09216739 0.013326004 -0.43748334
-0.12115124 -0.5200426 0.014627252 0.23738836 -0.10072383 0.30530182 0.26077145 0.3190909
0.30909815 0.070159696 -0.25945562 0.0074436064 0.3850037 -0.2551368 -0.09493394 0.23011488
0.2575549 -0.043360073 0.22335546 0.42469567 -0.48298103 -0.03414798 0.77411026 -0.09670299
0.4318444 -0.1624894 0.35562798 0.021112602 -0.0216706 -0.2918961 -0.094676286 -0.21277547
-0.6464142 -0.3914465 -0.031802863 -0.18672448 0.52284 -0.037487634 -0.09416018 -0.25955918
-0.417843 0.17503028 0.23864126 -0.2434392 -0.24581869 -0.22790459 -0.38759756 -0.66475505
-0.36123863 -0.13581422 -0.08341255 -0.2111722 0.32787472 0.33250314 -0.07534942 0.18321495
0.18426517 -0.056947563 0.17881548 -0.11512214 -0.28888637 -0.051243465 0.24392901 0.27406284
-0.5803617 -0.3338593 -0.23577271 0.23943953 -0.0748556 -0.012611112 -0.1486538 -0.04832404
-0.19454798 -0.15435682 0.17332174 0.34757486 -0.37567258 -0.18185125 -0.25583434 -0.28231138
-0.19975783 0.39811152 -0.12854724 -0.4316596 -0.15688701 0.5052726 -0.22424665 0.0315309
0.35318285 0.668676 0.07072239 0.31275612 0.060370307 0.27047533 0.31450698 -0.3686618
-0.006080361 0.3141489 0.23115227 0.17664316 -0.43592548 0.25829855 0.25440115 0.392673
-0.0787249 0.2535426 0.09033385 -0.34999138 0.118832715 0.070174545 -0.1130906 0.1908999
0.26445422 -0.22500154 0.40827614 0.5005335 0.4604782 -0.505938 0.2313947 0.9234657
0.19904198 -0.24588369 -0.05408703 -0.19185075 -0.27375844 0.011949506 0.120778 -0.2635372
0.11620622 0.26827973 0.30085748 0.024153512 0.10181826 -0.38191757 -0.13289267 0.4346681
0.31540117 0.32759896 -0.17368416 0.17588983 -0.17073356 -0.17934403 0.036263805 -0.22947314
-0.4230773 -0.47528037 0.12939665 -0.34104633 0.51482177 0.01725435 -0.038109962 -0.082208514
0.16504003 -0.20479089 -0.27293676 0.116036445 0.22705661 -0.37390918 -0.17721376 -0.23321266
-0.5657382 -0.10327438 -0.022220507 0.32107624 0.3805426 0.17926688 -0.41429093 0.21202841
-0.306812 -0.28225625 -0.14251603 -0.012948812 0.108710706 0.205882 0.3681233 0.1075512
-0.10487147 0.5914414 -0.43187404 0.06332164 -0.4750891 0.4260308 0.1879105 -0.004315542
00000000: 33cf 4d3e 4139 393d 9b4f 873e 7687 903d
00000010: 6a66 a73e db6d fc3e db4b 483e 2c09 29be
00000020: 1a02 3abf 8b80 8a3e abc9 ef3e 138f 293e
00000030: 161f 073e 0744 e0bd 41a8 00bf 9bd8 363e
00000040: fb09 1cbf a63e eb3e e881 873e d367 10be
00000050: 40b7 09be f3c0 5cbe 32a1 a0bc e1e6 953d
00000060: e148 9ebe 1254 0b3e 074a a5be 90ef 3e3e
00000070: 021c b53e ace2 d1bd f4b0 7e3e 3812 803e
00000080: f7a7 833c 9b2d a3bd f036 d83e 713f dc3b
00000090: 2dec 97be 3de0 85bd cd73 903d 112a b93c
000000a0: 65b1 b93e 4392 893e 10c9 5abe 3e9f 823e
000000b0: a86c 8c3e 847e 80be 9903 cc3e 1af5 4ebb
000000c0: 0502 493e 147c 163e f96f 8e3b 76f1 b7bd
000000d0: afff 123e 9c2a 3f3c d125 d53d f1a0 0cbe
000000e0: c3f5 8c3d 604d d63d 4aa1 7b3e 89e6 88be
000000f0: 8d69 203f f8f0 863d 55fa 403e 7f93 0e3f
00000100: 0e61 15bd 01fd 4cbf 4ffd c4be 58f9 903e
00000110: 75b0 85be 42c2 bcbd 5055 5a3c d1fd dfbe
00000120: 241e f8bd 8321 05bf 24a7 6f3c ef15 733e
00000130: 4c48 cebd 8550 9c3e d683 853e e25f a33e
00000140: 1d42 9e3e e3af 8f3d 5ed7 84be 7fe9 f33b
00000150: 341f c53e 4aa1 82be ba6c c2bd 3ca3 6b3e
00000160: 3cde 833e 559a 31bd 4bb7 643e b671 d93e
00000170: 4a49 f7be c1de 0bbd 172c 463f 380c c6bd
00000180: b61a dd3e 9f63 26be df14 b63e 56f4 ac3c
00000190: 8b86 b1bc 6873 95be a4e5 c1bd d0e1 59be
000001a0: 677b 25bf ad6b c8be b843 02bd b434 3fbe
000001b0: d8d8 053f a28c 19bd 0dd7 c0bd f1e4 84be
000001c0: 85ef d5be 233b 333e 605e 743e 2048 79be
000001d0: e5b7 7bbe d25f 69be 3073 c6be 632d 2abf
000001e0: 45f4 b8be e212 0bbe 33d4 aabd 863d 58be
000001f0: 32df a73e da3d aa3e cc50 9abd b39c 3b3e
00000200: 02b0 3c3e d941 69bd 681b 373e 28c5 ebbd
00000210: eae8 93be abe4 51bd 87c8 793e f751 8c3e
00000220: 9692 14bf 9bef aabe 676e 71be a32f 753e
00000230: e54d 99bd d69e 4ebc b438 18be 6eef 45bd
00000240: 9637 47be b70f 1ebe 417b 313e 55f5 b13e
00000250: 2858 c0be 3737 3abe b8fc 82be 1e8b 90be
00000260: 518d 4cbe 46d5 cb3e e3a1 03be 7d02 ddbe
00000270: fda6 20be 8c59 013f eaa0 65be 8c26 013d
00000280: 62d4 b43e 5a2e 2b3f e7d6 903d 9221 a03e
00000290: db46 773d be7b 8a3e 0f07 a13e 3dc1 bcbe
000002a0: c43d c7bb 20d8 a03e 2eb3 6c3e f2e1 343e
000002b0: a031 dfbe b53f 843e de40 823e 6f0c c93e
000002c0: 853a a1bd 56d0 813e f400 b93d 1232 b3be
000002d0: 915e f33d acb7 8f3d 0b9c e7bd 437b 433e
000002e0: 8b66 873e ce66 66be 9209 d13e f722 003f
000002f0: ccc3 eb3e 2785 01bf bbf2 6c3e 4068 6c3f
00000300: a9d1 4b3e efc8 7bbe 5d8a 5dbd 8674 44be
00000310: 112a 8cbe dcc7 433c 755a f73d 59ee 86be
00000320: 87fd ed3d f65b 893e fe09 9a3e 96dd c53c
00000330: 1886 d03d b38a c3be 0415 08be d18c de3e
00000340: 437c a13e 0dbb a73e 43da 31be 771c 343e
00000350: c7d4 2ebe f6a5 37be 5b89 143d 02fb 6abe
00000360: 969d d8be f357 f3be 8e80 043e a09d aebe
00000370: 5ccb 033f ff58 8d3c 3119 1cbd f05c a8bd
00000380: 4100 293e b4b4 51be 5ebe 8bbe 84a4 ed3d
00000390: 8781 683e 0671 bfbe 8677 35be 4dcf 6ebe
000003a0: 38d4 10bf 8581 d3bd c807 b6bc 1b64 a43e
000003b0: 7bd6 c23e bd91 373e f11d d4be fa1d 593e
000003c0: 7616 9dbe e483 90be b9ef 11be 4127 54bc
000003d0: b8a3 de3d bbd2 523e a87a bc3e ce43 dc3d
000003e0: dac6 d6bd b468 173f 981e ddbe c7ae 813d
000003f0: e13e f3be b620 da3e 9c6b 403e 6469 8dbb

encoder.encoder_c.conv2.bias f4 [32]
0.0015190297 0.09921499 0.06779951 0.11031124 -0.15979637 0.14627562 0.08225544 0.066790774
-0.033702306 0.038884614 -0.009045481 0.18405512 -0.0011351048 0.016539894 -0.10393447 -0.06682578
-0.07004734 0.033642456 0.027768541 -0.030186057 -0.049708173 -0.18824801 0.08471357 0.15126124
0.03580807 0.15529868 0.111135125 -0.017224621 -0.013030565 -0.09503656 -0.14971615 -0.1576257
00000000: 2e1a c73a 3b31 cb3d 78da 8a3d dcea e13d
00000010: a9a1 23be 47c9 153e 8a75 a83d 9ac9 883d
00000020: 6e0b 0abd 7945 1f3d 7f33 14bc f278 3c3e
00000030: ccc7 94ba ac7e 873c 98db d4bd f4db 88bd
00000040: fb74 8fbd accc 093d da7a e33c c048 f7bc
00000050: cc9a 4bbd 16c4 40be 4f7e ad3d 3ae4 1a3e
00000060: 7cab 123d 9e06 1f3e d09a e33d a61a 8dbc
00000070: 277e 55bc 87a2 c2bd 314f 19be a268 21be

encoder.encoder_c.conv2.lin.weight f4 [32, 32]
-0.23074463 0.06424377 0.33037752 -0.34341535 0.19463746 -0.032822017 0.31578094 0.45852894
0.035896998 0.55108404 0.13796644 -0.33615008 -0.26184505 -0.17517556 -0.4504459 -0.2091316
0.16919997 -0.5174273 0.0050738486 0.22899495 0.0054028304 0.5615151 0.47127318 0.029328993
0.07770023 -0.04517913 -0.14665617 -0.069070965 -0.056150734 0.004692586 -0.035426825 -0.09896035
-0.28986874 -0.46741676 -0.15052122 0.17219475 0.49232784 -0.10518775 -0.24142836 -0.100382455
-0.14202988 0.0441337 0.18612175 -0.6078707 0.29893625 0.11714236 0.23876314 -0.32857892
-0.16609997 -0.030605467 0.08114398 0.2867514 0.5697977 -0.33220193 0.024008946 0.2972646
0.028093128 0.05438667 0.33708954 -0.22713411 -0.17030492 0.4307431 0.50141764 -0.47215924
-0.27732658 -0.3417042 -0.5490606 -0.18055356 -0.3261744 -0.3143892 0.07016948 0.22745375
0.1717011 0.14803004 0.40301812 -0.09002673 0.3982746 0.17514332 -0.37171358 0.22608146
0.2816107 -0.47321638 -0.10674129 -0.13814153 0.27716118 0.046581887 0.13712215 -0.022510268
0.093490385 0.52175313 0.29907283 -0.061097257 -0.0963887 -0.24880147 -0.45280123 0.36940965
-0.10890347 0.061493784 -0.19790289 0.029882103 0.33522418 -0.008868071 0.0023831243 -0.48472553
0.499724 0.18339671 -0.256129 0.24434428 0.01202004 -0.16919497 -0.4064399 -0.15839522
-0.41627875 -0.007675263 0.38943633 -0.21613643 0.30011815 0.37446815 0.42357895 -0.45033503
0.13126872 0.42615673 0.43186674 0.31943995 0.08290166 -0.22228499 0.082215786 -0.1885906
-0.1915667 -0.4282391 0.2059103 0.07813403 0.23354223 0.09616393 0.21006007 -0.04484446
-0.42592892 0.36529315 -0.17294535 -0.46107575 -0.44481882 -0.07273858 -0.08347892 -0.169674
-0.24238184 0.17767179 0.21434355 0.24135716 0.27565852 0.19173326 -0.24925755 -0.17206322
0.44292286 -0.47846845 0.26466975 0.029546704 -0.2100411 0.52271837 -0.15502222 -0.2717496
-0.20731422 -0.1988404 0.3081904 0.40361378 -0.18791303 -0.3502052 -0.33872342 0.54247403
-0.28779912 -0.39328286 -0.13304853 -0.30011725 0.08029788 0.039601777 0.20254815 -0.11695449
-0.015338419 -0.24045134 0.71265143 0.25680685 -0.24086013 -0.534885 -0.08489541 0.040175512
0.1979272 0.3729221 0.04301217 -0.0100764185 -0.43964407 -0.28243658 0.48306403 -0.047122505
-0.2820514 0.368788 0.3560218 -0.6956423 0.5584378 -0.45428646 0.028838469 -0.62216663
0.3985627 -0.17456643 -0.4241886 -0.11993234 0.0025765053 -0.21582296 0.046086043 -0.22327422
0.23801745 0.45649907 -0.34181887 0.40546104 -0.057552543 0.33364958 0.16550642 -0.09936289
0.19981715 -0.16209726 0.27369666 -0.11204387 -0.068996735 0.47041214 0.23664582 0.44810918
0.15436538 0.25887084 -0.23438485 0.22795919 -0.04276482 0.3179547 -0.5527942 -0.23063117
-0.22188962 -0.015549682 -0.16114773 0.4195374 -0.3005582 0.31799957 0.21155459 -0.34654152
0.33303422 0.51203525 -0.08941429 -0.12553947 -0.30871317 -0.2506611 0.14889519 -0.3137412
-0.36407372 -0.3882095 0.15831876 -0.5475195 0.0036506336 0.25759354 0.4012171 0.46280885
00000000: 5248 6cbe 3d92 833d 3e27 a93e 23d4 afbe
00000010: 0b4f 473e 6170 06bd 0aae a13e 4ec4 ea3e
00000020: bb08 133d d813 0d3f 1347 0d3e dd1b acbe
00000030: 8e10 86be 3961 33be d8a0 e6be 9826 56be
00000040: c242 2d3e 1e76 04bf 8742 a63b a77d 6a3e
00000050: 3a0a b13b 74bf 0f3f b84a f13e 5b43 f03c
00000060: 4c21 9f3d c00d 39bd 092d 16be 1475 8dbd
00000070: 50fe 65bd 44c4 993b b81b 11bd b9ab cabd
00000080: ad69 94be 4051 efbe 3c22 1abe d253 303e
00000090: 6512 fc3e ad6c d7bd ff38 77be 5195 cdbd
000000a0: 4870 11be 8ac5 343d b396 3e3e 6a9d 1bbf
000000b0: 2c0e 993e 55e8 ef3d 537e 743e 7f3b a8be
000000c0: 1c16 2abe 51b8 fabc d12e a63d 14d1 923e
000000d0: 43de 113f 5f16 aabe 69ae c43c 1133 983e
000000e0: 8f23 e63c 8fc4 5e3d 0097 ac3e d895 68be
000000f0: 6a64 2ebe 5c8a dc3e e85c 003f dbbe f1be
00000100: c0fd 8dbe daf3 aebe 3c8f 0cbf 08e3 38be
00000110: 5500 a7be 9ff7 a0be 04b5 8f3d a3e9 683e
00000120: 6ad2 2f3e 3095 173e 6458 ce3e ef5f b8bd
00000130: a6ea cb3e c558 333e 3e51 bebe e681 673e
00000140: 472f 903e 6b49 f2be 2d9b dabd f974 0dbe
00000150: 12e8 8d3e a6cc 3e3d c069 0c3e 7467 b8bc
00000160: e377 bf3d 9d91 053f 1320 993e 1e41 7abd
00000170: 7067 c5bd d0c5 7ebe 90d5 e7be 4323 bd3e
00000180: c808 dfbd e8e0 7b3d 0ea7 4abe 50cb f43c
00000190: 81a2 ab3e 634b 11bc 312e 1c3b f22d f8be
000001a0: d3db ff3e 59cc 3b3e 5723 83be 6335 7a3e
000001b0: b4ef 443c 7241 2dbe e418 d0be 5b32 22be
000001c0: 7d22 d5be c680 fbbb 3364 c73e de52 5dbe
000001d0: 16a9 993e 4aba bf3e 57df d83e 5092 e6be
000001e0: 4f6b 063e 3731 da3e a31d dd3e a28d a33e
000001f0: 58c8 a93d ad9e 63be c060 a83d e51d 41be
00000200: 102a 44be 2842 dbbe 26da 523e bc04 a03d
00000210: b225 6f3e 98f1 c43d fd19 573e d3ae 37bd
00000220: 5b13 dabe b407 bb3e 9618 31be 1f12 ecbe
00000230: 4bbf e3be f7f7 94bd fff6 aabd 05bf 2dbe
00000240: f232 78be 98ef 353e e07c 5b3e 5526 773e
00000250: 1d23 8d3e b955 443e 5f3d 7fbe 5731 30be
00000260: c9c6 e23e d1f9 f4be cb82 873e ee0b f23c
00000270: 0415 57be dfd0 053f 25be 1ebe c322 8bbe
00000280: 2e4a 54be d19c 4bbe 22cb 9d3e 77a6 ce3e
00000290: 466c 40be 194e b3be 286d adbe 94df 0a3f
000002a0: 685a 93be 5f5c c9be e03d 08be f8a8 99be
000002b0: 3773 a43d 7935 223d c868 4f3e d685 efbd
000002c0: fe4d 7bbc e038 76be 5370 363f 307c 833e
000002d0: 0aa4 76be 39ee 08bf a5dd adbd 148f 243d
000002e0: 6ead 4a3e a5ef be3e 872d 303d 9017 25bc
000002f0: 0719 e1be 879b 90be 2b54 f73e 8703 41bd
00000300: 0b69 90be c8d1 bc3e 7d48 b63e 9d15 32bf
00000310: c8f5 0e3f 3c98 e8be a73e ec3c 5046 1fbf
00000320: 6910 cc3e 8bc1 32be 402f d9be 169f f5bd
00000330: 96da 283b b200 5dbe b8c4 3c3d ffa1 64be
00000340: d9ba 733e 3fba e93e e202 afbe 9798 cf3e
00000350: 37bc 6bbd 1ed4 aa3e 847a 293e c57e cbbd
00000360: de9c 4c3e d3fc 25be f821 8c3e 4277 e5bd
00000370: 294e 8dbd dcd9 f03e 4853 723e 916e e53e
00000380: f511 1e3e b88a 843e 9502 70be 226e 693e
00000390: 2a2a 2fbd f5ca a23e ec83 0dbf 942a 6cbe
000003a0: 0837 63be 18c4 7ebc e903 25be 9bcd d63e
000003b0: c4e2 99be d7d0 a23e c4a1 583e e46d b1be
000003c0: 7683 aa3e be14 033f d71e b7bd 6b8d 00be
000003d0: a70f 9ebe a756 80be fb77 183e b0a2 a0be
000003e0: df67 babe 65c3 c6be 501e 223e 3d2a 0cbf
000003f0: 783f 6f3b 4de3 833e 546c cd3e 48f5 ec3e
