output/sc/model_pth/merfish_trained_gae_model.pth (torch, 226143 bytes, 10 tensors)

encoder.encoder_g.conv1.bias f4 [32]
-0.09416792 -0.13061364 -0.068084545 -0.10021387 -0.084984 -0.07245788 -0.024910454 -0.09952624
0.022303963 -0.03677082 -0.08776779 -0.119104154 -0.07815446 -0.08195949 -0.067990996 -0.14890206
-0.102446884 -0.078104705 -0.10608119 -0.06492768 0.035605773 -0.068289556 -0.11152058 -0.14897177
-0.098935485 -0.09712512 -0.08562416 -0.044061083 -0.13176616 0.0031396742 -0.050937135 -0.075485125
00000000: 1cdb c0bd 95bf 05be e96f 8bbd ee3c cdbd
00000010: 170c aebd cc64 94bd 0211 ccbc 6ad4 cbbd
00000020: cdb6 b63c 009d 16bd 99bf b3bd e1ec f3bd
00000030: 720f a0bd 61da a7bd dd3e 8bbd c879 18be
00000040: accf d1bd 5cf5 9fbd 1841 d9bd cef8 84bd
00000050: 5cd7 113d 65db 8bbd e764 e4bd 0e8c 18be
00000060: b09e cabd 89e9 c6bd b85b afbd 6579 34bd
00000070: b5ed 06be fec2 4d3b 75a3 50bd f297 9abd

encoder.encoder_g.conv1.lin.weight f4 [32, 64]
-0.29111022 -0.07139275 -0.043407723 0.106243685 -0.2740083 0.24739696 -0.062261805 0.009144727
-0.051153768 -0.12333202 -0.31110168 0.011588324 0.24453257 0.0014619804 -0.08246419 -0.2536549
-0.0025284365 0.29664037 0.15177368 0.12590072 -0.13457222 0.013010374 -0.14730603 0.20655948
-0.048265405 -0.187217 -0.0123875365 -0.27656192 0.075065434 0.14990641 0.024542497 -0.08456553
0.22121021 0.1397621 0.18970838 0.04031962 0.17319433 -0.17532349 -0.09294132 0.2576384
0.02846055 -0.0703304 0.16806109 0.30347112 -0.2022344 -0.15792026 -0.0017636379 0.11722736
-0.31714413 0.24590611 0.025440607 -0.24369293 -0.067391746 -0.120122544 0.18732016 -0.18505797
0.23978853 0.14768517 -0.31213343 -0.28262419 0.16547124 0.045928773 -0.03160046 0.08714723
-0.3624624 0.34594956 -0.07257015 -0.004513919 -0.114906274 0.29928878 -0.026339384 0.1928003
-0.24327575 0.12131017 0.029357968 0.21354769 0.013549676 0.08406693 -0.0508726 -0.020603057
0.017912058 0.06763785 0.0038581707 -0.22994998 -0.14828259 0.012795845 -0.13658445 0.30209345
0.13458677 0.004152067 -0.23299786 -0.17438981 -0.16887772 0.018270591 -0.1365123 -0.116623625
-0.22243479 -0.029011566 -0.25183263 -0.1350462 0.1955191 0.24203281 0.004967989 0.18091463
-0.19021307 -0.009290662 -0.04511249 0.00391582 0.08228636 -0.17527987 -0.14049631 0.052898813
-0.020671183 0.29540756 0.15865873 0.21770719 0.05849957 -0.35468608 0.056720626 0.2246924
-0.008855172 0.09142529 -0.048476372 0.012039924 0.25928167 -0.04334629 0.18803565 -0.15126745
-0.21167102 0.19296673 0.013458648 -0.0850132 0.16019338 0.27546647 0.06283429 -0.12173037
-0.27701858 0.09015703 -0.28571126 0.1353745 0.16635376 -0.12321866 0.21473873 -0.0048464052
0.13247557 -0.14714421 0.106279165 0.18700445 -0.13255659 -0.12157398 -0.042612974 -0.014620585
-0.14791848 0.031290848 0.10989431 -0.017259507 0.1658709 -0.08487719 0.08475153 0.039347384
-0.21614134 -0.18425508 -0.15529205 -0.28325766 0.3191975 0.09068651 -0.058917563 0.3096104
-0.2045611 0.21575291 -0.1382595 0.09564032 -0.12515949 -0.1800249 0.28533307 -0.06377321
-0.17371792 0.16642989 0.09058152 -0.08296094 0.03659402 -0.02569595 0.15073694 0.27032235
0.054651674 -0.19619642 -0.32874966 -0.2354935 0.21781355 0.16659795 -0.019480487 -0.1318851
0.11535904 -0.023502318 0.2800568 0.036763195 0.02255933 0.093839526 -0.07361989 -0.020285979
-0.17210501 -0.028704897 0.14035766 -0.1347846 -0.09494449 -0.16189907 -0.02093203 0.14018275
-0.0019327427 -0.12305536 0.18791719 0.17718437 -0.02299417 0.14744656 0.18138094 -0.26354256
-0.11843684 -0.17293806 0.029302062 -0.06474316 0.074855775 0.098669276 0.17925747 0.22501883
-0.21455266 0.009153669 0.21479374 0.2799954 0.11751343 0.06432855 -0.07712135 -0.10628915
0.20354976 0.19279742 0.10796397 0.2482983 -0.08157111 0.11654635 0.013789386 -0.09056133
0.041959316 0.19360642 -0.11173494 -0.43323898 -0.42350388 -0.028165998 0.4570024 -0.08791723
0.09076797 0.1156157 -0.04172467 0.07947965 0.35165617 -0.2022267 -0.044707425 0.041419465
00000000: 660c 95be 5d36 92bd 4ccc 31bd 4a96 d93d
00000010: d14a 8cbe a155 7d3e 3c06 7fbd c4d3 153c
00000020: 9d86 51bd 8095 fcbd b848 9fbe f4dc 3d3c
00000030: bf66 7a3e ec9f bf3a fce2 a8bd 0edf 81be
00000040: 20b4 25bb 3fe1 973e 8f6a 1b3e 1eec 003e
00000050: 4dcd 09be 7729 553c 64d7 16be 5484 533e
00000060: f2b1 45bd d0b5 3fbe 18f5 4abc 8699 8dbe
00000070: e8bb 993d 1181 193e 590d c93c b130 adbd
00000080: ee84 623e cc1d 0f3e ea42 423e 3026 253d
00000090: db59 313e 0088 33be 0558 bebd 2ee9 833e
000000a0: 1926 e93c 6209 90bd 3518 2c3e 9160 9b3e
000000b0: 8916 4fbe d9b5 21be de29 e7ba e614 f03d
000000c0: b760 a2be d0ce 7b3e d268 d03c a48a 79be
000000d0: af04 8abd cf02 f6bd dbd0 3f3e d67f 3dbe
000000e0: 208b 753e c83a 173e f4cf 9fbe 1eb4 90be
000000f0: 4b71 293e cf1f 3c3d 7c6f 01bd 3f7a b23d
00000100: ac94 b9be 4d20 b13e a99f 94bd 7fe9 93bb
00000110: fb53 ebbd 613c 993e b1c5 d7bc 716d 453e
00000120: 471d 79be 7771 f83d 1f80 f03c 3fac 5a3e
00000130: 76ff 5d3c 482b ac3d ca5f 50bd bec7 a8bc
00000140: 4fbc 923c b785 8a3d 5dd9 7c3b 0278 6bbe
00000150: 64d7 17be aaa5 513c cbdc 0bbe feab 9a3e
00000160: 1dd1 093e 100e 883b fe96 6ebe 3e93 32be
00000170: 48ee 2cbe 35ac 953c e1c9 0bbe 5ed8 eebd
00000180: f2c5 63be aaa9 edbc 35f0 80be 8d49 0abe
00000190: 2936 483e 73d7 773e 83ca a23b af41 393e
000001a0: 37c7 42be dc37 18bc e0c7 38bd 4750 803b
000001b0: c085 a83d 917c 33be 44de 0fbe 6dac 583d
000001c0: 9d56 a9bc a93f 973e 6f77 223e a2ee 5e3e
000001d0: 3f9d 6f3d 6a99 b5be e353 683d c415 663e
000001e0: 4915 11bc 2f3d bb3d 298f 46bd 1a43 453c
000001f0: 91c0 843e e18b 31bd 6b8c 403e dbe5 1abe
00000200: 4ac0 58be 1299 453e a981 5c3c 671b aebd
00000210: bc09 243e f109 8d3e 44af 803d c64d f9bd
00000220: 61d5 8dbe 40a4 b83d bf48 92be 9d9f 0a3e
00000230: a458 2a3e 115a fcbd 78e4 5b3e 98ce 9ebb
00000240: ada7 073e f9ac 16be e4a8 d93d 187e 3f3e
00000250: eabc 07be c7fb f8bd f18a 2ebd 2e8b 6fbc
00000260: f177 17be d52a 003d 4510 e13d cf63 8dbc
00000270: 10da 293e 18d4 adbd 3692 ad3d b92a 213d
00000280: 2854 5dbe 5dad 3cbe e104 1fbe 2607 91be
00000290: db6d a33e d9b9 b93d 8b53 71bd 4185 9e3e
000002a0: 7778 51be 55ee 5c3e e693 0dbe 12df c33d
000002b0: cf29 00be 7358 38be 2d17 923e 879b 82bd
000002c0: 1ce3 31be 996c 2a3e ce82 b93d 6de7 a9bd
000002d0: 9ce3 153d 5080 d2bc c95a 1a3e b167 8a3e
000002e0: 6fda 5f3d b7e7 48be e051 a8be 3525 71be
000002f0: 840a 5f3e a798 2a3e 8b95 9fbc e30c 07be
00000300: 5c41 ec3d ef87 c0bc 9b63 8f3e 0195 163d
00000310: 58ce b83c f02e c03d 06c6 96bd c82e a6bc
00000320: 4c3c 30be 8826 ebbc ebb9 0f3e f904 0abe
00000330: 4272 c2bd dfc8 25be a679 abbc 118c 0f3e
00000340: 1554 fdba 7304 fcbd 5d6d 403e d26f 353e
00000350: 455e bcbc 3bfc 163e edbb 393e 0def 86be
00000360: 048f f2bd ad16 31be e10a f03c 1098 84bd
00000370: fc4d 993d 1e13 ca3d 458f 373e 566b 663e
00000380: b1b3 5bbe 45f9 153c e4f2 5b3e 8f5b 8f3e
00000390: e2aa f03d b0be 833d ccf1 9dbd 20ae d9bd
000003a0: 596f 503e b06c 453e 371c dd3d e941 7e3e
000003b0: c10e a7bd daaf ee3d e0ec 613c 3878 b9bd
000003c0: 88dd 2b3d c340 463e 4ad5 e4bd 80d1 ddbe
000003d0: 80d5 d8be 61bc e6bc 38fc e93e f30d b4bd
000003e0: 8fe4 b93d edc7 ec3d 7de7 2abd 3ac6 a23d
000003f0: 470c b43e 8414 4fbe 221f 37bd 75a7 293d

encoder.encoder_g.conv2.bias f4 [32]
-0.42812762 -0.36941776 -0.4949263 0.058307633 0.61982644 -0.19752121 -0.5009782 0.15817896
-0.29985365 -0.2860999 -0.06957607 -0.26645365 0.26351503 0.3093745 -0.4726401 -0.13359673
-0.32506236 -0.114920326 0.23334534 -0.12926927 0.3517106 -0.17839822 0.07010781 0.3399462
0.50368 -0.1803666 -0.29293945 0.029264731 0.05359103 -0.28899008 0.100349635 0.15611887
00000000: 8b33 dbbe 5324 bdbe fb66 fdbe fcd3 6e3d
00000010: f2ac 1e3f 0043 4abe 1b40 00bf aaf9 213e
00000020: 6b86 99be b07b 92be e67d 8ebd 9d6c 88be
00000030: 71eb 863e 5666 9e3e e2fd f1be 95cd 08be
00000040: 936e a6be 595b ebbd 15f2 6e3e 2a5f 04be
00000050: 6913 b43e 06ae 36be af94 8f3d 6e0d ae3e
00000060: 2cf1 003f 06b2 38be 29fc 95be 97bc ef3c
00000070: 4582 5b3d 82f6 93be 1c84 cd3d a0dd 1f3e

encoder.encoder_g.conv2.lin.weight f4 [32, 32]
0.12655623 0.25583255 0.3217497 -0.18224439 0.19906609 -0.030928552 0.2543578 0.16301084
-0.30607682 0.2072915 -0.014268393 0.019923687 0.115848415 0.20718026 -0.08410329 0.13459532
-0.15001422 0.006703482 0.11667046 -0.1361621 -0.1484369 -0.05040382 -0.15140438 -0.03144179
0.15117997 0.22692296 -0.061385006 0.21720965 0.12755467 0.09457423 -0.15887623 0.076891094
0.13900802 -0.053159177 0.17617793 0.036993653 0.060065407 -0.13357693 -0.04498637 0.092461444
-0.4489271 0.017156797 -0.21190484 0.21195795 0.086610876 -0.37309054 -0.1140282 0.06544469
-0.20100649 -0.17435984 0.17900525 -0.10658795 -0.287537 0.046592705 0.08049443 0.118390515
0.18509327 0.17740743 -0.3091897 -0.317431 -0.11604033 0.055954967 -0.4290613 -0.35348243
0.22788626 -0.16129418 -0.14828983 -0.21475533 0.120924704 0.09964937 0.24027771 -0.14148863
-0.27983803 -0.1733278 -0.09356367 0.22813194 -0.015793128 0.008704365 -0.16229597 -0.11257029
-0.21687073 -0.29774648 0.07583221 -0.16024648 -0.50078654 -0.0058284695 0.16273205 0.15459186
-0.14643316 -0.20853648 -0.35452333 0.089132346 -0.0030464656 -0.2912864 -0.07391481 -0.15681054
-0.21210174 0.17478442 -0.089717604 -0.07928845 0.35757774 -0.09316347 -0.13366151 0.00034545074
0.2348661 0.22712871 0.41881874 -0.26172572 0.24884056 0.07116511 -0.14121898 0.18826592
-0.14921395 0.27036375 -0.083158076 0.038621757 0.15773307 0.32332802 0.1481736 0.08702562
-0.03089639 -0.11027213 -0.18559693 -0.039716046 0.16492496 0.03527313 -0.192018 0.096448146
-0.09936082 0.18082288 -0.04244493 0.07590385 -0.1374525 0.43444175 0.24473222 0.22135535
0.30324438 0.09862665 0.018181585 -0.026728118 0.4371251 0.3203808 0.11536073 0.17756893
-0.14955133 0.38789138 0.0068401117 0.275453 0.25097895 0.20565519 -0.14553614 0.43130404
-0.023104938 0.027921097 -0.19354253 0.014674117 -0.14399952 0.44460765 0.45042098 0.11679502
0.043180414 -0.14697322 -0.09093113 0.12353559 -0.10332769 -0.23385023 0.0021003322 0.15921673
-0.22102855 0.114296794 0.28604352 -0.011009373 -0.2534664 -0.06433687 0.25513697 0.12592891
0.003816456 -0.12453718 0.21628319 -0.12771699 0.1692392 0.2992507 -0.057719074 -0.17477973
0.039069682 0.28708324 -0.0780908 -0.014631254 0.20984654 0.17406537 -0.06728941 -0.19699945
0.13840239 0.1660058 -0.2693419 0.035939854 0.15414554 -0.050675534 0.12391992 -0.22912809
-0.5114354 0.15963887 -0.4073416 -0.1585873 -0.4415018 0.11994005 -0.18990865 -0.012918587
0.05137844 0.04189052 -0.15087639 -0.07910261 -0.09890959 -0.08047586 0.014321736 -0.11292731
0.16091052 -0.24821271 -0.36083895 -0.21959795 0.08738235 -0.2604874 -0.30631474 -0.21016593
-0.1326946 0.29164538 0.25163436 -0.0683386 0.34458676 0.14366035 -0.07934618 -0.14419378
0.12412876 -0.020061258 0.042822782 -0.0366899 0.41457936 -0.082934 0.06849675 0.058505602
-0.08234812 0.26749867 -0.01424228 -0.19414368 0.21819793 0.03058226 0.3122009 0.3636379
-0.13934821 -0.23053691 -0.16587488 -0.20165518 0.3272233 -0.23666614 0.1031765 -0.17363346
00000000: f597 013e 7cfc 823e 60bc a43e 469e 3abe
00000010: fbd7 4b3e e05d fdbc 303b 823e 50ec 263e
00000020: 1ab6 9cbe 3944 543e fac5 69bc 0037 a33c
00000030: ef41 ed3d 1027 543e 593e acbd 5bd3 093e
00000040: 549d 19be e2a8 db3b ecf0 ee3d 146e 0bbe
00000050: d8ff 17be 3c74 4ebd c009 1bbe 1bc9 00bd
00000060: ecce 1a3e 7e5e 683e d86e 7bbd 356c 5e3e
00000070: b19d 023e 22b0 c13d 73b0 22be 1479 9d3d
00000080: 1e58 0e3e 70bd 59bd fd67 343e a886 173d
00000090: 2507 763d 64c8 08be a143 38bd 6d5c bd3d
000000a0: c6d9 e5be 698c 8c3c 95fd 58be 810b 593e
000000b0: 0b61 b13d b905 bfbe 9e87 e9bd de07 863d
000000c0: a5d4 4dbe 638b 32be 274d 373e c84a dabd
000000d0: 0d38 93be fed7 3e3d 44da a43d ba76 f23d
000000e0: 1789 3d3e 4baa 353e 1d4e 9ebe 5186 a2be
000000f0: 8da6 edbd 0931 653d ecad dbbe a6fb b4be
00000100: 045b 693e 4d2a 25be 4ad9 17be d2e8 5bbe
00000110: 5fa7 f73d f814 cc3d 5c0b 763e 65e2 10be
00000120: ee46 8fbe d87c 31be 4f9e bfbd 6b9b 693e
00000130: 9760 81bc c19c 0e3c ea30 26be 418b e6bd
00000140: 5c13 5ebe 3a72 98be eb4d 9b3d a717 24be
00000150: 8c33 00bf bffc bebb 3ba3 263e 544d 1e3e
00000160: 93f2 15be 968a 55be 1584 b5be 058b b63d
00000170: 36a7 47bb 7e23 95be a660 97bd f192 20be
00000180: 3331 59be b0fa 323e ddbd b7bd fc61 a2bd
00000190: 6e14 b73e 7dcc bebd 90de 08be 9d1d b539
000001a0: bd80 703e 6e94 683e 696f d63e ea00 86be
000001b0: 0fd0 7e3e 03bf 913d b59b 10be c8c8 403e
000001c0: 8bcb 18be 1e6d 8a3e c84e aabd d931 1e3d
000001d0: c784 213e 408b a53e d2ba 173e 7d3a b23d
000001e0: 6d1a fdbc 5bd6 e1bd 1f0d 3ebe 4bad 22bd
000001f0: 17e2 283e 8f7a 103d 5ea0 44be 9b86 c53d
00000200: b07d cbbd a229 393e bcda 2dbd 7a73 9b3d
00000210: 59c0 0cbe 266f de3e 159b 7a3e faaa 623e
00000220: d942 9b3e c5fc c93d 8cf1 943c edf4 dabc
00000230: dcce df3e f408 a43e 3f42 ec3d a1d4 353e
00000240: fc23 19be b399 c63e 0423 e03b 2d08 8d3e
00000250: 5080 803e 4697 523e 6d07 15be e2d3 dc3e
00000260: 9146 bdbc c9ba e43c 0330 46be b56b 703c
00000270: 9c74 13be 9da3 e33e 949d e63e 3a32 ef3d
00000280: f2dd 303d 2680 16be 1a3a babd 3a00 fd3d
00000290: 789d d3bd 6f76 6fbe baa5 093b b609 233e
000002a0: 4f55 62be 7014 ea3d 4c74 923e a860 34bc
000002b0: 59c6 81be 0dc3 83bd 50a1 823e 82f3 003e
000002c0: 821d 7a3b 590d ffbd 5779 5d3e 3ec8 02be
000002d0: 0a4d 2d3e 6337 993e d66a 6cbd 75f9 32be
000002e0: 8807 203d 93fc 923e 12ee 9fbd edb7 6fbc
000002f0: 03e2 563e 313e 323e 08cf 89bd 39ba 49be
00000300: 5bb9 0d3e 6dfd 293e 2ee7 89be ab35 133d
00000310: 54d8 1d3e 2691 4fbd bac9 fd3d 8ea0 6abe
00000320: 6eed 02bf 5f78 233e 148f d0be b664 22be
00000330: 860c e2be 21a3 f53d 6a77 42be 7ba8 53bc
00000340: 3372 523d 6595 2b3d 577f 1abe 8d00 a2bd
00000350: 1c91 cabd 87d0 a4bd b7a5 6a3c 6f46 e7bd
00000360: bac5 243e 792b 7ebe e2bf b8be 49de 60be
00000370: 84f5 b23d 9b5e 85be 49d5 9cbe bd35 57be
00000380: 18e1 07be 8b52 953e 38d6 803e 1cf5 8bbd
00000390: ad6d b03e b31b 133e 4080 a2bd 89a7 13be
000003a0: 3837 fe3d 8257 a4bc f166 2f3d 2648 16bd
000003b0: bf43 d43e 4dd9 a9bd 0648 8c3d 92a3 6f3d
000003c0: 22a6 a8bd 96f5 883e 7458 69bc 9acd 46be
000003d0: 476f 5f3e a687 fa3c ccd8 9f3e bf2e ba3e
000003e0: 4cb1 0ebe de11 6cbe 1bdb 29be b27e 4ebe
000003f0: d089 a73e 9c58 72be 334e d33d f8cc 31be

encoder.encoder_g.linear.weight f4 [32, 1440]
0.11004447 0.18757775 0.16656524 0.16284646 -0.2970094 0.11892691 0.30020058 0.122123875
0.05510048 0.042662837 0.030976452 0.050594386 -0.14877108 -0.059230097 0.12390101 0.086067505
0.08119637 0.03749394 -0.032401655 0.061933022 -0.11777583 0.09295308 0.014030922 -0.008798843
-0.082367785 0.03532796 0.32517013 0.0925895 0.01316033 0.011721678 -0.028726043 -0.08063608
0.10013559 0.22937019 0.12893337 0.087170616 -0.14812255 0.06354836 0.17737445 0.16810644
0.15577364 -0.020322222 -0.0026455915 0.019915745 -0.11199221 -0.015664116 0.1146903 0.06540964
0.09557925 -0.030533042 -0.124985844 0.07541649 -0.04207496 0.038711842 0.028199453 -0.017584994
0.07203675 -0.03675627 0.03732966 0.13511145 -0.033477567 -0.07540568 0.093029134 0.09526028
0.14730449 0.22128187 0.13540177 0.08251541 -0.17812638 0.10349961 0.26419187 0.17606267
0.14769235 0.006509298 0.037280146 0.020813214 -0.1483005 -0.020182569 0.088216856 0.092025705
0.11236128 -0.03780964 -0.05878309 0.12839462 -0.04600556 0.052648738 0.007772169 0.009924597
0.0026802253 -0.038069714 0.1068194 0.13561234 -0.07039184 -0.0069786953 0.08353978 0.04058721
0.100656144 0.2235041 0.15884085 0.14616844 -0.17318757 0.06353612 0.15368858 0.17586966
0.16626747 -0.047062177 0.0016957278 -0.0035623931 -0.17878523 0.00877007 0.097452365 0.0691966
0.12432867 0.00016068248 -0.028613122 0.0759467 -0.0427069 0.003146934 0.045839075 -0.015378111
-0.0043042037 -0.013770968 0.14559366 0.12393709 -0.09660634 -0.038467962 0.049097296 0.049250294
0.112381816 0.21640149 0.16125874 0.13097137 -0.30092338 0.10507013 0.3167123 0.13165566
0.10763584 -0.001000732 -0.0007602696 0.04791134 -0.16781789 -0.064269945 0.09036583 0.08184838
0.016619341 0.02666187 -0.048567344 0.09941799 -0.13315053 0.085418664 0.017206933 -0.041969616
-0.029077593 0.064706236 0.29118818 0.09080518 -0.015396783 -0.008645322 0.06802638 -0.0081991255
0.1085588 0.258455 0.135861 0.15367745 -0.21597001 0.05419777 0.18289918 0.1861931
0.08259182 -0.010834786 -0.0061466782 0.054459885 -0.16962218 -0.077217475 0.10844546 0.13578507
0.09386008 -0.032694705 -0.09954427 0.08305081 -0.034049973 0.044430174 0.063538834 -0.020705491
0.06567121 0.03878184 0.2000026 0.109768875 -0.043197673 -0.056155834 0.10572374 0.04699869
0.14182106 0.20199993 0.1589743 0.14062016 -0.27948275 0.123045176 0.30539525 0.14684035
0.10250455 0.019577967 0.008341142 0.06317789 -0.14899307 -0.024000984 0.1372463 0.089125566
0.10426195 0.0025803188 0.0032914043 0.094262145 -0.098014385 0.021626957 0.04652874 0.003855747
-0.06529387 0.04705319 0.3286691 0.11366364 0.0038342816 0.025048072 -0.021439997 -0.00016995451
0.10569521 0.21790892 0.1251927 0.0989184 -0.1497039 0.08116972 0.15876727 0.16458884
0.13851406 -0.032783322 -0.022425065 0.0110116415 -0.09210943 -0.016870096 0.09481841 0.10672252
0.12733537 -0.01664878 -0.07308014 0.11230324 -0.0111331 0.036196884 -0.028973626 -0.019200664
-0.0031170454 -0.06300501 0.08131392 0.09380125 -0.06169257 -0.027844502 0.13776354 0.054641712
00000000: ff5e e13d 6214 403e 1490 2a3e 39c1 263e
00000010: 9e11 98be f48f f33d e4b3 993e 151c fa3d
00000020: 0ab1 613d 3abf 2e3d 54c2 fd3c 0f3c 4f3d
00000030: 7257 18be 429b 72bd d0bf fd3d 2944 b03d
00000040: 484a a63d 3f93 193d 99b7 04bd 7bad 7d3d
00000050: 7434 f1bd 2f5e be3d f4e1 653c 0629 10bc
00000060: 71b0 a8bd 0db4 103d b37c a63e 909f bd3d
00000070: 6d9e 573c 480c 403c e152 ebbc 8724 a5bd
00000080: e313 cd3d 05e0 6a3e 1c07 043e 8286 b23d
00000090: 70ad 17be a425 823d a6a1 353e 1824 2c3e
000000a0: 2083 1f3e ca7a a6bc a961 2dbb 5826 a33c
000000b0: 2c5c e5bd 0852 80bc bfe2 ea3d 7df5 853d
000000c0: 0ebf c33d 6e20 fabc 94f8 ffbd f673 9a3d
000000d0: cb56 2cbd 4f90 1e3d 8a02 e73c 680e 90bc
000000e0: 0188 933d be8d 16bd fce6 183d a85a 0a3e
000000f0: c61f 09bd 4b6e 9abd 0f86 be3d d217 c33d
00000100: fdd6 163e b797 623e c3a6 0a3e d7fd a83d
00000110: c366 36be 9bf7 d33d 2844 873e c649 343e
00000120: aa3c 173e f34b d53b 11b3 183d 7980 aa3c
00000130: 16dc 17be ea55 a5bc 0aab b43d f977 bc3d
00000140: ac1d e63d 48de 1abd 8ac6 70bd e179 033e
00000150: 5370 3cbd 34a6 573d aead fe3b c79a 223c
00000160: b8a6 2f3b fdee 1bbd 21c4 da3d f6dd 0a3e
00000170: 9929 90bd 8aad e4bb e716 ab3d c63e 263d
00000180: cf24 ce3d 42de 643e 2da7 223e 2ead 153e
00000190: 1558 31be 3a1f 823d 8a60 1d3e 2d17 343e
000001a0: 0542 2a3e 45c4 40bd 2f43 de3a 0a77 69bb
000001b0: 7a13 37be 57b0 0f3c 1b95 c73d f2b6 8d3d
000001c0: 08a0 fe3d e07c 2839 1166 eabc f289 9b3d
000001d0: 6eed 2ebd cb3c 4e3b c1c1 3b3d 79f4 7bbc
000001e0: 470a 8dbb a09f 61bc 8116 153e bbd2 fd3d
000001f0: 8bd9 c5bd 9590 1dbd 3f1a 493d adba 493d
00000200: 7028 e63d 5a98 5d3e 0321 253e 5c1d 063e
00000210: a112 9abe 022f d73d 1d28 a23e bed0 063e
00000220: 2e70 dc3d fe2a 83ba d44c 47ba ae3e 443d
00000230: 74d8 2bbe f69f 83bd b811 b93d 20a0 a73d
00000240: 4925 883c fe69 da3c 8dee 46bd a99b cb3d
00000250: 9d58 08be fbef ae3d 8ef5 8c3c 55e8 2bbd
00000260: 2234 eebc b484 843d 9e16 953e 11f8 b93d
00000270: ca42 7cbc 1ca5 0dbc 6a51 8b3d a055 06bc
00000280: 1354 de3d 3754 843e 251f 0b3e 9f5d 1d3e
00000290: 3e27 5dbe 7bfe 5d3d ec49 3b3e 67a9 3e3e
000002a0: e625 a93d 6384 31bc 136a c9bb 5411 5f3d
000002b0: 70b1 2dbe 3224 9ebd a718 de3d 3e0b 0b3e
000002c0: b739 c03d e2ea 05bd dedd cbbd 8b16 aa3d
000002d0: fc77 0bbd 6afc 353d a620 823d 909e a9bc
000002e0: a17e 863d b5d9 1e3d 7bcd 4c3e 81ce e03d
000002f0: 0bf0 30bd a903 66bd b085 d83d b381 403d
00000300: 8a39 113e 12d9 4e3e 29ca 223e bbfe 0f3e
00000310: 5d18 8fbe 1cff fb3d c45c 9c3e 515d 163e
00000320: e8ed d13d f961 a03c 49a9 083c 6963 813d
00000330: a491 18be b69d c4bc 4b8a 0c3e 7787 b63d
00000340: 4a87 d53d 911a 293b 9ab4 573b 830c c13d
00000350: c4bb c8bd 042b b13c ec94 3e3d b3b0 7c3b
00000360: cbb8 85bd d9ba 403d 5147 a83e 7cc8 e83d
00000370: 9248 7b3b 9d31 cd3c efa2 afbc d135 32b9
00000380: bb76 d83d 8423 5f3e 8432 003e bb95 ca3d
00000390: fb4b 19be 4f3c a63d e393 223e fa89 283e
000003a0: a1d6 0d3e ce47 06bd c5b4 b7bc 2c6a 343c
000003b0: dea3 bcbd 2833 8abc 2830 c23d 5691 da3d
000003c0: 3464 023e 0663 88bc 0aab 95bd 3eff e53d
000003d0: 9b67 36bc 2f43 143d 195a edbc b64a 9dbc
000003e0: 5847 4cbb c508 81bd ea87 a63d df1a c03d
000003f0: 59b1 7cbd 271a e4bc e311 0d3e fdcf 5f3d

encoder.encoder_g.linear.bias f4 [32]
-0.16260953 -0.27597308 -0.0065620095 -0.008593323 -0.13538554 -0.031496294 -0.35269597 0.20129962
-0.28909746 0.19787233 -0.02466038 0.11538035 -0.19110239 -0.002615802 0.19966862 -0.1509188
-0.19338481 -0.09169126 -0.041726343 0.15968844 0.051094666 -0.15724273 -0.097224385 0.21473265
-0.13384488 -0.20174181 -0.010148237 0.07694489 -0.22897491 -0.2612743 0.23068129 -0.15288341
00000000: 1d83 26be 584c 8dbe 2006 d7bb 02cb 0cbc
00000010: 82a2 0abe 4202 01bd 9194 b4be 7d21 4e3e
00000020: 9504 94be 0b9f 4a3e 9104 cabc 884c ec3d
00000030: 58b0 43be e06d 2bbb ee75 4c3e 758a 1abe
00000040: ab06 46be a1c8 bbbd 3ee9 2abd 5e85 233e
00000050: a448 513d 3d04 21be 941d c7bd e0e2 5b3e
00000060: a20e 09be 6895 4ebe cb44 26bc 4895 9d3d
00000070: 6678 6abe bfc5 85be b737 6c3e 788d 1cbe

encoder.encoder_c.conv1.bias f4 [32]
0.17261119 0.003786738 0.087498225 0.047091253 0.05032351 0.15452428 0.026742565 0.078549035
0.07168707 0.09918667 0.10050313 0.11600589 0.10264583 0.14329354 0.113936976 0.057661697
0.07370384 0.041408118 0.14426056 0.15802231 0.1473743 0.113395505 0.018656822 0.066875406
0.08056736 0.16098616 0.10579773 0.11902832 0.09526836 0.09234293 0.067430146 0.09615801
00000000: fdc0 303e ec2a 783b 4532 b33d c2e2 403d
00000010: 0620 4e3d 9d3b 1e3e 3913 db3c 51de a03d
00000020: acd0 923d 6122 cb3d 96d4 cd3d 7f94 ed3d
00000030: fa37 d23d 8bbb 123e ca57 e93d ac2e 6c3d
00000040: 0af2 963d 8f9b 293d 0ab9 133e 9ad0 213e
00000050: 4ae9 163e e73b e83d 31d6 983c f9f5 883d
00000060: 8000 a53d 8ed9 243e 7bac d83d 1fc5 f33d
00000070: 0f1c c33d 4a1e bd3d d118 8a3d 7eee c43d

encoder.encoder_c.conv1.lin.weight f4 [32, 160]
0.13671155 0.09948631 0.20365515 0.107883655 -0.26348183 -0.3016045 0.2443592 -0.2814196
-0.26323748 0.20219338 -0.20268908 0.17622556 0.6027519 -0.2923517 -0.24932198 -0.16232687
-0.1520685 0.03797309 0.13038976 0.068686604 -0.63994986 -0.020782085 -0.3964594 -0.46732968
-0.37965804 0.3949541 -0.011800086 0.2118637 0.14737655 -0.049427833 -0.18808298 -0.35427335
0.054291885 0.010146767 -0.24929915 -0.18324675 0.18863979 -0.025384458 0.07945583 0.015271566
-0.01698409 -0.21199246 -0.12015696 -0.4979296 0.51064515 0.04951304 0.019056302 0.097600594
-0.48492625 0.17198822 -0.15727334 0.060706183 0.31394744 0.21860257 0.02751688 -0.3156562
0.5458813 0.0011545024 0.04358559 0.001799455 0.08416603 0.28517184 -0.0049508857 -0.38250026
0.5314307 0.03946971 0.17582737 0.48121744 0.34320098 -0.38439193 -0.09133754 -0.28663722
-0.15637235 -0.08875617 0.29192752 0.096899204 0.37302172 0.23627806 -0.49935713 0.13112739
0.40777758 0.31453022 0.09281521 -0.5908098 -0.5153353 -0.13819721 0.5416277 0.112005666
-0.17602508 -0.0071972315 0.2980556 0.13175416 -0.7085127 0.13255182 0.1124995 0.27883127
0.04325827 0.3931752 0.14011736 -0.23976909 0.61954296 -0.0041009365 0.17875278 0.072928146
0.10602815 0.07175199 -0.019953836 0.014458478 0.22225066 0.08674305 0.1442323 0.8246452
0.31936955 -0.034697287 0.3288743 0.24193181 0.44704148 0.22659034 0.010530936 -0.2008386
0.17327541 -0.7705721 0.12412447 0.070283376 0.069000706 -0.11463661 -0.101642124 -0.14048727
0.17825796 -0.21441321 -0.16473274 0.09924323 0.24011393 -0.05009175 -0.040583916 0.08708674
-0.19117258 0.046971235 0.1271686 -0.10177344 -0.19368573 -0.18660109 0.13289432 0.011437423
0.214465 -0.26276785 -0.07657423 -0.27365196 -0.17469628 -0.51808673 0.022823762 -0.07631539
-0.6231751 -0.2490087 -0.6384365 -0.40793937 -0.009105863 -0.17947578 -0.51281816 0.32089132
0.24031176 -0.04345153 -0.0029972296 -0.19434743 0.10847527 0.026450949 -0.09580191 -0.25470296
-0.06128366 -0.12726466 -0.2971002 0.044427365 0.0202034 -0.33193251 0.23237985 -0.20463994
0.022242017 -0.14110628 -0.017476372 -0.14217032 -0.19121754 0.0914437 0.1380348 0.05370472
-0.0007071964 -0.44206747 0.439907 0.14435782 -0.11721422 -0.21801217 -0.50916016 -0.043041535
0.09191647 -0.1299149 0.09784808 -0.14059062 -0.13272034 -0.20126554 0.16341375 0.19540621
-0.34099248 -0.29014283 -0.28752008 0.047251478 0.3354137 0.14009187 -0.08067913 -0.077632226
0.24200143 -0.04659038 0.08966551 0.37118816 0.16009422 0.1596949 0.38781986 -0.23775356
0.2380256 -0.3297052 0.10147131 -0.18668564 0.032959193 0.13259865 -0.08825671 -0.08020079
0.18608753 -0.053921048 0.08388907 -0.079177156 -0.37930584 -0.16821119 -0.3382505 -0.027100923
-0.09191555 0.1549577 -0.077588685 -0.04371406 0.32760876 -0.10069664 -0.16113956 -0.12373702
0.07429295 0.16708402 0.17150383 -0.010077719 0.1140131 -0.02969341 -0.07775225 0.08684554
0.051851146 0.0069022276 0.18393235 0.15268254 -0.30850452 0.22059728 0.34287104 0.24427575
00000000: 1dfe 0b3e 7abf cb3d fa8a 503e 1bf2 dc3d
00000010: 17e7 86be e86b 9abe 4c39 7a3e 3b16 90be
00000020: 10c7 86be c80b 4f3e ba8d 4fbe 7974 343e
00000030: f34d 1a3f 1faf 95be 434e 7fbe 0439 26be
00000040: d8b7 1bbe ac89 1b3d e584 053e 90ab 8c3d
00000050: c1d3 23bf 313f aabc bafc cabe d645 efbe
00000060: 8a62 c2be 6c37 ca3e 2655 41bc ccf2 583e
00000070: e1e9 163e d774 4abd d398 40be 5163 b5be
00000080: 2b61 5e3d a03e 263c 4748 7fbe 09a5 3bbe
00000090: ca2a 413e 11f3 cfbc bdb9 a23d 9735 7a3c
000000a0: 3822 8bbc 8d14 59be da14 f6bd a1f0 febe
000000b0: a4b9 023f 2fce 4a3d f61b 9c3c d2e2 c73d
000000c0: 4148 f8be ae1d 303e 430c 21be 0ca7 783d
000000d0: b8bd a03e 5ad9 5f3e 146b e13c b09d a1be
000000e0: e0be 0b3f ac52 973a ce86 323d b1db eb3a
000000f0: 3d5f ac3d 0b02 923e 0a3b a2bb 13d7 c3be
00000100: d80b 083f feaa 213d 170c 343e 2262 f63e
00000110: 0ab8 af3e 05cf c4be 2d0f bbbd 1dc2 92be
00000120: 1320 20be cbc5 b5bd 8677 953e 1773 c63d
00000130: b4fc be3e e0f2 713e bdab ffbe 4246 063e
00000140: 39c8 d03e 1b0a a13e e715 be3d 503f 17bf
00000150: 04ed 03bf 9283 0dbe 1da8 0a3f 3a63 e53d
00000160: eb3f 34be c1d6 ebbb be9a 983e 90ea 063e
00000170: 1761 35bf aabb 073e 2366 e63d f9c2 8e3e
00000180: 952f 313d 434e c93e ed7a 0f3e 0786 75be
00000190: 5e9a 1e3f 2661 86bb f80a 373e 5a5b 953d
000001a0: 4925 d93d b5f2 923d 3a76 a3bc 41e3 6c3c
000001b0: ad95 633e 57a6 b13d a2b1 133e f31b 533f
000001c0: 6884 a33e be1e 0ebd 3662 a83e f9bc 773e
000001d0: 9fe2 e43e 4c07 683e f289 2c3c a2a8 4dbe
000001e0: 1c6f 313e 3744 45bf f834 fe3d bbf0 8f3d
000001f0: 3e50 8d3d 99c6 eabd bf29 d0bd e5db 0fbe
00000200: 4189 363e 238f 5bbe b3af 28be 0940 cb3d
00000210: 6de0 753e 022d 4dbd 523b 26bd 885a b23d
00000220: bfc2 43be e964 403d 7c38 023e 986e d0bd
00000230: 8d55 46be 5b14 3fbe 7315 083e 0764 3b3c
00000240: b79c 5b3e 8289 86be f3d2 9cbd 1c1c 8cbe
00000250: 95e3 32be 55a1 04bf e6f8 ba3c 3e4b 9cbd
00000260: 6788 1fbf 23fc 7ebe 9370 23bf 6edd d0be
00000270: c230 15bc 80c8 37be 0d48 03bf de4b a43e
00000280: 4914 763e 3bfa 31bd 2b6d 44bb 0303 47be
00000290: 4828 de3d a9af d83c cb33 c4bd 6d68 82be
000002a0: 9304 7bbd ab51 02be 841d 98be 78f9 353d
000002b0: 9a81 a53c 0ff3 a9be fcf4 6d3e 228d 51be
000002c0: e434 b63c 2a7e 10be 9c2a 8fbc 1995 11be
000002d0: 88ce 43be d646 bb3d ff58 0d3e 7bf9 5b3d
000002e0: 2663 39ba ab56 e2be 7e3b e13e 89d2 133e
000002f0: 020e f0bd 953e 5fbe 5258 02bf 524c 30bd
00000300: b43e bc3d 6908 05be 9364 c83d fdf6 0fbe
00000310: d7e7 07be 8e18 4ebe ef55 273e 9118 483e
00000320: 9196 aebe 9a8d 94be d535 93be c48a 413d
00000330: 58bb ab3e 3e74 0f3e 1a3b a5bd a5fd 9ebd
00000340: 39cf 773e 8ed5 3ebd 8da2 b73d 600c be3e
00000350: bdef 233e 0f87 233e 5390 c63e ab75 73be
00000360: fcbc 733e 1fcf a8be 31d0 cf3d 852a 3fbe
00000370: 3800 073d f1c7 073e efbf b4bd 5040 a4bd
00000380: bb8d 3e3e 51dc 5cbd 08ce ab3d a227 a2bd
00000390: 6034 c2be 8e3f 2cbe 2b2f adbe c102 debc
000003a0: 383e bcbd 3bad 1e3e d1e6 9ebd 840d 33bd
000003b0: 56bc a73e 0a3a cebd c501 25be d669 fdbd
000003c0: e726 983d 1318 2b3e b39e 2f3e 041d 25bc
000003d0: b37f e93d 983f f3bc 923c 9fbd 13dc b13d
000003e0: de61 543d 152c e23b c358 3c3e d058 1c3e
000003f0: 4ef4 9dbe 41e4 613e cb8c af3e 6c23 7a3e

encoder.encoder_c.conv2.bias f4 [32]
0.049364153 0.058959655 0.1056536 0.1267399 -0.059324868 0.11052383 -0.0434458 0.0029837766
0.005317389 -0.31587392 0.056498554 -0.016282588 -0.16752282 -0.2593494 0.12579343 0.06399525
-0.080402195 0.10627066 -0.011712414 0.20350695 -0.02881688 -0.047856655 -0.07929949 0.21228729
0.017329222 0.048163053 -0.023705536 0.010647311 0.046867304 0.09713515 0.06088825 -0.20043252
00000000: 1132 4a3d ae7f 713d ea60 d83d 1bc8 013e
00000010: a2fe 72bd 515a e23d 39f4 31bd 778b 433b
00000020: 7e3d ae3b 3aba a1be 076b 673d 1063 85bc
00000030: 1a8b 2bbe 72c9 84be fecf 003e f10f 833d
00000040: e8a9 a4bd 6fa4 d93d 6de5 3fbc 2064 503e
00000050: 6111 ecbc 5705 44bd c567 a2bd d761 593e
00000060: 03f6 8d3c 9f46 453d 1d32 c2bc 0f72 2e3c
00000070: eef7 3f3d cbee c63d f565 793d 2f3e 4dbe

encoder.encoder_c.conv2.lin.weight f4 [32, 32]
0.19173634 -0.1898842 -0.31909704 -0.27640024 0.16498092 -0.5621376 -0.13832432 0.31779855
-0.26262495 0.26901025 0.40344298 0.07663892 0.13424939 0.06882621 -0.26622266 -0.5418757
-0.30268374 0.006425247 -0.35328874 -0.17891596 0.26047033 0.39804628 -0.48259312 -0.11193839
0.316731 -0.33016238 0.2909864 0.3288569 0.07541746 0.57545143 0.1346951 0.18535298
0.31310654 0.021781499 -0.053896435 0.12077207 -0.14832741 -0.4478701 -0.18085584 -0.278334
-0.06474568 -0.4732405 -0.27878842 0.06663797 0.24608451 -0.18231475 -0.0011353649 0.4139222
-0.07008243 -0.12693396 -0.19410639 0.40650213 0.28160575 0.18784562 -0.2083056 -0.438247
0.5429067 0.4883304 -0.46954772 0.17551962 0.48225832 -0.116175994 0.09357654 0.18512848
-0.10397562 -0.22185487 0.34787506 0.16800025 -0.16992185 -0.14463179 -0.3129858 0.27595437
-0.45323738 -0.024196723 0.18033645 -0.035118744 0.50661737 0.081675835 -0.34227508 0.14204663
-0.098947875 -0.07596757 -0.3820589 0.45351076 -0.58178806 -0.42251384 0.14406101 -0.053109284
0.24959387 0.5158358 0.32732654 0.12526911 -0.16615157 -0.5637285 0.11608571 -0.2457474
0.49967423 0.09213484 0.3596093 0.4747232 -0.26867217 -0.31210208 0.05180814 0.33037785
-0.1243423 0.068849765 -0.4718077 -0.0970652 0.14590615 -0.37284896 -0.031006284 0.09327992
0.31809238 -0.00919554 -0.17946872 0.37919384 0.31354252 -0.035733975 0.03971275 -0.72323346
-0.32054368 -0.4610495 0.5114334 0.2980928 -0.052836575 -0.3074793 -0.20914549 -0.02628614
-0.12181364 0.24107781 0.25822595 0.48587194 0.02146132 -0.24985121 0.23379844 -0.22399859
0.23993991 0.24359052 0.34361815 0.2343796 0.37140298 -0.44293183 -0.21312828 -0.26984805
0.3527559 -0.0916069 0.051385976 0.06806846 -0.3109303 0.3754065 -0.013970724 0.12122117
-0.38959217 -0.07191283 0.17931831 -0.3046714 0.27885047 -0.3813316 0.29286993 -0.21870923
-0.16049206 -0.0009967721 0.6159212 -0.1199868 0.2291673 -0.09427361 -0.054811068 0.58445287
-0.34538645 -0.31987092 0.20695385 -0.0855944 0.56440496 0.060981434 0.010280523 -0.4742526
-0.23178323 -0.39060116 -0.7414778 0.14518972 -0.05667097 0.3294265 -0.2107904 0.2925018
-0.4982865 0.21019422 0.23205975 0.20749897 -0.35971138 -0.19269657 0.21990591 -0.42110273
-0.15946712 -0.25704482 0.16653597 -0.040671665 0.04097137 0.53217834 -0.07671598 0.5334653
-0.46856102 -0.1526213 -0.09241085 -0.38980788 -0.62969065 -0.17898776 0.12132438 -0.3613233
0.31592396 0.39548445 0.29343522 0.02840177 -0.2679511 0.5276635 0.0905281 -0.23278789
-0.6230385 0.06364692 -0.00884131 -0.18246849 0.63005143 0.090770215 -0.40079784 -0.33870223
0.14810534 0.11538268 0.25905585 0.3040246 0.0133966375 -0.30286026 -0.764248 0.042267904
0.12414116 0.3693388 0.2374978 -0.109356724 -0.46433148 0.21316023 -0.3107901 -0.11473037
-0.084838554 0.1633834 -0.2559769 -0.04653076 0.14732243 -0.36824906 -0.26749957 0.5525208
0.5462588 0.47902355 -0.3918831 -0.34383947 0.09105664 0.34260032 -0.16894092 -0.1668533
00000000: 8856 443e 0171 42be b060 a3be 5584 8dbe
00000010: c2f0 283e 40e8 0fbf e4a4 0dbe 7eb6 a23e
00000020: c776 86be b6bb 893e 1490 ce3e def4 9c3d
00000030: ac78 093e c2f4 8c3d 564e 88be 5eb8 0abf
00000040: 5df9 9abe e18a d23b 43e2 b4be bf35 37be
00000050: 5e5c 853e b9cc cb3e 7216 f7be f43f e5bd
00000060: 912a a23e 0b0b a9be 2bfc 943e ee5f a83e
00000070: 7874 9a3d c950 133f 83ed 093e 2ccd 3d3e
00000080: 804f a03e 1d6f b23c 82c2 5cbd 5957 f73d
00000090: 24e3 17be 3b4f e5be 4632 39be cb81 8ebe
000000a0: 6299 84bd 944c f2be 5bbd 8ebe 7d79 883d
000000b0: 94fd 7b3e b8b0 3abe 86d0 94ba 9ced d33e
000000c0: 6187 8fbd fafa 01be d3c3 46be 0c21 d03e
000000d0: a12e 903e 9a5a 403e 104e 55be e961 e0be
000000e0: effb 0a3f 7106 fa3e 8f68 f0be 6abb 333e
000000f0: 90ea f63e aeed edbd 0fa5 bf3d 5292 3d3e
00000100: 2bf1 d4bd ec2d 63be ae1c b23e 4208 2c3e
00000110: feff 2dbe 5b1a 14be ad3f a0be e449 8d3e
00000120: bb0e e8be 3538 c6bc 1eaa 383e acd8 0fbd
00000130: adb1 013f a945 a73d ae3e afbe ac74 113e
00000140: 2fa5 cabd e394 9bbd 399d c3be 9032 e83e
00000150: 10f0 14bf bc53 d8be bb84 133e 1f89 59bd
00000160: 8995 7f3e d10d 043f 5897 a73e 8c46 003e
00000170: a323 2abe 8350 10bf 58be ed3d 35a5 7bbe
00000180: 4dd5 ff3e 31b1 bc3d b61e b83e eb0e f33e
00000190: 668f 89be d8cb 9fbe c634 543d 4927 a93e
000001a0: 2da7 febd 1b01 8d3d c790 f1be 1fca c6bd
000001b0: 6c68 153e 0fe6 bebe e400 febc 8b09 bf3d
000001c0: 01dd a23e e4a8 16bc a6c6 37be b225 c23e
000001d0: a588 a03e ca5d 12bd d6a9 223d d425 39bf
000001e0: 4d1e a4be ae0e ecbe 4ded 023f 9f9f 983e
000001f0: 2a6b 58bd ed6d 9dbe 3c2a 56be 0856 d7bc
00000200: 6e79 f9bd 1add 763e 3136 843e 35c4 f83e
00000210: a6cf af3c ffd8 7fbe dc68 6f3e e35f 65be
00000220: cfb2 753e cb6f 793e b8ee af3e 3501 703e
00000230: 8828 be3e f6c7 e2be 4d3e 5abe 8629 8abe
00000240: 6c9c b43e 669c bbbd 1a7a 523d 7a67 8b3d
00000250: 4232 9fbe 4835 c03e 77e5 64bc ce42 f83d
00000260: a078 c7be 0947 93bd 389f 373e e4fd 9bbe
00000270: 7dc5 8e3e e53d c3be 0cf3 953e 50f5 5fbe
00000280: 0858 24be 1fa6 82ba 03ad 1d3f a4bb f5bd
00000290: d5aa 6a3e 8612 c1bd 9281 60bd b49e 153f
000002a0: 7ed6 b0be 1fc6 a3be b6eb 533e 1e4c afbd
000002b0: d87c 103f abc7 793d a46f 283c 3dd1 f2be
000002c0: 9558 6dbe e0fc c7be 7dd1 3dbf 9dac 143e
000002d0: d21f 68bd 97aa a83e 70d9 57be ccc2 953e
000002e0: 681f ffbe 273d 573e 12a1 6d3e 9c7a 543e
000002f0: 172c b8be 4052 45be 042f 613e c79a d7be
00000300: 594b 23be 619b 83be 6888 2a3e 5597 26bd
00000310: 98d1 273d d73c 083f 451d 9dbd 2f91 083f
00000320: 3be7 efbe c248 1cbe e641 bdbd e694 c7be
00000330: 6833 21bf 9148 37be eb78 f83d 5eff b8be
00000340: c9c0 a13e f07c ca3e 243d 963e d4aa e83c
00000350: e330 89be f514 073f cc66 b93d f35f 6ebe
00000360: 737f 1fbf 5159 823d 24db 10bc 05d9 3abe
00000370: 0d4b 213f bce5 b93d 6035 cdbe 616a adbe
00000380: eda8 173e c14d ec3d f8a2 843e 1da9 9b3e
00000390: 927d 5b3c 8010 9bbe c2a5 43bf 1c21 2d3d
000003a0: b83d fe3d fa19 bd3e a032 733e 6bf6 dfbd
000003b0: dbbc edbe ad46 5a3e e11f 9fbe c2f7 eabd
000003c0: d6bf adbd fa4d 273e 670f 83be 0a97 3ebd
000003d0: b1db 163e 248b bcbe b4f5 88be 0172 0d3f
000003e0: 9ed7 0b3f 9342 f53e e7a4 c8be ba0b b0be
000003f0: e77b ba3d 4f69 af3e d9fe 2cbe 97db 2abe
