output/sc/model_pth/sc_trained_gae_model.pth (torch, 220899 bytes, 10 tensors)

encoder.encoder_g.conv1.bias f4 [32]
00000000: 9f9a 21be 962f 4abd fa9a 8fbd a98e 50bd
00000010: 66b9 1ebe 997a 5bbd 3d95 d4bd a479 93ba
00000020: 48e3 56bd f187 95bd 104d 01be 5a21 67bd
00000030: b92d f4bc 61a6 3bbd 8b43 b0bd 5428 76bd
00000040: 6205 b5bd e151 82bd 4c95 0bbe 3b86 e3bd
00000050: 45f8 75bd 3464 78bd 3985 7abd 83a4 eabd
00000060: 794e 63bd d0b8 cbbd 7275 63bc a298 6fbd
00000070: 5a21 8dbd f78c 08be 138b 23be 33b1 50be
-0.1578164 -0.049361788 -0.07011981 -0.0509173 -0.15500411 -0.053583715 -0.103800274 -0.0011251462
-0.052462846 -0.073013194 -0.12627053 -0.05642829 -0.029806959 -0.04581297 -0.08606633 -0.060097054
-0.08838917 -0.063632734 -0.13631171 -0.11109587 -0.06005122 -0.060642436 -0.061162207 -0.11457159
-0.05549476 -0.099473596 -0.013882982 -0.05849517 -0.06891127 -0.13335024 -0.15971021 -0.20380096

encoder.encoder_g.conv1.lin.weight f4 [32, 64]
00000000: 97d0 f9bd 9517 b3bd fd81 bc3d 7144 a63a
00000010: 4bc1 293e 1bae 093e 3556 72be 0957 233d
00000020: 47e1 8e3d 986c 8d3e 0585 2dbe 167b 323e
00000030: bb42 20be bbdf fabd 6ee9 803e 36b1 81be
00000040: 217d 613e d3df 393d 659c 54be c0ed 2d3d
00000050: da5e 0abe db04 d53e 02c9 d2bd a12d 633e
00000060: 0e4b 00be 6ee3 99bd 8bab 2d3e cea7 48be
00000070: d011 96be 8736 983d 1312 883d 9220 aabe
00000080: c41b 4bbe 7642 bc3d 1ef8 83bd ecf7 bb3d
00000090: 7628 12be bf10 93be 90ff 863e 2bf6 513e
000000a0: 3821 3a3e 36df b7bd 647d 83be e9b5 ed3d
000000b0: 1c8f 84be 635e 4cbe 195d d9bd 6a03 51be
000000c0: 0018 8fbe 5edc 7c3d 41e7 24be 3efc 7a3e
000000d0: c15b 73be fede a5be feed 3e3e 0d2b 0abe
000000e0: 847a a2bc 3478 e1bd 3409 99be 9356 ebbd
000000f0: b567 b63d b8fc dabe 3e8c 04be 86f6 a1be
00000100: 4d6f ab3c 5cbd 85bc 1f01 9e3e 5a9f 9e3e
00000110: fd90 95bd 747f f73d 3151 b2be 0a1a 253c
00000120: 4c17 a43d 6b16 28be d573 78be 4313 42be
00000130: 943c 81bc e6c9 56bd ad3b 0dbe 8dee 92be
00000140: f1a6 3a3e 02fa b73d 58a5 06be 0303 a0bb
00000150: 6033 5bbe 1866 da3e 148d 393e ea1f 383e
00000160: 2c20 a43e 1794 463e 6771 20be 9702 8bbd
00000170: 4ca8 79be c48c 353d dc8e 6fbd 04a7 a2be
00000180: 8db4 4a3d 5a4b babe 2708 11be 25a0 343e
00000190: 5c35 363d b600 78bc 4eb7 333e e202 24bd
000001a0: 9ee1 14be 0f2c 24bd 05a8 633e 7919 803e
000001b0: 32c3 9d3d 23c7 d8be 26c8 2c3d e6c5 33be
000001c0: 1c2d 203e bbf7 64be a3c2 35bc 0234 24be
000001d0: 91e7 fdbe c016 8b3e 41a0 cbbe 34cf d53d
000001e0: d5b1 273e 9c58 f73d 87a0 43bd 3adc d93d
000001f0: a239 8f3e b6fe 9f3e 3441 b8be a206 0c3f
00000200: a1e0 3abd 16da f13d a03e 803d 3134 e33d
00000210: a916 51be 20ae 05bc e962 1abe c850 7c3e
00000220: 225a 2bbd d2ca 8dbd 17a7 95be 2247 23be
00000230: 77c5 3bbe 9a0d 54be edc8 983e 0f46 ef3d
00000240: c6e8 a13e 5a22 3c3e d85f 133d 5ab4 5fbd
00000250: 2ebd 56be 76bb 7abe 873f 6c3c 0d7a 11be
00000260: 6fd2 493e 3ff0 a23e be28 41bc 0224 9dbd
00000270: f6c9 d73c a262 e3bc fb2b 97be 43a9 76be
00000280: 63be 723e 447c a83e 51ce 4cbe 0784 0fbe
00000290: 19b3 8b3e 3855 6a3d 003f 6cbe a390 99bd
000002a0: 5de0 813e 5870 763d ecd7 81bd f116 7c3e
000002b0: 1c47 c0be 3db5 59bd f92e 8a3e fa78 763d
000002c0: 12e9 e73c c2d0 3c3e 373e 23be fdb8 ea3c
000002d0: bbe9 023d 1dda d1bd 26ce 8abb 0959 ae3c
000002e0: 9df9 fbbd b0b6 20be 8059 9ebe 0e51 68be
000002f0: 5e14 68bd aa8f 74be 1d80 cd3d f7c0 0e3e
00000300: 37c0 23be 2dac 6a3d 7b8b a23e 1dac 953d
00000310: 62fd 21bd 0190 303d b149 753c fa9a 2d3e
00000320: 224b 753e d73c f73b 3c3b 4abe 786d eebc
00000330: b271 5b3d 8b96 8dbe afdc aa3d 8f6d 58be
00000340: 6a4e 13be 29df 1e3e eb50 18bd 5c0a 363e
00000350: caea c43d 5104 253d f5c1 ea3d 9295 463e
00000360: 8f0f ff3c d822 463d ba27 d43d 1fd7 6bbe
00000370: 6388 42be fb4d 8abe d2ae db3d 829b 383e
00000380: d821 10bd cf02 15bd 59a2 03bd 8264 1fbc
00000390: 08b4 5e3d 1a7b 3cbe f262 26be 6e72 803e
000003a0: 7f8e 6ebd 19f9 6b3d ddc3 b93d 01c8 1d3e
000003b0: 183c 45be c72e 8a3e 6c0a 173e 4e40 d4bd
000003c0: d1a5 b23d ed3c c6bc 1b44 acbd 1ce2 a4bc
000003d0: 9f8f 763d 261a 3e3e 6420 1abe f742 9abe
000003e0: e9c2 053e 2146 05be 9383 a4be 15b5 de3d
000003f0: 3cd2 843e 5af6 363e 1e8d 0a3e 2cf0 803d
-0.121979885 -0.08744732 0.09204481 0.0012685192 0.16577642 0.13445322 -0.23665698 0.039877925
0.06976562 0.27621913 -0.16945274 0.17429766 -0.15650456 -0.122497045 0.25178093 -0.25330514
0.22020389 0.04537947 -0.20762785 0.042463064 -0.13512745 0.41605267 -0.102922454 0.22185375
-0.12528631 -0.07514082 0.1695997 -0.19595262 -0.29310465 0.07432275 0.066440724 -0.33227974
-0.1983481 0.09192364 -0.06443809 0.09178147 -0.14273247 -0.28723714 0.26366854 0.20504062
0.18176734 -0.08978121 -0.25681603 0.11606962 -0.25890434 -0.1995788 -0.1061346 -0.20411459
-0.27947998 0.061733596 -0.16103841 0.24510285 -0.2376547 -0.32396692 0.18645474 -0.13492985
-0.01983381 -0.11009255 -0.29889834 -0.11491122 0.08906499 -0.42770934 -0.12944123 -0.31633395
0.020927096 -0.016325645 0.3086023 0.3098095 -0.07303045 0.12084857 -0.3482757 0.010077009
0.08012256 -0.16414802 -0.24262936 -0.1895266 -0.015775956 -0.05243864 -0.13792296 -0.28697625
0.18227746 0.08983232 -0.13149011 -0.0048831715 -0.21406317 0.42656016 0.18120223 0.17980924
0.32055795 0.1939243 -0.1566826 -0.06787603 -0.24380606 0.044323698 -0.05848585 -0.31768048
0.049488593 -0.36385614 -0.14163266 0.17639215 0.04448448 -0.015136888 0.17550394 -0.04004181
-0.14539191 -0.04008108 0.22232063 0.25019434 0.07703246 -0.4233943 0.042183064 -0.17555961
0.15642208 -0.22360127 -0.011093768 -0.16035464 -0.49590734 0.27165794 -0.39770702 0.104399115
0.16376431 0.12077448 -0.047760513 0.10637708 0.27973658 0.31249017 -0.35987246 0.5469762
-0.04562438 0.11809175 0.06261945 0.11093939 -0.204188 -0.00815919 -0.15076794 0.2464019
-0.041834004 -0.069234505 -0.29229042 -0.15945104 -0.18337046 -0.20708314 0.29840794 0.116832845
0.31622905 0.18372479 0.035980076 -0.054615356 -0.20970604 -0.24485573 0.014419443 -0.14206715
0.1970918 0.31823918 -0.011789499 -0.076728836 0.02634142 -0.027756993 -0.29525742 -0.24088006
0.2370544 0.32907307 -0.20000578 -0.14015208 0.27285078 0.057210177 -0.23070908 -0.074982904
0.25366488 0.060165733 -0.06340012 0.24618126 -0.37554252 -0.053151358 0.26988962 0.060173966
0.028309379 0.1843901 -0.15941702 0.028652662 0.031961184 -0.1024668 -0.0042360006 0.02128269
-0.12303469 -0.1569469 -0.30927658 -0.2268717 -0.05666005 -0.23882928 0.10034201 0.13940798
-0.15991293 0.057293106 0.3174704 0.07308219 -0.039548285 0.043106083 0.014971183 0.1695365
0.23954442 0.0075450945 -0.19749159 -0.029104933 0.053575225 -0.27653918 0.08342873 -0.21135543
-0.14385381 0.15514816 -0.037186544 0.1777739 0.09615095 0.04028732 0.114627756 0.19392994
0.031135349 0.048373073 0.1035914 -0.23031281 -0.1899734 -0.2701262 0.10726704 0.18028072
-0.035188526 -0.03637963 -0.03213725 -0.009728553 0.05437091 -0.18406335 -0.16248682 0.25087303
-0.058241364 0.057610605 0.09070561 0.15408327 -0.19261205 0.26988813 0.1475007 -0.10363828
0.08723033 -0.024198974 -0.084114276 -0.020127349 0.06019556 0.18564662 -0.15051419 -0.30129215
0.13062634 -0.13015033 -0.32131633 0.108743824 0.25941646 0.17867413 0.13530394 0.06295809

encoder.encoder_g.conv2.bias f4 [32]
00000000: 5fa0 e4bd 3492 333e 6d9f 2ebf ddfa 2ebe
00000010: 1b73 a83e f3f2 993e 6ef0 6b3e eacb ce3e
00000020: 13b7 d43e 6125 ea3e ef00 05bf 75a5 9fbe
00000030: 71a6 dfbe 6668 1abf 0c27 963e ba78 a13e
00000040: f100 e93e d06e fbbe 8982 583f 93c0 3e3d
00000050: dbe1 69be beed 963e 700a 023f f9fe a0bd
00000060: 9b04 1a3e 46d9 f23c 4e84 b43e e3d3 243f
00000070: 54b0 06be 7825 a03e b58f 8cbe 263e 033f
-0.11163401 0.17536241 -0.68212014 -0.17087884 0.32900319 0.30068168 0.23040935 0.4038995
0.41545925 0.45731643 -0.5195455 -0.3118092 -0.43681672 -0.6031555 0.29326665 0.3153742
0.4550853 -0.4910798 0.8457418 0.04657037 -0.22840063 0.29478258 0.50797176 -0.07861132
0.1504082 0.02964462 0.3525719 0.64385813 -0.13153201 0.31278586 -0.2745339 0.51266706

encoder.encoder_g.conv2.lin.weight f4 [32, 32]
00000000: f9d0 ad3e a929 a9be a48a e13d 62f9 b9be
00000010: b8b7 2e3b 4bc3 5cbe 3245 a03c 3deb 123d
00000020: 49af afbe b97d a63d 0362 dbbc 27c3 503e
00000030: ff4e 74be 98c0 4d3e 2be6 41be d7c4 06be
00000040: 4b61 493e 2ddf 0dbd f26c 523e 46df 64be
00000050: 5e32 9c3e 0fee 86be 9ee2 debd 1842 353e
00000060: f927 75bd f68d f6bc 5daf 4bbe 8274 8abc
00000070: bcc5 bfbd 1354 e23d 3c96 13be 7d03 64be
00000080: 00bd b3ba b7c4 813e bcd0 debd 0d54 60be
00000090: 90e4 b93e 3b61 0c3e 9141 f33e 7cf2 4bbe
000000a0: b535 293e 89b3 d73d 389e c13d 3c5c df3d
000000b0: 115b 04be 1806 303e faa2 6c3e 045c 033e
000000c0: f0c3 a7bd ec27 6d3e 52b6 e1bd 6f74 913e
000000d0: fe81 493e ace0 70be 2f62 68be 58e0 5e3d
000000e0: 7890 903e 3bf4 1f3e 6864 ac3e 2238 bfbc
000000f0: 2ad3 13be bff7 13be d3b4 3a3c 9ac9 28be
00000100: 294e 42be 7f6f 93bd dd86 5f3e 24eb c8bd
00000110: 8835 53be 1d76 533e a499 d9bd e375 afbe
00000120: 8ac8 76be f9e0 0f3e e39b afbd 1cdc b9be
00000130: 0409 94bd 8fdf 05be 9209 6cbe 6f00 b6bd
00000140: 69f3 60be f148 edbd eda4 a4be e136 d43d
00000150: 14f2 493e 6ce6 90bc cf9f d3bd 81d8 b03e
00000160: 28b1 433e 1ca0 8bbe fdb6 72be f300 e13d
00000170: d772 08be 732c 2bbe 8923 a8bd 06d1 5fbe
00000180: 2414 1cbe 8351 f33d 4945 0e3e 0437 8dbd
00000190: 3027 9e3d 68de 393e 5edb 9abe 1ec6 783e
000001a0: d84c edbe 3e33 3cbe 7ff1 89be 1a83 d13d
000001b0: 46ed 9ebe cac6 35bc 8927 2e3e 1f09 62be
000001c0: 0027 853d b171 cebc 03db d53d 93c7 ff3d
000001d0: 1295 c03d a837 ed3d e5f1 26bd c931 f9bd
000001e0: a724 6a3e 427b 1fbe 15da 253e 7e8c 133e
000001f0: ee8f 4ebc fb54 4f3e 3eed 6e3e eb0c 8b3e
00000200: 57d1 9d3e a244 373e 1d48 60be db88 34be
00000210: c93c 44be eff0 2abe 5ee7 203e 0a87 8ebe
00000220: 3a28 fb3d b416 2ebd ae53 91be d097 b03b
00000230: 06ff 24be ed62 953e bcf7 b23e 4132 093f
00000240: a338 113e f65e 0c3e 624c a03e 7ac6 603d
00000250: 7c90 d9bd 4524 3fbe 0154 1f3d 5a59 773d
00000260: 9a18 ffbd 9f4d 853e 615d 6d3e bf19 903e
00000270: 0fdd 80bd b45c 8d3e 8cb3 693e 0a0e 74bd
00000280: 9262 d1bd 0636 a1bd 1b93 85bd dba6 dcbd
00000290: 12cb b0bc 69ac 1d3e 8d44 c73e 083f 9d3e
000002a0: eefb a33e 3ae5 553a e038 69be 27f9 30be
000002b0: 901c 4dbe bc0b 3a3e 3f80 143e 1da6 263e
000002c0: 33ae 0ebe 2406 8abe 15f6 1fbe 0f32 863e
000002d0: 38e9 5bbc 70b0 813e 87e5 86be e733 b03d
000002e0: a37b 2a3e 3c62 27be 1899 133e 50b5 c33c
000002f0: 4b86 813e 4709 a3be 04cc 833e 53dc bd3d
00000300: 26f8 d63e 041e 033e 7bbb 213e ec80 bc3d
00000310: 18fb b83e 0573 2d3e 67ea 913e c596 f83d
00000320: 19fa 773e 9560 143e 7f85 933d 1ee8 8abd
00000330: 3043 28be 19d5 cd3d 4906 6c3e b550 543e
00000340: 987f 21be b40f 793e 5232 793d 26fe a03e
00000350: 104f f3bd 8b37 b0bc 713b e7bd 8720 213e
00000360: c839 323d 7a0a a83e 665d ae3d e45c 28bd
00000370: 2054 8fbe b627 bdbd 8ace ea3d 41a4 4a3e
00000380: ada1 58be ee2f f83d 261d 51bc 1216 8a3e
00000390: 8f4f 9b3d 25ca 81bc 1e4f 893d d24e 62be
000003a0: bd20 6fbe 857a 17bd f07d 6ebd 4098 80be
000003b0: c7b9 3c3e 0477 46be 8423 e13e d6d5 433e
000003c0: 1fc0 95be 1317 06be 8192 9bbd 1365 a9bd
000003d0: 6280 52be aa50 44be a62c 393e bd0e 863d
000003e0: c0a5 4bbc 5c13 1d3e 9e59 993e 88e8 753e
000003f0: 4d64 35be e447 f0bd fb2f 2abe d7d3 ca3d
0.33948496 -0.33039597 0.11012772 -0.36323076 0.0026659798 -0.21558873 0.019564245 0.035868872
-0.3431342 0.081294484 -0.026780134 0.20386945 -0.2385826 0.20093 -0.18935458 -0.13161026
0.1966602 -0.034636665 0.20549372 -0.22350797 0.30507177 -0.263535 -0.108830675 0.17700994
-0.059852574 -0.03009699 -0.19891115 -0.016901258 -0.09363887 0.11051192 -0.14412779 -0.22266956
-0.0013712943 0.25345394 -0.10879657 -0.21907063 0.36307192 0.13708965 0.4751096 -0.19916719
0.16524394 0.105322905 0.09454006 0.10906264 -0.12925364 0.17189825 0.23109046 0.1282807
-0.08191669 0.2315976 -0.11021103 0.28409144 0.19678494 -0.23523206 -0.22693704 0.05441317
0.2823522 0.1562051 0.33670354 -0.023342196 -0.14436021 -0.14449976 0.011395651 -0.16483155
-0.18975128 -0.071990006 0.2182879 -0.098104745 -0.2062589 0.20650525 -0.10625008 -0.34269628
-0.24099937 0.14050664 -0.08574655 -0.36300743 -0.07228282 -0.13073562 -0.23050526 -0.088868015
-0.21967854 -0.11586178 -0.32157078 0.1036203 0.19721252 -0.017687999 -0.103332154 0.3454018
0.19110548 -0.2727059 -0.23702617 0.10986509 -0.13325058 -0.16716175 -0.08209903 -0.2185708
-0.15242058 0.118807815 0.13893618 -0.06895259 0.07722318 0.18151248 -0.3024549 0.24294326
-0.4634769 -0.18378922 -0.2694206 0.10230084 -0.310404 -0.011094758 0.17007269 -0.22073792
0.06501579 -0.025200697 0.10442164 0.12489238 0.09403433 0.11582881 -0.040758032 -0.12167699
0.22865544 -0.15574363 0.16196473 0.14409062 -0.012607558 0.20247261 0.23332688 0.27158293
0.30823776 0.17897275 -0.21902509 -0.17630331 -0.19163813 -0.16693471 0.1571326 -0.27837402
0.12263532 -0.04250212 -0.28384155 0.005389191 -0.16112909 0.29177037 0.3495463 0.53592306
0.14181761 0.137081 0.31308275 0.054876782 -0.10623261 -0.1866618 0.03889847 0.060387947
-0.12455864 0.26035783 0.23180152 0.28144643 -0.062921636 0.2760979 0.22822398 -0.0595837
-0.10223879 -0.07871632 -0.06522199 -0.10774013 -0.021581206 0.153978 0.38919488 0.30712152
0.32028145 0.00081594626 -0.22775602 -0.17282544 -0.20030427 0.18168539 0.14502047 0.16274305
-0.13933639 -0.2695781 -0.15621217 0.26210067 -0.013422303 0.25329924 -0.2634699 0.086036496
0.16648726 -0.16346067 0.1441387 0.023890167 0.2529777 -0.31843016 0.2574159 0.09270539
0.41986197 0.12804419 0.15794174 0.092042774 0.3612907 0.16938408 0.28499147 0.12138132
0.24216498 0.14489968 0.07203197 -0.06782554 -0.1643188 0.10050411 0.23049273 0.20733912
-0.1577133 0.24322397 0.060839005 0.314439 -0.11880314 -0.02151086 -0.112906344 0.15735064
0.043512136 0.32820493 0.08513908 -0.041104212 -0.2799387 -0.0923609 0.114651754 0.1978922
-0.21155424 0.12118517 -0.012763297 0.26969963 0.07583534 -0.01584346 0.067045435 -0.2210038
-0.23352332 -0.036982078 -0.058225572 -0.25116158 0.18430243 -0.19381338 0.4397241 0.1912454
-0.2924814 -0.1309474 -0.07596303 -0.082712315 -0.20556787 -0.19171396 0.18083438 0.0654578
-0.012429655 0.15339416 0.29951185 0.24014485 -0.17714043 -0.11732462 -0.16619866 0.099036865

encoder.encoder_g.linear.weight f4 [32, 1440]
00000000: 9e3f 013e 5415 62bc aea0 77bd ea47 21be
00000010: 502d 8cbd e0ac c63c e7ad 66bc 7329 89bd
00000020: 6bd5 1cbd c3d9 343c b4a1 23be ff63 0dbe
00000030: 09ef c7bc fedc 3b3c 1fe7 153e 104a dfbc
00000040: 807b a4bd 94eb 20be ac27 f73d e10e 0b3e
00000050: 7843 88bb 5fbc 383e 92b8 19bd 3a82 d5bd
00000060: e5a8 82bc ef69 a73d 89f5 ca3d df59 b13d
00000070: d5b5 3a3d 492b 083b 46e2 44be b35a a93d
00000080: c7c5 4b3e 44c6 18bd 65a8 1fbc 038b 13be
00000090: 0c7c 2038 73a0 36bc e3b5 1cbd d6df 92ba
000000a0: afe1 983d bbce b5bc cf2d 1ebe 38ba 03be
000000b0: 92b3 49bd a951 c9bc 66eb 403e 3d1e e03b
000000c0: 62c3 00bd 2a14 ddbd 8e2e 9e3d b1cb d53c
000000d0: 40cd 1fbd 2cbe 4e3d 3c9c 903c 4012 12be
000000e0: 9e0d a8bd 9074 393d 62e5 ee3d fc3b 833d
000000f0: 69dc 1e3e 6b24 9ebc f227 0bbe 9b71 0a3e
00000100: b585 583e dbf3 99bd a748 a8bc 9d63 1bbe
00000110: 74e4 ccbb 70e8 a8bc c416 21bd 7c8d fd3b
00000120: fc42 b23d 8e77 88bc 091e 11be b9f8 efbd
00000130: 754c 7dbd bd64 41bc e56c 3f3e 8d7b 753b
00000140: 1729 dabc eb51 02be f0cb 993d f313 ad3d
00000150: 0a70 fcbc 0d6d 293d 1434 c73c e353 12be
00000160: 3dfd ddbd 5b55 da3c 6b8a 2f3e 6e37 bc3d
00000170: 0342 243e b999 14bd 86fa 08be b642 183e
00000180: 683d 533e 354e 71bd cbb9 63bd f1f0 37be
00000190: 7cd8 8ebc 6be1 82bc e8c9 28bd dbec ffbc
000001a0: 6dd6 753c 9b7d 433b e511 39be f3f3 03be
000001b0: ff62 a3bc eb89 753b 0bf0 223e 3d52 333d
000001c0: 99e8 cabc 234e 0dbe 48dc ac3d 9d98 f73d
000001d0: 4df8 c7bc e513 243e f623 5dbc c36c 15be
000001e0: 5c3d 43bd 72bc 4a3d f02d b73d 4e07 a03d
000001f0: 5cb6 0c3e eb7c e13b 36dd 37be 22bb fb3d
00000200: b36f 3e3e 46b5 47bc 4312 2cbd b57d 08be
00000210: fe42 8bbd 6215 313d 4680 a33b 1d7f a4bd
00000220: 4202 b7bc 4d2a ab3b 0cb3 39be e548 04be
00000230: bc35 29bd 4455 08bb aeb6 173e 3959 d33c
00000240: de1a b1bd ec5d 05be dc4a bd3d 1324 803d
00000250: fe5b 6eba 1110 233e 07ef dbbc b2a7 d1bd
00000260: fb5c d1bc 57be 973d 2dc0 a13d 9ab8 f73d
00000270: c92a c43d e68e f63c 34a4 1ebe bcf4 bf3d
00000280: e745 253e 083e a5bc 459c e1bc 343b 0ebe
00000290: ab80 5dbd 3469 633c ed55 8bbc 344a b7bd
000002a0: 2aa5 f0bc b95b 3cbb 283b 36be a6d8 f9bd
000002b0: 1c0d 95bc ef3e 993c 6b56 083e 5bf7 443c
000002c0: 85af d4bd 00d3 1ebe c1d4 b13d daea 023e
000002d0: b582 98bb dcf2 0f3e 5975 2abc 9611 ffbd
000002e0: 861f 68bc c28a bd3d aa1c b93d 1367 f23d
000002f0: 5917 853d 41c5 cf3c 0fcf 39be ae6e db3d
00000300: 3a2d 473e 8ff1 ccbc 157c f1bc 870f 2cbe
00000310: 2996 66bd e442 143b ef3e bebc ff7d 89bd
00000320: cdcb b9bc beb0 85bc 0dee 38be 53d6 15be
00000330: 0b10 1fbc decb 1f3d d564 0d3e 4924 603a
00000340: 104d 40bd 9709 03be e5f4 d13d feb8 293e
00000350: 3c59 23bd fa8f 033e b4c0 25bd 5fe6 e0bd
00000360: a5b0 dabc 9f0b aa3d b0f7 c63d c1a8 bd3d
00000370: e917 d83d be97 083d 414d 2ebe 8f66 d23d
00000380: 2f92 7b3e cb78 aebd 3fc7 60bd d4ae 1fbe
00000390: 1cb7 14bd f9c2 93bc a06d 03bd 7877 78bc
000003a0: aab1 3d3d 7c4e dbbc 1646 e8bd 3da3 eebd
000003b0: 3a42 a0bc b73e 1abc 1e77 fc3d 559a 473b
000003c0: fb41 2c3c e9de d5bd 5f4c db3d f3d4 753d
000003d0: 0fe6 7abd 9150 a53d 610e c1bb 6cfb 26be
000003e0: 986e 98bd 9029 a43d a3b5 d63d 5360 ae3d
000003f0: e630 1a3e e309 2cbc ceb9 f7bd 5ed9 113e
0.12621924 -0.01379903 -0.06045597 -0.1575009 -0.0684458 0.024252355 -0.0140795475 -0.06697359
-0.03828947 0.011038247 -0.15979654 -0.13807677 -0.024405973 0.011466263 0.14638947 -0.027256995
-0.08031368 -0.15714866 0.12068114 0.13579895 -0.0041584335 0.18040608 -0.037529536 -0.10425229
-0.015949676 0.08174502 0.09910113 0.0865972 0.045583565 0.0020777753 -0.19226941 0.08269253
0.19899665 -0.037298456 -0.009744738 -0.14408498 3.82625e-05 -0.0111466525 -0.0382594 -0.0011205624
0.07464921 -0.022193303 -0.15447162 -0.12864006 -0.049243517 -0.024575071 0.18839797 0.006839542
-0.03143633 -0.107948616 0.07723723 0.026098104 -0.0390141 0.05047433 0.017652623 -0.14264774
-0.08205722 0.04527718 0.11664845 0.064079255 0.15513767 -0.019304475 -0.13589457 0.135199
0.21144755 -0.07517215 -0.020542456 -0.15174718 -0.0062528197 -0.020618647 -0.03932835 0.0077378135
0.087041825 -0.01665857 -0.14171614 -0.11717362 -0.061840493 -0.011803803 0.18693884 0.0037457675
-0.026630921 -0.12726562 0.07509601 0.08451071 -0.030815143 0.041363765 0.024316825 -0.14289813
-0.10839317 0.026652029 0.17142646 0.0919026 0.16040806 -0.036279414 -0.13376817 0.14869198
0.20628893 -0.058912475 -0.055597108 -0.17963006 -0.017437212 -0.015976628 -0.041208178 -0.031240871
0.015004736 0.0029829505 -0.18073232 -0.12886028 -0.019944666 0.0037466239 0.15911882 0.0437796
-0.024769114 -0.13799338 0.08440453 0.120896555 -0.024410391 0.16023214 -0.013497343 -0.1459227
-0.04766594 0.04949612 0.08944309 0.07813893 0.1374144 0.0068813465 -0.17955479 0.12291552
0.18597297 -0.012189215 -0.042009603 -0.13329203 -0.06799887 0.043233283 0.0049896566 -0.080320574
-0.022339944 0.0052235485 -0.18134707 -0.12918432 -0.04131101 -0.0020802775 0.1481578 0.02579938
-0.08647703 -0.1302411 0.09242794 0.062568806 -0.00090926874 0.15924098 -0.026847376 -0.102370635
-0.025557032 0.07409351 0.07897983 0.12095757 0.09578473 0.030097436 -0.15492326 0.09372851
0.16139947 -0.02017118 -0.027540335 -0.13889772 -0.054077785 0.013880063 -0.017008746 -0.089497
-0.029375631 -0.0028741194 -0.17796004 -0.121995255 -0.018194728 0.018706767 0.13314216 0.012021865
-0.1038504 -0.15510178 0.08683158 0.12784901 -0.0046542534 0.14057487 -0.010403954 -0.12454526
-0.014167672 0.092549816 0.0903867 0.11836066 0.06498594 0.025362613 -0.18145393 0.1071447
0.19450846 -0.025017528 -0.029478112 -0.16802798 -0.056295548 0.0022622878 -0.023223368 -0.06713485
-0.022680188 -0.016319629 -0.18059559 -0.1463254 -0.009708415 0.039012782 0.13807996 0.0008550329
-0.046948493 -0.12796627 0.10251788 0.16574475 -0.039880022 0.12847891 -0.04046698 -0.1098144
-0.026695559 0.08302998 0.097152114 0.09260703 0.105514355 0.033347838 -0.17021658 0.10273468
0.24567483 -0.08519133 -0.054877516 -0.15594035 -0.03630744 -0.018037306 -0.03208697 -0.015165202
0.04631201 -0.026770823 -0.11341493 -0.11652229 -0.01956283 -0.009414366 0.12327407 0.003045698
0.010513778 -0.10442907 0.10707926 0.060017537 -0.061254557 0.080720074 -0.0058916067 -0.16306847
-0.07442969 0.0801574 0.10483863 0.08514466 0.15057716 -0.010500404 -0.12095986 0.14243075

encoder.encoder_g.linear.bias f4 [32]
00000000: 8060 7abd 5bfa aabc d3f8 55be de07 93be
00000010: 9ec5 6c3c c202 b4be 59f8 28bc 5a2b aabd
00000020: c461 0bbe e82f f6bd db4d 4bbd 0bcf 433e
00000030: 3e49 c8bd d2f0 d9bc 32db 1d3e 42dc b7bd
00000040: a624 623e 3f57 95be 676e 663e 6393 df3c
00000050: 837f 0c3e d0b0 723e 6cd2 a43e c6cb aa3e
00000060: a97a 2a3e 8692 cabd 2ad4 c03c 296e 6a3e
00000070: 889f 593e e774 71be 91eb 41be aa8e 123e
-0.061127186 -0.020871332 -0.208957 -0.2871694 0.0144514125 -0.35158354 -0.010313117 -0.0830905
-0.13611513 -0.12020856 -0.049634796 0.1912195 -0.09779595 -0.02660409 0.15415648 -0.08977558
0.22084293 -0.29168126 0.22503053 0.02729196 0.13720517 0.23700261 0.3219179 0.33358592
0.16648354 -0.098912284 0.023538668 0.22893585 0.21252263 -0.23579751 -0.18937518 0.14312235

encoder.encoder_c.conv1.bias f4 [32]
00000000: 657f 713d 5025 973c 0000 0000 7a14 363c
00000010: 68e9 4abd 024b a63c 79f8 533d ac98 b8bb
00000020: 0000 0000 930f 86bd 43e5 043c 0000 0000
00000030: abf1 b03c 557a 4fbd 6549 bf3c b085 82bd
00000040: b31d a33c dffb 75bd 4012 67bc a42c 05bd
00000050: 0000 0000 939a 073d ddfb 75bd 16b3 8c3c
00000060: 29a1 7a3d 265a f0bc cb0b bd3c e3ed 82bd
00000070: ceeb 58bd 77e7 183d a0b1 a6bc 4813 483d
0.058959384 0.01845041 0.0 0.01111328 -0.049539 0.020299438 0.051750634 -0.0056334343
0.0 -0.06545939 0.008111301 0.0 0.021599611 -0.050653774 0.023350427 -0.06373155
0.019911623 -0.060054656 -0.014103472 -0.032513276 0.0 0.033106398 -0.06005465 0.017175239
0.06118885 -0.029339861 0.023076912 -0.063930295 -0.052959256 0.037330117 -0.02034837 0.048846513

encoder.encoder_c.conv1.lin.weight f4 [32, 120]
00000000: be36 84bc 1c78 e13d aaee ce3c 9e48 85be
00000010: a98b 533c e61b 3dbd aa01 3abe f853 afbd
00000020: a5f6 87be db21 d53d 6cbf a1be 34b0 673e
00000030: ab33 323d 600e 8f3e a9cf 9cbd a082 963e
00000040: 2090 e5bd 5d34 82be de36 5f3e e2b1 c63d
00000050: 8d8e bf3d fc66 acbe d3d6 b7bd 457b 86bd
00000060: 5e06 863d 4d31 113f 7ca5 333e a227 f1bd
00000070: 32d8 0e3e 1d8d 7c3d 754d 723e b7e4 4e3d
00000080: bb14 bbbe 1000 21bd efb6 8e3d cb83 c9bd
00000090: 3e0f 4c3e 27d7 c5bd 630a 113d c37b 37be
000000a0: be77 783d c606 f93d 9946 283e 4553 d63d
000000b0: e14d 35bc 4472 163e 9bcc 513e 1263 973e
000000c0: c8d3 383d ac82 283e 614f 3cbe 957c 13be
000000d0: 7f33 c83c 693d de3e 5253 8bbe cc6e 7cbc
000000e0: 9e42 11be 5e40 573e e88d 823d b491 b73e
000000f0: 0927 cabd c8d6 e23d d011 48be c60d 30be
00000100: b309 4e3d b873 1e3c 2cf2 aabd 277c 603d
00000110: 4b05 43be 0679 033e 2ff8 e93d 94e8 37be
00000120: 8395 29be 1edc b5bd 6ab9 85be e665 6c3e
00000130: 63f6 873d 9adb 8dbe b12e 0d3e 694f cebe
00000140: a81b 833d f262 8ebe f235 233e dcae a4bd
00000150: 5e04 4b3e 2482 ec3c 6176 8dbe 5430 52be
00000160: b5cb 083e ba6e 47be 6ce7 5f3e 1012 893e
00000170: dc40 023e 1b3a d1bd 85fe 23be 3d61 babe
00000180: 0e70 1abe d3ba b73d 7369 9f3d c83b c13d
00000190: 0bde 223e 0fa3 2b3e 6bb0 4abe 0f90 9c3d
000001a0: fe75 1e3e 6179 a83c 4cbd 54be bc82 4bbe
000001b0: b5c2 31bd 4e39 adbe 4433 973d ff65 f1bc
000001c0: fa42 81bd 93a2 83bc 9b4a e8bd 232e a7bd
000001d0: fdee 19bd 7bc1 393e 793f 6a3d da40 3cbe
000001e0: 577a a7be 8fcd f73d e407 1f3d f56d 043f
000001f0: f3a0 ed3d 3e0a 513e 8c96 6c3e 62d9 4c3e
00000200: 054d a7be 6b64 f93d ad1f cd3d 1bd6 f33d
00000210: a913 c53c ce02 4b3e 6372 683d 771b 4a3e
00000220: b2a5 33be b726 6bbe abed d6bd 63f5 8c3d
00000230: 95ed 563e 90ea 91be e805 0c3e 6cc8 8fbc
00000240: 0d3f 38be b28b dfbe c538 64be 299f fb3d
00000250: ac30 143d f711 be3d 732b 133e 6ebf 9dbd
00000260: 6852 fa3c 0f10 a3bc 2c2f 56be 11f1 08be
00000270: fba5 68be 8138 02be 4d22 39be 9194 acbd
00000280: 6e28 08bf b712 973d 9428 6bbc 04a2 0c3e
00000290: 8840 b43e 08a9 7cbe 7d6e 78be b238 bc3e
000002a0: 7c9e 6dbc 504b bdbd d4b4 82be 1b59 0c3e
000002b0: ae30 d93b d760 ac3e f110 9ebd 9cb8 0ebe
000002c0: 6a13 4b3e 8856 0d3e a57f 0d3d b998 9dbd
000002d0: 1285 cebd d8cf 06be 1d96 73be ecdd 843c
000002e0: 8b30 7d3e 95cd 063e b8b6 eabd e792 a63e
000002f0: 92c2 cf3e cec4 b8bd 5691 e03d c00e 02be
00000300: 8b25 bebe 3172 933e 8fc9 73bd 13c5 413e
00000310: 96d0 d33d 1d62 3a3e 28c5 ce3d 4426 13be
00000320: 7ca4 8e3d f45a 4e3e bcdc 583d e3bf c83d
00000330: 72ff febd 8aa3 08be 5b7b ecbd 7c8f 43be
00000340: 16e2 80be ea95 64be 60f3 34be a016 803e
00000350: 5e01 d9be 6417 623e 7afa 313e a438 3c3f
00000360: 660a 6abc f59e 613b fb3a 99be 7646 033e
00000370: 8000 00be b6bc 3d3d 7bd2 a4bd f4dd 84be
00000380: d658 323d 94f1 dbbd 028a 393e 20b7 1ebe
00000390: bb41 60bc b10e 783e ac0b 9bbe 5b75 9b3c
000003a0: 3428 263d 8ef3 e83d 978b 543e a89a b83e
000003b0: 7ef2 4b3e 5334 88bd ee10 c83e 6bb0 583e
000003c0: 6bee 04be 07c7 24be 10e0 113c 35a2 1bbe
000003d0: 9801 b33d 09ab 5fbd 3d6d 84bd 6280 f83d
000003e0: 3296 33bd 685d 1ebe 4709 e8bd 1f33 eb3c
000003f0: a96e 3ebe 437f 0bbd 1861 233e 8320 47be
-0.016139384 0.11009237 0.025260288 -0.26031965 0.012911716 -0.046169184 -0.18164697 -0.08560938
-0.26555362 0.10406848 -0.31591356 0.2262581 0.043506306 0.27940655 -0.076567955 0.29396534
-0.1120913 -0.25430575 0.21798274 0.09701897 0.09353361 -0.3367232 -0.08976521 -0.065664805
0.06544183 0.5671585 0.17543596 -0.117751375 0.1394966 0.061658014 0.2366236 0.05051109
-0.36539254 -0.0393067 0.069684856 -0.09839591 0.1992769 -0.09660178 0.035410296 -0.17918305
0.06066107 0.12159495 0.16433181 0.10465101 -0.011065931 0.14692026 0.20488207 0.29567772
0.045123845 0.16456097 -0.18389656 -0.14402993 0.024438618 0.43406227 -0.27212006 -0.015407275
-0.14185569 0.21020648 0.06374723 0.3585335 -0.098707266 0.110761225 -0.19538045 -0.17192754
0.05030222 0.009671144 -0.08346972 0.0548059 -0.19044988 0.12839136 0.114242904 -0.17959815
-0.1656094 -0.08879875 -0.26118022 0.23085746 0.066387914 -0.27706605 0.13787343 -0.4029496
0.064017594 -0.27809864 0.15938547 -0.08041164 0.19825885 0.02887065 -0.27629378 -0.20526248
0.13358958 -0.19475833 0.21865624 0.26771593 0.12720054 -0.10216161 -0.1601506 -0.36402312
-0.15081808 0.08971181 0.07783785 0.094352305 0.15905015 0.1676142 -0.1979386 0.076446645
0.15474698 0.02056569 -0.20775336 -0.1987409 -0.043398578 -0.33832783 0.07382825 -0.02946758
-0.06311603 -0.016068732 -0.11342355 -0.08163097 -0.037581433 0.18140213 0.05718944 -0.18384114
-0.32710525 0.12099754 0.038825884 0.5173028 0.11602964 0.20414063 0.23104304 0.200048
-0.3267595 0.12177356 0.10015807 0.11906072 0.024057226 0.19825289 0.056749713 0.1973704
-0.17543676 -0.22963987 -0.1049455 0.06882741 0.20989068 -0.2849927 0.13674128 -0.017551623
-0.17992802 -0.43661267 -0.22287281 0.12286217 0.03617923 0.0928077 0.14372043 -0.07702528
0.030556872 -0.019905118 -0.20916432 -0.1337321 -0.22719567 -0.12716867 -0.18079491 -0.08426774
-0.5318669 0.073766164 -0.014352936 0.13733679 0.35205483 -0.24673855 -0.24260898 0.36762005
-0.014503118 -0.0924288 -0.25528586 0.13705866 0.0066281175 0.33667633 -0.07718075 -0.1393761
0.19831625 0.1380254 0.03454556 -0.07695145 -0.10083975 -0.13165224 -0.23787732 0.016219102
0.24725549 0.13164361 -0.11460632 0.32533953 0.40578133 -0.090219125 0.10965221 -0.12700939
-0.37138018 0.2879806 -0.059518393 0.18922834 0.10342519 0.1820149 0.10096198 -0.14370066
0.06964967 0.20151883 0.052944884 0.098022245 -0.12451066 -0.13343635 -0.11546966 -0.19097704
-0.2517249 -0.22322813 -0.17670965 0.25017262 -0.42383856 0.22079235 0.17380705 0.73523927
-0.014284706 0.0034427021 -0.2992781 0.12819847 -0.1250019 0.046322547 -0.080479585 -0.25950587
0.04354175 -0.10739437 0.18119052 -0.15499544 -0.013687546 0.24224354 -0.30282342 0.018976858
0.040565684 0.11374579 0.20756374 0.36055493 0.19916722 -0.06650605 0.39075416 0.21161048
-0.12981574 -0.16091548 0.008903518 -0.15198596 0.08740538 -0.05460647 -0.06466148 0.12133862
-0.04384441 -0.15465319 -0.113298945 0.0287109 -0.18596901 -0.034056913 0.15955007 -0.19445996

encoder.encoder_c.conv2.bias f4 [32]
00000000: c51e abbd 5104 a33e 8339 37bd 3df2 cbbd
00000010: b063 da3c 32b8 9fbb 872e 2dbd b923 b83d
00000020: 0f6e 553e ba90 b53e c092 fd3d 3dd0 6e3e
00000030: 9f75 40be 8777 cd3c c264 8b3d c11d 873e
00000040: 6aeb ff3d 50ae 003d 0620 923d dbda 173d
00000050: 334c af3e b85f d93d 7408 5cbe 69ed 8b3e
00000060: ef2b 933d fc1d 05bd 7491 703e b3d1 143e
00000070: 3d55 013e a08d 5cbe 8f70 94bd 565c 60bb
-0.08355478 0.3183923 -0.04473258 -0.09958313 0.026658863 -0.0048742527 -0.0422807 0.089911886
0.20842765 0.3546198 0.12381506 0.23321624 -0.18794869 0.02508141 0.068063274 0.26389888
0.124960735 0.031416237 0.07135014 0.03707395 0.34237823 0.1061396 -0.214876 0.27329567
0.07186114 -0.0324993 0.23492986 0.14533119 0.12630172 -0.215384 -0.07248031 -0.0034234724

encoder.encoder_c.conv2.lin.weight f4 [32, 32]
00000000: aea1 b9be 59d0 59be 3674 1a3e f30e 23bc
00000010: 918b 5f3e f993 323e 1180 503e 5e2e 203e
00000020: 6cf4 0fbd 1a90 183e 4e4b 14bd 5e26 3bbe
00000030: e424 003f cbda 253d 995e 313e d495 073e
00000040: 5c5a a6be 1ca8 93be 83e3 8e3d 93f4 323e
00000050: 6381 1cbd 505c ebbd f7df 0bbe 9aec 3c3e
00000060: ac75 58be 696d 223e 593c c63a 5ef6 333e
00000070: ba1f b9bd c4d6 f0be eb0f 6e3b ae3c f13d
00000080: d9d9 d8be 65f6 60be 317e 1dbe 0ec2 d0bb
00000090: 8ad4 d0bd c8bb 863e 72a7 4a3e 76e8 553e
000000a0: e2ab 23be cb99 9c3e 9e8b acbe 4dfd 9a3e
000000b0: b0cb 5fbe a707 2cbe d378 a9be 7f56 883e
000000c0: 0f12 4f3e 4b5a d83d cedb 523e 1484 a33a
000000d0: 3c77 d1bd 1d62 09be b3ad d5bd 600e 3c3e
000000e0: 86b4 c3be 3cca c43d a64b 903e eec0 09be
000000f0: 65eb 5dbe 56f2 583e 8dde 75be b02f 12be
00000100: 3995 61be ce54 153f 9fcf 6d3c e504 513e
00000110: ece9 4a3d 968d ef3d f0b1 29be 5c28 80be
00000120: 2e8c fc3d f5cb 6c3e 6ac5 a13d c79b 6b3e
00000130: 1525 043e 8d85 173e edb4 b1bd 87ad e9bd
00000140: ca57 2d3d 874f 10be a0c1 66bd 3c46 c83d
00000150: b878 6b3c 8e2d 5ebc 0a9e ae3c 1efb f1be
00000160: 8a51 9c3e f2ec ba3e 49f6 79be a7b7 00bd
00000170: 731d 27be 0f29 6a3d d9c0 4f3e 4f7e 7fbe
00000180: cdd1 80bd 03f2 193d f93f f0bd d296 963e
00000190: 476e 39be 4527 513e b29c 383e 318f e9be
000001a0: fbbf cabd 9cea 3b3e 0af1 f63d 6321 e2bd
000001b0: 8c72 03be 77f0 893e b696 24bd 97f7 dcbd
000001c0: 6979 2ebe 361f 0fbe 8330 903e 567b 53bd
000001d0: 3ce2 923d 5f93 833e 96e4 a53d a631 21be
000001e0: 282c e5be c79f cbbd efb4 8cbe 938b 3e3e
000001f0: 2384 d2bc 060a 2dbe 4149 9ebd 4c7a 673e
00000200: f099 373d 9e87 cfbe ff51 9f3d 8149 c03e
00000210: 53cf 843e db0d 6a3d c703 eb3c 061d 27be
00000220: ac8b 303e d0b6 d3ba 6739 c63e f4e5 80be
00000230: a3ad d0bd 36be 383d 8246 ea3e 4dd2 303e
00000240: df87 8a3e d292 603e cc92 a53d 5a85 8f3e
00000250: 3281 333c 6eda 77be 7a2c 2ebe eaab 3abd
00000260: 109e 7c3d 99e2 a23e 4944 9dbe 97d5 0fbe
00000270: 8b32 36be 2422 a6bd 49ce c1be 3d87 a3be
00000280: e431 3dbe 1055 6a3e 94b5 153e 9369 cdbd
00000290: dbe0 2fbe 12eb ad3e d15f 61be 450b a13d
000002a0: d77d 3c3e ef05 81be 31be 7b3d 89fc 733e
000002b0: c341 c2be 515c c33d 98a2 b2be d7b6 e33c
000002c0: a036 ed3d 7a1e c53d 2b27 5e3e 3da8 ad3e
000002d0: 4d45 803e c08c a1bd e3c8 babe 48b7 dd3e
000002e0: 4e6f dd3d ef5a e2bd dcf2 093e 6a92 40bc
000002f0: a175 de3c ef74 82be 7886 2c3e fe49 42be
00000300: 3495 393e c5a8 60bd 2e22 483e f260 5bbe
00000310: 465b 9fbe 2496 54be d010 333d 3258 653e
00000320: 3c55 5fbd 5abf 2c3e fbf0 f6bd 20ac 913e
00000330: accb b1bc 098a 48bc 4d02 293e 0c6d 173e
00000340: a452 123f f7bf 083e 70c6 95be fb81 99bc
00000350: a02b 813e 74dc ce3d 60cb f1bc 86cd 473e
00000360: d9af 043e e954 dfbc b155 31be 36e4 afbd
00000370: df7b 3bbe 3110 d43c 9840 323d f5f7 abbe
00000380: 917f 5ebd 599a 56bc a5b5 58be e6d6 12be
00000390: bf8c 083e bd23 8f3e 09f3 06be 6615 92be
000003a0: 3251 abbb a88b 94be 17b6 a9be 0e7f 1ebe
000003b0: ae34 cd3e 2372 c43c b42e 973e a230 0dbe
000003c0: 38d8 463e 649a 553e d4b8 e33d 27ec 2cbe
000003d0: 81c6 3ebd 34e5 9d3e 0624 65be cd1b 98bd
000003e0: fce0 3b3e b5fc ed3c 326b 30be 413f cabc
000003f0: 0c37 93bc 0093 d6be 7710 92be 6a75 67bd
-0.36256164 -0.21270885 0.15083393 -0.009952295 0.21830584 0.1743926 0.20361353 0.15642688
-0.03514521 0.1489872 -0.03620463 -0.18276355 0.5005629 0.04049186 0.17321242 0.13240749
-0.32490814 -0.28839195 0.06976988 0.1747611 -0.03820933 -0.114922166 -0.13659655 0.18449631
-0.21138638 0.15862049 0.0015124186 0.1757445 -0.090392545 -0.47038853 0.0036325406 0.11779152
-0.42353705 -0.21968992 -0.1538017 -0.0063707894 -0.101967886 0.2631514 0.19790438 0.20889458
-0.15983537 0.30586085 -0.3370027 0.30271378 -0.21855044 -0.16799794 -0.33099994 0.2662849
0.20221733 0.10564097 0.20591661 0.0012475275 -0.1022782 -0.13416333 -0.10433521 0.18364859
-0.38223666 0.09608886 0.28182715 -0.13452503 -0.21671827 0.21186194 -0.24010678 -0.14276004
-0.2202958 0.58332527 0.014514833 0.20412023 0.04953949 0.11696927 -0.16571784 -0.25030792
0.12331425 0.23124678 0.07898982 0.23008643 0.1290477 0.1479704 -0.08677087 -0.11410051
0.04232005 -0.14092837 -0.056337 0.09779021 0.014372043 -0.013560666 0.021315593 -0.472619
0.3053096 0.365089 -0.24410357 -0.031425145 -0.16319828 0.057168063 0.2028841 -0.24950527
-0.06290016 0.037584316 -0.11730952 0.29411942 -0.18108474 0.20425136 0.18028525 -0.4561706
-0.098998986 0.18351215 0.12057693 -0.11041524 -0.12836665 0.26941273 -0.04018279 -0.107894115
-0.17038502 -0.1397675 0.28162012 -0.051631294 0.07172057 0.25698373 0.0810024 -0.15741596
-0.4476025 -0.099425845 -0.2748179 0.18607931 -0.025697773 -0.16898355 -0.07728816 0.22605246
0.04482454 -0.40533155 0.077793114 0.3755608 0.25939426 0.05714212 0.028688325 -0.16319665
0.1724078 -0.0016152505 0.3871567 -0.2517544 -0.101893686 0.045103274 0.45756918 0.17267723
0.27056786 0.21931008 0.0808464 0.28031427 0.0109560955 -0.24204418 -0.17009154 -0.045574106
0.061674178 0.31813505 -0.3071616 -0.14046322 -0.17792718 -0.081119806 -0.37852696 -0.31939116
-0.18476063 0.22884011 0.14620048 -0.10029902 -0.1717562 0.33968407 -0.22009207 0.078634776
0.18407379 -0.2519984 0.061460678 0.23826803 -0.37940797 0.09539092 -0.34889674 0.027797146
0.115826845 0.096249536 0.21694629 0.33917418 0.25052872 -0.07888174 -0.3648139 0.43303895
0.10812245 -0.110525005 0.1347155 -0.011753658 0.0271557 -0.25479838 0.16848171 -0.18973538
0.18123323 -0.05484845 0.19544289 -0.214237 -0.31124324 -0.20760399 0.043717206 0.22396925
-0.054524645 0.1686987 -0.12057682 0.28451633 -0.021703564 -0.012239941 0.16504784 0.14787692
0.5715735 0.13354479 -0.29252958 -0.018738737 0.25228596 0.10100642 -0.029515922 0.19511995
0.12957706 -0.027262168 -0.17317845 -0.0858845 -0.18308972 0.025886627 0.043518633 -0.33587614
-0.054320876 -0.013098323 -0.21163042 -0.1433979 0.1333494 0.27956954 -0.13178648 -0.2853195
-0.005228185 -0.290128 -0.33146736 -0.15478155 0.40079254 0.023980206 0.2952782 -0.13788083
0.19418418 0.20859677 0.111192375 -0.1688696 -0.046576027 0.3083893 -0.22377023 -0.074271776
0.18347543 0.029051164 -0.17228392 -0.024688365 -0.017970584 -0.41909027 -0.28528187 -0.05650846
