output/sc/model_pth/sc_without_pth_trained_gae_model.pth (torch, 221107 bytes, 10 tensors)

encoder.encoder_g.conv1.bias f4 [32]
-0.07417963 -0.048972104 -0.01923286 -0.0509173 -0.15500411 0.019885208 -0.0635625 -0.019699313
-0.052462846 -0.073013194 -0.058944736 -0.05642829 -0.029806959 -0.04581297 -0.07154355 -0.04565029
-0.050805066 -0.063632734 -0.043048378 -0.06519304 -0.06005122 -0.060642436 -0.061162207 -0.04263308
0.035778098 -0.051031962 -0.033752143 0.017693434 -0.06891127 -6.2907115e-05 -0.09466832 -0.1116853
00000000: 7deb 97bd f996 48bd 3b8e 9dbc a98e 50bd
00000010: 66b9 1ebe 4ee6 a23c 0e2d 82bd 7460 a1bc
00000020: 48e3 56bd f187 95bd 0970 71bd 5a21 67bd
00000030: b92d f4bc 61a6 3bbd 6d85 92bd ccfb 3abd
00000040: f918 50bd e151 82bd 7f53 30bd ee83 85bd
00000050: 45f8 75bd 3464 78bd 3985 7abd 06a0 2ebd
00000060: 0e8c 123d e406 51bd b03f 0abd d2f1 903c
00000070: 5a21 8dbd 00ed 83b8 77e1 c1bd 43bb e4bd

encoder.encoder_g.conv1.lin.weight f4 [32, 64]
-0.034564305 -0.19635555 0.01854457 -0.07386734 0.24069898 0.19220002 -0.20384063 0.07851407
-0.020321684 0.19722673 -0.07308202 0.10944697 -0.15649317 -0.15208395 0.21313988 -0.19016558
0.25041032 -0.034630634 -0.17450184 0.10629913 -0.056228813 0.37305376 -0.016018845 0.17149667
-0.08427679 -0.15064241 0.2397262 -0.09899542 -0.21494536 0.15854695 0.19293885 -0.43001786
-0.24878637 0.13063124 -0.14264028 0.02600939 -0.19438455 -0.34839752 0.23271081 0.11496264
0.09172548 -0.08141208 -0.29897332 0.09273294 -0.22200209 -0.2608594 -0.030447427 -0.13130417
-0.20092793 -0.013655523 -0.13283348 0.17393243 -0.2186415 -0.27783155 0.23824032 -0.18824124
-0.09245078 -0.08986067 -0.35439208 -0.19770545 0.023565816 -0.38660988 -0.19377516 -0.3889548
0.07325303 0.00047194574 0.20803836 0.14470051 -0.05893672 0.11351678 -0.3694671 -0.06977181
0.054686014 -0.111993454 -0.21370058 -0.17845826 -0.05229955 -0.0014331094 -0.110019244 -0.16836546
0.23617136 0.121228 -0.1351316 -0.08561694 -0.115922704 0.23611039 0.09359056 0.15680932
0.30505505 0.14185482 -0.28800514 -0.08213711 -0.017233012 0.073584996 -0.1460457 -0.14169778
0.22152247 -0.2280951 -0.19356361 0.17573316 0.13153952 -0.010256269 0.08258526 -0.0882643
-0.1257541 -0.06481579 0.1911131 0.2647618 0.013870456 -0.25438455 0.011681357 -0.24577878
0.17494836 -0.24782339 -0.07234689 -0.24035859 -0.36894974 0.22072564 -0.349337 0.14097846
0.14076133 0.08471645 0.0660184 0.17859639 0.23665874 0.19604407 -0.35831708 0.38717577
0.0078792265 0.05605372 -0.0036259182 0.058922406 -0.14884487 -0.06903773 -0.18976192 0.184689
-0.091179885 -0.12684701 -0.2490824 -0.2159084 -0.22947286 -0.15357676 0.26135418 0.17288151
0.26815745 0.14045975 0.09478032 -0.0002583537 -0.13762896 -0.31049615 0.047434572 -0.19001384
0.17075936 0.27129623 0.027593866 -0.028384032 0.032918606 0.037265282 -0.23294084 -0.1968949
0.2759724 0.37492573 -0.26816192 -0.10342981 0.22755158 0.034572802 -0.22188546 -0.11989711
0.2119803 0.025219029 -0.04970555 0.20430002 -0.3274397 -0.053263877 0.17723304 0.104321525
0.08759372 0.12275683 -0.20093015 -0.016404405 0.10256558 -0.033448745 -0.05396035 0.06680604
-0.17924464 -0.11804105 -0.2544886 -0.16754328 -0.12691 -0.18805611 0.06634291 0.09626569
-0.15991293 0.057293106 0.3174704 0.07308219 -0.039548285 0.043106083 0.014971183 0.1695365
0.23954442 0.0075450945 -0.19749159 -0.029104933 0.053575225 -0.27653918 0.08342873 -0.21135543
-0.14385381 0.15514816 -0.037186544 0.1777739 0.09615095 0.04028732 0.114627756 0.19392994
0.031135349 0.048373073 0.1035914 -0.23031281 -0.1899734 -0.2701262 0.10726704 0.18028072
-0.035188526 -0.03637963 -0.03213725 -0.009728553 0.05437091 -0.18406335 -0.16248682 0.25087303
-0.058241364 0.057610605 0.09070561 0.15408327 -0.19261205 0.26988813 0.1475007 -0.10363828
0.08723033 -0.024198974 -0.084114276 -0.020127349 0.06019556 0.18564662 -0.15051419 -0.30129215
0.13062634 -0.13015033 -0.32131633 0.108743824 0.25941646 0.17867413 0.13530394 0.06295809
00000000: 4d93 0dbd 6e11 49be c8ea 973c c347 97bd
00000010: cb79 763e 15d0 443e 99bb 50be fccb a03d
00000020: a979 a6bc cef5 493e 07ac 95bd bc25 e03d
00000030: bf3f 20be e5bb 1bbe 5741 5a3e c4ba 42be
00000040: c835 803e dad8 0dbd 9cb0 32be 5cb3 d93d
00000050: 2f50 66bd e700 bf3e f439 83bc d39c 2f3e
00000060: 4f99 acbd 0142 1abe c97a 753e 1cbe cabd
00000070: a31a 5cbe 225a 223e c391 453e 4d2b dcbe
00000080: dbc1 7ebe 32c4 053e 4b10 12be a511 d53c
00000090: be0c 47be 2961 b2be be4b 6e3e 8871 eb3d
000000a0: 92da bb3d 60bb a6bd 0813 99be c5ea bd3d
000000b0: 8454 63be 5d8f 85be e26c f9bc 9a74 06be
000000c0: 0dc0 4dbe 6abb 5fbc 8005 08be 581b 323e
000000d0: 8fe3 5fbe f03f 8ebe 45f5 733e 50c2 40be
000000e0: d656 bdbd df08 b8bd e172 b5be 4c73 4abe
000000f0: 190d c13c bbf1 c5be ff6c 46be 1525 c7be
00000100: af05 963d 7c6f f739 0208 553e 5f2c 143e
00000110: a167 71bd 7c7b e83d cb2a bdbe 86e4 8ebd
00000120: 71fe 5f3d d35c e5bd 53d4 5abe c3bd 36be
00000130: 0e38 56bd 2cd7 bbba c551 e1bd ff67 2cbe
00000140: e8d6 713e 6346 f83d f05f 0abe ef57 afbd
00000150: e268 edbd ecc6 713e 68ac bf3d 9f92 203e
00000160: 2d30 9c3e 6442 113e 6975 93be 8037 a8bd
00000170: 3f2c 8dbc bbb3 963d 018d 15be 3919 11be
00000180: c9d6 623e c391 69be 8a35 46be 65f3 333e
00000190: 4cb2 063e e909 28bc 7622 a93d eac3 b4bd
000001a0: afc5 00be 24be 84bd 27b3 433e dc8e 873e
000001b0: e940 633c b13e 82be 2a63 3f3c 6fad 7bbe
000001c0: aa25 333e 6ac5 7dbe 9b2a 94bd 9020 76be
000001d0: fbe6 bcbe e705 623e 4ddc b2be a85c 103e
000001e0: bd23 103e d17f ad3d a834 873d f9e1 363e
000001f0: ab56 723e c7bf 483e 5675 b7be e73b c63e
00000200: df17 013c 9698 653d d0a0 6dbb 9f58 713d
00000210: ca6a 18be a763 8dbd f350 42be 1d1f 3d3e
00000220: 85bc babd 2fe4 01be 750f 7fbe 1717 5dbe
00000230: effa 6abe 3a43 1dbe 37d0 853e da07 313e
00000240: ef4b 893e aed4 0f3e 2f1c c23d a673 87b9
00000250: 9bee 0cbe 5af9 9ebe c14a 423d fd92 42be
00000260: 8bdb 2e3e 57e7 8a3e 880c e23c a185 e8bc
00000270: a9d5 063d 7ba3 183d 0b88 6ebe d19e 49be
00000280: 414c 8d3e 44f6 bf3e 854c 89be 02d3 d3bd
00000290: 4803 693e 369c 0d3d f135 63be 9e8c f5bd
000002a0: 5d11 593e 2398 ce3c 0c98 4bbd 0634 513e
000002b0: 2da6 a7be 392b 5abd 947c 353e 86a6 d53d
000002c0: 5664 b33d ef67 fb3d a2c0 4dbe 8862 86bc
000002d0: e70d d23d 8d01 09bd 8705 5dbd 9bd1 883d
000002e0: e88b 37be 82bf f1bd 544c 82be 7790 2bbe
000002f0: b2f4 01be c891 40be cbde 873d f226 c53d
00000300: 37c0 23be 2dac 6a3d 7b8b a23e 1dac 953d
00000310: 62fd 21bd 0190 303d b149 753c fa9a 2d3e
00000320: 224b 753e d73c f73b 3c3b 4abe 786d eebc
00000330: b271 5b3d 8b96 8dbe afdc aa3d 8f6d 58be
00000340: 6a4e 13be 29df 1e3e eb50 18bd 5c0a 363e
00000350: caea c43d 5104 253d f5c1 ea3d 9295 463e
00000360: 8f0f ff3c d822 463d ba27 d43d 1fd7 6bbe
00000370: 6388 42be fb4d 8abe d2ae db3d 829b 383e
00000380: d821 10bd cf02 15bd 59a2 03bd 8264 1fbc
00000390: 08b4 5e3d 1a7b 3cbe f262 26be 6e72 803e
000003a0: 7f8e 6ebd 19f9 6b3d ddc3 b93d 01c8 1d3e
000003b0: 183c 45be c72e 8a3e 6c0a 173e 4e40 d4bd
000003c0: d1a5 b23d ed3c c6bc 1b44 acbd 1ce2 a4bc
000003d0: 9f8f 763d 261a 3e3e 6420 1abe f742 9abe
000003e0: e9c2 053e 2146 05be 9383 a4be 15b5 de3d
000003f0: 3cd2 843e 5af6 363e 1e8d 0a3e 2cf0 803d

encoder.encoder_g.conv2.bias f4 [32]
-0.021927841 0.12322605 -0.5481121 -0.06332343 0.34559748 0.2693233 0.28330407 0.25362512
0.22311139 0.47730356 -0.43746495 -0.37849012 -0.53439873 -0.41357395 0.24103963 0.28066298
0.28703898 -0.4926784 0.6742376 0.012749871 -0.26849014 0.23727937 0.25492597 -0.121549554
0.051427305 0.011832931 0.2502841 0.5201551 -0.094012596 0.29984522 -0.32674488 0.53314066
00000000: 04a2 b3bc f05d fc3d 1351 0cbf b7af 81bd
00000010: 27f2 b03e bee4 893e 3b0d 913e 27db 813e
00000020: 5077 643e 2261 f43e 68fb dfbe 75c9 c1be
00000030: 5bce 08bf f7bf d3be 18d3 763e 0fb3 8f3e
00000040: c6f6 923e 5840 fcbe d69a 2c3f d6e4 503c
00000050: 8a77 89be 5df9 723e a885 823e f9ee f8bd
00000060: 70a5 523d e9de 413c 3d25 803e e228 053f
00000070: ad89 c0bd 5085 993e 1b4b a7be e87b 083f

encoder.encoder_g.conv2.lin.weight f4 [32, 32]
0.26667395 -0.24840707 0.12635943 -0.36323076 0.0026659798 -0.20262925 0.12894909 0.11226756
-0.3431342 0.081294484 -0.07227993 0.20386945 -0.2385826 0.20093 -0.072154365 0.04252231
0.24615258 -0.034636665 0.14625327 -0.22568356 0.30507177 -0.263535 -0.108830675 0.1438112
-0.10767817 0.019429268 -0.16116814 0.01767788 -0.09363887 0.08184549 -0.14916864 -0.20082562
0.049755756 0.14919631 -0.1355033 -0.21907063 0.36307192 0.13527523 0.41049856 -0.24063961
0.16524394 0.105322905 0.12988885 0.10906264 -0.12925364 0.17189825 0.15153098 -0.020752132
-0.16639043 0.2315976 -0.17161858 0.20666084 0.19678494 -0.23523206 -0.22693704 0.09684667
0.29286742 0.08969534 0.27965918 -0.116130225 -0.14436021 -0.16063288 0.039269276 -0.24275543
-0.1968477 0.023645207 0.22033319 -0.098104745 -0.2062589 0.30134323 -0.10299105 -0.31944942
-0.24099937 0.14050664 -0.18392837 -0.36300743 -0.07228282 -0.13073562 -0.1499886 -0.002754143
-0.27607125 -0.11586178 -0.34141332 0.1042118 0.19721252 -0.017687999 -0.103332154 0.32746315
0.22608905 -0.19533522 -0.16004099 0.19299002 -0.13325058 -0.2205957 -0.09454521 -0.17927958
-0.18518999 0.10654335 0.06636601 -0.06895259 0.07722318 0.20822638 -0.3102678 0.19731104
-0.4634769 -0.18378922 -0.2675083 0.10230084 -0.310404 -0.011094758 0.16970488 -0.30235785
0.13355154 -0.025200697 0.1346897 0.0992069 0.09403433 0.11582881 -0.040758032 -0.1170723
0.2134458 -0.22053732 0.18741725 0.10631281 -0.012607558 0.1825606 0.18474905 0.3065843
0.34153256 0.10742445 -0.22413436 -0.17630331 -0.19163813 -0.1703737 0.043067247 -0.25660208
0.12263532 -0.04250212 -0.24566965 0.005389191 -0.16112909 0.29177037 0.3746815 0.3420725
0.12199211 0.137081 0.29678762 -0.0018517933 -0.10623261 -0.1866618 0.03889847 0.10297118
-0.14767869 0.1852806 0.16471009 0.21140069 -0.062921636 0.32405835 0.26317084 -0.20235834
-0.07272567 -0.15421012 -0.08345168 -0.10774013 -0.021581206 0.11566098 0.40828088 0.26639602
0.32028145 0.00081594626 -0.17985073 -0.17282544 -0.20030427 0.18168539 0.09865507 0.13242073
-0.15764607 -0.2695781 -0.14877534 0.28077728 -0.013422303 0.25329924 -0.2634699 0.13536993
0.20835003 -0.23056684 0.08723495 -0.02137474 0.2529777 -0.26554647 0.30276585 0.08525295
0.4553942 0.11794377 0.18830155 0.092042774 0.3612907 0.09417862 0.2563676 0.20565419
0.24216498 0.14489968 0.0035463423 -0.06782554 -0.1643188 0.10050411 0.2521232 0.21876313
-0.07246745 0.24322397 0.14846602 0.34420618 -0.11880314 -0.02151086 -0.112906344 0.13982292
-0.028869681 0.25285536 0.025541835 -0.12642264 -0.2799387 -0.09836064 0.1488562 0.18014532
-0.15787537 -0.067180395 0.009545321 0.26969963 0.07583534 -0.044133585 -0.113546975 -0.24005088
-0.23352332 -0.036982078 -0.02127318 -0.25116158 0.18430243 -0.19381338 0.25112823 -0.12146153
-0.2906387 -0.1309474 -0.17876393 -0.09970609 -0.20556787 -0.19171396 0.18083438 0.123014644
0.074388914 0.11035355 0.23877344 0.17037736 -0.17714043 -0.066996716 -0.11723378 -0.017632369
00000000: 7d89 883e 6c5e 7ebe 5e64 013e 62f9 b9be
00000010: b8b7 2e3b 0b7e 4fbe 3b0b 043e 89ec e53d
00000020: 49af afbe b97d a63d 8007 94bd 27c3 503e
00000030: ff4e 74be 98c0 4d3e abc5 93bd e02b 2e3d
00000040: 6c0f 7c3e 2ddf 0dbd 6bc3 153e 9719 67be
00000050: 5e32 9c3e 0fee 86be 9ee2 debd 3e43 133e
00000060: 5f86 dcbd 212a 9f3c 4309 25be 34d1 903c
00000070: bcc5 bfbd 9c9e a73d aabf 18be 3ba5 4dbe
00000080: b1cc 4b3d ebc6 183e 61c1 0abe 0d54 60be
00000090: 90e4 b93e 9785 0a3e de2c d23e 3b6a 76be
000000a0: b535 293e 89b3 d73d 9501 053e 3c5c df3d
000000b0: 115b 04be 1806 303e f02a 1b3e 6000 aabc
000000c0: 4162 2abe ec27 6d3e c8bc 2fbe e69e 533e
000000d0: fe81 493e ace0 70be 2f62 68be 8c57 c63d
000000e0: b8f2 953e 31b2 b73d 7d2f 8f3e afd5 edbd
000000f0: 2ad3 13be f27c 24be d2d8 203d e194 78be
00000100: 7292 49be 98b3 c13c 069f 613e 24eb c8bd
00000110: 8835 53be a949 9a3e f9ec d2bd e08e a3be
00000120: 8ac8 76be f9e0 0f3e b857 3cbe 1cdc b9be
00000130: 0409 94bd 8fdf 05be 9d96 19be da7e 34bb
00000140: 3659 8dbe f148 edbd bacd aebe ff6c d53d
00000150: 14f2 493e 6ce6 90bc cf9f d3bd 40a9 a73e
00000160: e383 673e f505 48be c9e1 23be 2d9f 453e
00000170: d772 08be d7e3 61be eba0 c1bd 1195 37be
00000180: 72a2 3dbe 6633 da3d e7ea 873d 0437 8dbd
00000190: 3027 9e3d 4c39 553e 6cdb 9ebe e80b 4a3e
000001a0: d84c edbe 3e33 3cbe d9f6 88be 1a83 d13d
000001b0: 46ed 9ebe cac6 35bc 1ec7 2d3e a6ce 9abe
000001c0: bcc1 083e b171 cebc 19ec 093e fd2c cb3d
000001d0: 1295 c03d a837 ed3d e5f1 26bd 9ac3 efbd
000001e0: 8991 5a3e 89d4 61be 4fea 3f3e 88ba d93d
000001f0: ee8f 4ebc 2af1 3a3e db2e 3d3e 9ef8 9c3e
00000200: 5bdd ae3e 5a01 dc3d 7a83 65be db88 34be
00000210: c93c 44be 7176 2ebe 4867 303d 5961 83be
00000220: 3a28 fb3d b416 2ebd d390 7bbe d097 b03b
00000230: 06ff 24be ed62 953e 41d6 bf3e 2024 af3e
00000240: 00d7 f93d f65e 0c3e 8cf4 973e dfb7 f2ba
00000250: 7c90 d9bd 4524 3fbe 0154 1f3d 8ee2 d23d
00000260: 1539 17be 33ba 3d3e c3a9 283e 6c79 583e
00000270: 0fdd 80bd faea a53e 54be 863e 0637 4fbe
00000280: 32f1 94bd 42e9 1dbe b7e8 aabd dba6 dcbd
00000290: 12cb b0bc aadf ec3d 310a d13e 0f65 883e
000002a0: eefb a33e 3ae5 553a ca2a 38be 27f9 30be
000002b0: 901c 4dbe bc0b 3a3e ab0b ca3d 4d99 073e
000002c0: f96d 21be 2406 8abe 9058 18be 0ac2 8f3e
000002d0: 38e9 5bbc 70b0 813e 87e5 86be 6a9e 0a3e
000002e0: b659 553e b719 6cbe 3da8 b23d 141a afbc
000002f0: 4b86 813e b5f5 87be 2004 9b3e 1999 ae3d
00000300: 6e29 e93e 818c f13d 1fd2 403e ec80 bc3d
00000310: 18fb b83e b8e0 c03d 9d42 833e 0397 523e
00000320: 19fa 773e 9560 143e c069 683b 1ee8 8abd
00000330: 3043 28be 19d5 cd3d 4b16 813e 7103 603e
00000340: d069 94bd b40f 793e 7a07 183e cb3b b03e
00000350: 104f f3bd 8b37 b0bc 713b e7bd bd2d 0f3e
00000360: 1c80 ecbc 4276 813e 1c3d d13c f074 01be
00000370: 2054 8fbe 4e71 c9bd c26d 183e 0478 383e
00000380: 15aa 21be e095 89bd fa63 1c3c 1216 8a3e
00000390: 8f4f 9b3d 6bc5 34bd 518b e8bd e6cf 75be
000003a0: bd20 6fbe 857a 17bd 1845 aebc 4098 80be
000003b0: c7b9 3c3e 0477 46be e193 803e d3c0 f8bd
000003c0: 98ce 94be 1317 06be e40d 37be b532 ccbd
000003d0: 6280 52be aa50 44be a62c 393e 1aef fb3d
000003e0: 3759 983d 0b01 e23d 0681 743e 6777 2e3e
000003f0: 4d64 35be 9335 89bd 4418 f0bd c271 90bc

encoder.encoder_g.linear.weight f4 [32, 1440]
0.037026487 0.025117464 -0.07723175 -0.05780019 0.057293355 0.056640424 0.061766427 0.058074534
0.065847635 0.06803895 -0.060954984 -0.06788364 -0.058787126 -0.06245585 0.08189211 0.041493718
0.05690025 -0.0841211 0.08313769 0.04550122 -0.044985186 0.086229675 0.035942975 -0.008560355
-0.076360576 -0.07156438 0.06332875 0.043343022 0.01993441 0.03513976 -0.077016346 0.048175544
0.06448843 0.069640644 -0.045574576 -0.046634432 0.06560384 0.060062908 0.04414883 0.051919833
0.051748328 0.044007365 -0.07590137 -0.042755034 -0.06749197 -0.059975017 0.07888246 0.035436448
0.052370083 -0.043138083 0.049071074 -0.003149746 -0.07124818 0.039353788 0.055287424 -0.029380592
-0.062489145 -0.061876107 0.039566446 0.03364707 0.05225246 0.044419326 -0.04451346 0.07125632
0.060513653 0.04104139 -0.049256403 -0.039642733 0.05367687 0.058288325 0.04846616 0.07097386
0.05298032 0.052257396 -0.062893234 -0.037351117 -0.068060264 -0.04333613 0.074241795 0.03775168
0.05342079 -0.06733218 0.046110056 0.057325587 -0.04982032 0.04434423 0.06605377 -0.02619617
-0.086098544 -0.07815261 0.08159561 0.06836604 0.043890357 0.03507799 -0.05122094 0.073197
0.06876291 0.017982785 -0.07895126 -0.06357677 0.08346093 0.037022527 0.03030294 0.06820509
0.046198692 0.0771781 -0.072256565 -0.048049834 -0.06607907 -0.05991063 0.072141804 0.073129185
0.075383455 -0.061477594 0.04825012 0.034320068 -0.057837892 0.08107171 0.054607566 -0.0543364
-0.06265435 -0.082130164 0.044437237 0.043398205 0.07295352 0.04934311 -0.0810647 0.0801907
0.08225405 0.04199561 -0.0641823 -0.026712606 0.05133878 0.0823588 0.076601736 0.036904518
0.061305754 0.06686885 -0.08036714 -0.052461043 -0.06823571 -0.07490544 0.066183 0.07912861
0.039538708 -0.05160884 0.05283839 -0.021975752 -0.03595637 0.07043286 0.04861308 -0.006948742
-0.066639364 -0.074941956 0.03717999 0.08117746 0.062258128 0.067447744 -0.046974737 0.05442885
0.05469467 0.038646802 -0.048680183 -0.032905143 0.06565875 0.04624301 0.052866697 0.032046694
0.06617424 0.050970495 -0.0784782 -0.04175505 -0.0464583 -0.054541886 0.056321975 0.081478134
0.035146777 -0.07743659 0.055192895 0.03514385 -0.03498263 0.04631155 0.06265087 -0.02087015
-0.06343605 -0.061373506 0.047534384 0.080542356 0.036034215 0.055269834 -0.0640857 0.06785555
0.08088732 0.038604632 -0.051944524 -0.06377346 0.06988957 0.043918177 0.048369277 0.0536897
0.061556373 0.046803843 -0.07915207 -0.07725304 -0.04298686 -0.036364514 0.062058605 0.05201445
0.079513185 -0.05023084 0.063118614 0.08050808 -0.0725266 0.044554144 0.03115071 -0.012883216
-0.070918754 -0.068645425 0.05784629 0.05425223 0.0653649 0.07104417 -0.06387685 0.06329845
0.0805376 0.0323148 -0.0684192 -0.06163816 0.038640376 0.045284048 0.04742333 0.057552684
0.029262405 0.03140095 -0.043317847 -0.062284943 -0.03374688 -0.048407756 0.06641792 0.04098481
0.0773331 -0.055420324 0.067560814 0.026427604 -0.065977454 0.05697039 0.02428762 -0.045986332
-0.06922847 -0.042165425 0.035446573 0.0533561 0.042272512 0.04932284 -0.038345274 0.06986031
00000000: 16a9 173d 24c3 cd3c ae2b 9ebd e4bf 6cbd
00000010: 70ac 6a3d caff 673d cbfe 7c3d 90df 6d3d
00000020: 20db 863d 0158 8b3d efab 79bd 9406 8bbd
00000030: c5ca 70bd b5d1 7fbd 0db7 a73d 51f5 293d
00000040: 3d10 693d af47 acbd 1844 aa3d 7d5f 3a3d
00000050: 6342 38bd 2f99 b03d f138 133d bb40 0cbc
00000060: ef62 9cbd 5890 92bd 81b2 813d 7488 313d
00000070: 7d4d a33c b5ee 0f3d bfba 9dbd b853 453d
00000080: 8312 843d c19f 8e3d 68ac 3abd bf03 3fbd
00000090: 4e5b 863d 8604 763d 67d5 343d e4a9 543d
000000a0: 0ef6 533d 1141 343d 2d72 9bbd e71f 2fbd
000000b0: 3b39 8abd 5da8 75bd 218d a13d cf25 113d
000000c0: 0382 563d 8fb1 30bd c0fe 483d f86b 4ebb
000000d0: 91ea 91bd 7031 213d 1175 623d 91af f0bc
000000e0: 9ef4 7fbd cd71 7dbd 6d10 223d 83d1 093d
000000f0: ad06 563d 0af1 353d bf53 36bd d5ee 913d
00000100: 2add 773d 041b 283d 15c1 49bd 6b60 22bd
00000110: 47dc 5b3d bdbf 6e3d 7484 463d be5a 913d
00000120: e401 593d da0b 563d 2bce 80bd 7cfd 18bd
00000130: 2e63 8bbd 3a81 31bd 150c 983d 81a1 1a3d
00000140: c2cf 5a3d 74e5 89bd e6dd 3c3d 3cce 6a3d
00000150: 6410 4cbd 4ca2 353d 3347 873d 5a99 d6bc
00000160: 6f54 b0bd 7a0e a0bd 991b a73d 7f03 8c3d
00000170: 60c6 333d f0ad 0f3d 0ccd 51bd 4fe8 953d
00000180: 92d3 8c3d a250 933c 33b1 a1bd 8a34 82bd
00000190: 90ed aa3d efa4 173d df3d f83c 1caf 8b3d
000001a0: d73a 3d3d 8d0f 9e3d 40fb 93bd e7cf 44bd
000001b0: 7754 87bd d964 75bd 15bf 933d c1c4 953d
000001c0: a462 9a3d eecf 7bbd eba1 453d 3393 0c3d
000001d0: 6de7 6cbd ed08 a63d 2fac 5f3d d88f 5ebd
000001e0: ed50 80bd dc33 a8bd d203 363d 51c2 313d
000001f0: a868 953d 001c 4a3d 4005 a6bd 063b a43d
00000200: d074 a83d 9703 2c3d 0272 83bd 65d4 dabc
00000210: 9d48 523d bbab a83d 5fe1 9c3d 3129 173d
00000220: be1b 7b3d 89f2 883d 8797 a4bd 64e1 56bd
00000230: 2abf 8bbd 0668 99bd f48a 873d 2e0e a23d
00000240: 57f3 213d ca63 53bd 116d 583d 7e06 b4bc
00000250: fd46 13bd 1a3f 903d 821e 473d 46b2 e3bb
00000260: 387a 88bd 2b7b 99bd 0c4a 183d 5e40 a63d
00000270: 6102 7f3d 0b22 8a3d 9568 40bd c9f0 5e3d
00000280: 8507 603d 1c4c 1e3d df64 47bd 8bc7 06bd
00000290: 1878 863d 4f69 3d3d c08a 583d 6543 033d
000002a0: 5c86 873d 70c6 503d 2eb9 a0bd 5807 2bbd
000002b0: 0f4b 3ebd 5067 5fbd dfb1 663d 02de a63d
000002c0: 11f6 0f3d 1397 9ebd f211 623d fff2 0f3d
000002d0: f249 0fbd 2eb1 3d3d 194f 803d e0f7 aabc
000002e0: c3ea 81bd c962 7bbd 6ab3 423d 64f3 a43d
000002f0: 9d98 133d 9f62 623d 5d3f 83bd daf7 8a3d
00000300: 40a8 a53d e41f 1e3d c8c3 54bd a99b 82bd
00000310: 4322 8f3d 8ce3 333d dd1e 463d bbe9 5b3d
00000320: 8922 7c3d 63b5 3f3d 7b1a a2bd d836 9ebd
00000330: fd12 30bd f5f2 14bd 2a31 7e3d 1b0d 553d
00000340: cfd7 a23d dabe 4dbd 5544 813d 6ce1 a43d
00000350: d388 94bd 687e 363d c62f ff3c 2014 53bc
00000360: da3d 91bd f995 8cbd 3bf0 6c3d 9637 5e3d
00000370: 08de 853d 9b7f 913d ded1 82bd 9ea2 813d
00000380: e6f0 a43d 865c 043d 5e1f 8cbd 4c78 7cbd
00000390: 5f45 1e3d c47b 393d f73e 423d 5dbc 6b3d
000003a0: b6b7 ef3c 489e 003d 0e6e 31bd 7f1e 7fbd
000003b0: 2b3a 0abd 3647 46bd 1e06 883d b0df 273d
000003c0: d160 9e3d 6c00 63bd 535d 8a3d b47e d83c
000003d0: 301f 87bd c959 693d d5f6 c63c 2a5c 3cbd
000003e0: a8c7 8dbd a7b5 2cbd 6d30 113d ed8b 5a3d
000003f0: f125 2d3d bf06 4a3d ef0f 1dbd ec12 8f3d

encoder.encoder_g.linear.bias f4 [32]
-0.11290674 0.10486385 -0.14741617 -0.2999008 0.013678527 -0.27464983 0.016094645 -0.10848013
-0.034816705 -0.11683048 -0.016115721 0.059746668 0.06751798 -0.04386634 -0.012935976 -0.081479356
0.20846222 -0.23831487 0.15839739 -0.08248551 0.100728974 0.14324112 0.21497458 0.15612307
0.0911171 -0.0208683 0.096330136 0.05499323 0.1640364 -0.1905443 -0.021077404 0.0893152
00000000: a63b e7bd dcc2 d63d 44f4 16be 998c 99be
00000010: e71b 603c e79e 8cbe ebd8 833c d52a debd
00000020: f69b 0ebd d244 efbd 1e05 84bc ecb8 743d
00000030: de46 8a3d 31ad 33bd 6af1 53bc a6de a6bd
00000040: 1f77 553e d008 74be ed32 223e 2aee a8bd
00000050: fe4a ce3d cdad 123e 4c22 5c3e bade 1f3e
00000060: 9a9b ba3d fff3 aabc bc48 c53d 9540 613d
00000070: 28f9 273e 0c1e 43be 85aa acbc e3ea b63d

encoder.encoder_c.conv1.bias f4 [32]
0.025368284 0.04721272 0.0 0.027320888 -0.049539 0.02446772 0.045731835 -0.013530898
0.0 -0.06545939 0.00031198122 0.0 0.03248987 -0.050653774 0.020724088 -0.06373155
-0.0048164804 -0.060054656 -0.033774942 0.0 0.0 0.009285278 -0.06005465 0.013604637
0.03505445 -0.029339861 0.009077096 -0.063930295 -0.052959256 0.018955925 -0.02034837 0.026178915
00000000: 26d1 cf3c 2062 413d 0000 0000 0ed0 df3c
00000010: 68e9 4abd 8770 c83c 4e51 3b3d b3b0 5dbc
00000020: 0000 0000 930f 86bd 6991 a339 0000 0000
00000030: 1914 053d 557a 4fbd 90c5 a93c b085 82bd
00000040: 91d3 9dbb dffb 75bd 9857 0abd 0000 0000
00000050: 0000 0000 4721 183c ddfb 75bd fce5 5e3c
00000060: 4195 0f3d 265a f0bc 1ab8 143c e3ed 82bd
00000070: ceeb 58bd 7549 9b3c a0b1 a6bc 2a75 d63c

encoder.encoder_c.conv1.lin.weight f4 [32, 120]
0.023253607 0.1099558 0.09720516 -0.11998356 0.0254829 -0.054569956 -0.14886712 -0.030558763
-0.060503587 0.095310435 -0.25874186 0.16655084 0.045911547 0.25835702 -0.08394698 0.24030696
-0.11241179 -0.2840612 0.21977814 0.019918736 0.09774339 -0.19885795 -0.086059 0.023006182
0.1273637 0.37205005 0.10555889 -0.09815968 0.13580307 0.1415522 0.065660365 0.05034957
-0.32811794 -0.049127195 -0.019563371 -0.09195502 0.09426562 -0.049551982 0.032572553 -0.13166514
-0.0334236 0.08167316 0.100804165 0.12512709 -0.13549404 0.052504607 0.06251359 0.22459124
0.101153016 0.16188139 -0.10124315 -0.10282905 0.013742872 0.31014127 -0.24445048 0.010609431
-0.07948961 0.15143771 -0.025547951 0.40414548 -0.08289024 0.066516675 -0.17385978 -0.15406314
0.06076811 -0.04367118 -0.15802914 0.036618564 -0.046314575 0.15435837 0.14921434 -0.081477724
-0.068104945 -0.044366974 -0.27877635 0.2286582 0.03205041 -0.24740566 0.14620087 -0.2521695
0.04868296 -0.10879627 0.18647157 -0.08365283 0.21434975 0.015486071 -0.26610732 -0.18614936
0.086632654 -0.20193362 0.15708365 0.1827848 0.12434832 -0.09589736 -0.10432057 -0.14048757
-0.09308784 0.0063821264 0.115981914 0.0774366 0.13408296 0.11138207 -0.20356947 0.04374589
0.057075642 0.058112297 -0.27731508 -0.083122805 -0.052430276 -0.16614778 0.11062002 -0.07099348
0.08779883 -0.0026468183 -0.134443 -0.07691817 -0.08619644 0.16549513 -0.0028782967 -0.07434351
-0.21628372 0.09834961 0.1799123 0.29494554 0.14236818 -0.11621911 0.18398198 0.052384615
-0.29897502 0.18935913 0.114275135 0.13578476 0.14633138 0.10051988 0.037087742 0.15332817
-0.10094451 -0.17646708 -0.0072561866 0.094523795 0.13756543 -0.11052687 0.3132803 0.036895018
-0.066345476 -0.19768088 0.0070773326 -0.03114099 -0.06837452 0.2130644 0.06444703 -0.0023140714
-0.010499477 0.027555175 -0.1767564 -0.18643127 -0.114718474 -0.057102777 -0.097708024 -0.1382606
-0.39326218 0.01628801 -0.04494354 0.11595705 0.38102093 -0.18378004 -0.2803946 0.35004812
0.10022662 -0.1413323 -0.043700494 0.15207957 0.23939502 0.15700255 -0.074873194 -0.1349524
0.08001502 0.23563927 -0.026056997 -0.10413808 -0.01969345 -0.09900123 -0.19207077 -0.0062142215
0.16620933 0.117460415 -0.123260014 0.28269985 0.38864642 -0.064326935 0.04611751 -0.093892634
-0.24827714 0.1582792 0.13737628 0.14401807 0.099927016 0.119715415 0.07236707 -0.060306165
-0.049388926 0.06724683 -0.07391221 0.029272472 0.042994186 -0.105203554 0.1333586 -0.18142861
-0.22438373 -0.19900227 -0.18994513 0.28515714 -0.3624438 0.10293367 0.19974321 0.5089411
-0.12855044 0.035033833 -0.113880955 0.060791254 -0.08603891 0.028865393 -0.11551836 -0.15504868
0.008220291 -0.09259024 0.20503703 -0.083941355 -0.06960341 0.21035738 -0.15905324 -0.19832057
-0.05744349 0.010262331 0.17784835 0.2781561 0.051513366 -0.045551263 0.21502706 0.06324046
-0.12981574 -0.16091548 0.008903518 -0.15198596 0.08740538 -0.05460647 -0.06466148 0.12133862
-0.04384441 -0.15465319 -0.113298945 0.0287109 -0.18596901 -0.034056913 0.15955007 -0.19445996
00000000: 597e be3c 8230 e13d 8013 c73d f1b9 f5bd
00000010: 84c1 d03c bf84 5fbd 9f70 18be 5f56 fabc
00000020: 9cd2 77bd 1e32 c33d d079 84be 4e8c 2a3e
00000030: bf0d 3c3d 5f47 843e 65ec abbd 0713 763e
00000040: 2738 e6bd 7870 91be 850d 613e 9e2c a33c
00000050: b02d c83d 6ba1 4bbe b33f b0bd 7677 bc3c
00000060: a16b 023e 587d be3e 422f d83d f107 c9bd
00000070: f60f 0b3e 0ff3 103e f178 863d 5a3b 4e3d
00000080: 13ff a7be 9939 49bd 5d43 a0bc ea52 bcbd
00000090: 550e c13d 05f7 4abd cc6a 053d 3ad3 06be
000000a0: 2fe7 08bd 4244 a73d 6a72 ce3d 5121 003e
000000b0: f3be 0abe 120f 573d 2007 803d 3ffb 653e
000000c0: 5029 cf3d 3cc4 253e 9258 cfbd 0998 d2bd
000000d0: c829 613c d6ca 9e3e 3a51 7abe 2ed3 2d3c
000000e0: 73cb a2bd 7d12 1b3e f049 d1bc 28ec ce3e
000000f0: 5cc2 a9bd e539 883d 4c08 32be bac2 1dbe
00000100: fbe7 783d 8de0 32bd 64d2 21be 59fd 153d
00000110: 5ab4 3dbd 1f10 1e3e a5cb 183e cbdd a6bd
00000120: 9b7a 8bbd 25ba 35bd c6bb 8ebe 6025 6a3e
00000130: 4a47 033d e957 7dbe aeb5 153e 5c1c 81be
00000140: c967 473d 94d0 debd 67f2 3e3e 2d52 abbd
00000150: 807e 5b3e 4ab9 7d3c 383f 88be f09d 3ebe
00000160: 766c b13d b0c7 4ebe 89da 203e f02b 3b3e
00000170: 55aa fe3d d665 c4bd 06a6 d5bd f9db 0fbe
00000180: d6a4 bebd 2821 d13b ed87 ed3d 1597 9e3d
00000190: 0b4d 093e 481c e43d 8474 50be e42e 333d
000001a0: 26c8 693d 2907 6e3d 3efc 8dbe 4a3c aabd
000001b0: 21c1 56bd a522 2abe c08c e23d 0865 91bd
000001c0: dfcf b33d 3e76 2dbb 6dab 09be 4687 9dbd
000001d0: c287 b0bd 8e77 293e cea1 3cbb 6941 98bd
000001e0: 7b79 5dbe 856b c93d ee3a 383e 1a03 973e
000001f0: f7c8 113e 4904 eebd c665 3c3e 4091 563d
00000200: 4113 99be 5ce7 413e 1509 ea3d 290b 0b3e
00000210: e5d7 153e 5edd cd3d 51e9 173d 0f02 1d3e
00000220: ffbb cebd c9b3 34be 4ec5 edbb b195 c13d
00000230: f4dd 0c3e e95b e2bd 4766 a03e 3b1f 173d
00000240: 23e0 87bd db6c 4abe f8e8 e73b 641b ffbc
00000250: f107 8cbd 8e2d 5a3e cefc 833d ada7 17bb
00000260: 0006 2cbc 64bb e13c a1ff 34be d7e7 3ebe
00000270: 85f1 eabd 9ae4 69bd 251b c8bd 3094 0dbe
00000280: a959 c9be 6f6e 853c b816 38bd e47a ed3d
00000290: 2d15 c33e d630 3cbe e28f 8fbe 8239 b33e
000002a0: 9d43 cd3d 6ab9 10be 4aff 32bd bfba 1b3e
000002b0: f823 753e 47c5 203e 1e57 99bd f630 0abe
000002c0: eade a33d 6c4b 713e 7c75 d5bc 5846 d5bd
000002d0: 2854 a1bc 28c1 cabd 33ae 44be aba0 cbbb
000002e0: c732 2a3e 168f f03d bf6f fcbd 09be 903e
000002f0: aafc c63e d7bd 83bd b7e5 3c3d c84a c0bd
00000300: 5d3c 7ebe f113 223e 5eac 0c3e 7979 133e
00000310: 89a6 cc3d 5b2d f53d 3035 943d 9903 77bd
00000320: 0b4c 4abd b5b8 893d 495f 97bd d3cc ef3c
00000330: ac1a 303d f674 d7bd 288f 083e 6cc8 39be
00000340: d9c4 65be 40c7 4bbe fa80 42be 1e00 923e
00000350: 3c92 b9be e3ce d23d 7c89 4c3e f749 023f
00000360: baa2 03be a37f 0f3d 6b3a e9bd 4000 793d
00000370: 2b35 b0bd 1e77 ec3c e494 ecbd 15c5 1ebe
00000380: 66ae 063c f49f bdbd 3af5 513e 72e9 abbd
00000390: 3c8c 8ebd ed67 573e dade 22be 8c14 4bbe
000003a0: dd49 6bbd 5623 283c e11d 363e 7a6a 8e3e
000003b0: aeff 523d f693 3abd 0e30 5c3e 3784 813d
000003c0: 6bee 04be 07c7 24be 10e0 113c 35a2 1bbe
000003d0: 9801 b33d 09ab 5fbd 3d6d 84bd 6280 f83d
000003e0: 3296 33bd 685d 1ebe 4709 e8bd 1f33 eb3c
000003f0: a96e 3ebe 437f 0bbd 1861 233e 8320 47be

encoder.encoder_c.conv2.bias f4 [32]
0.020223219 0.21134602 -0.07145544 0.025124762 0.17458224 0.11599126 -0.04956094 -0.057023723
0.114431515 0.23292097 0.05550072 0.14281505 -0.050055005 0.066479206 -0.016503144 0.20781659
0.067903295 -0.010338782 0.026821535 -0.01149949 0.124783464 0.12161899 -0.06257433 0.017895158
0.20045844 -0.067226164 0.071571596 -0.0060118586 0.12704116 -0.20529966 -0.15794517 -0.06084367
00000000: 2aab a53c 176b 583e 3b57 92bd 72d2 cd3c
00000010: b0c5 323e d38c ed3d 6a00 4bbd b591 69bd
00000020: 125b ea3d d682 6e3e b954 633d 1c3e 123e
00000030: 7a06 4dbd 4026 883d 9a31 87bc dfcd 543e
00000040: e210 8b3d ff63 29bc d6b8 db3c 5b68 3cbc
00000050: 798e ff3d 6113 f93d f826 80bd de98 923c
00000060: fa44 4d3e dfad 89bd 2194 923d 20ff c4bb
00000070: 1417 023e 133a 52be 61bc 21be 3637 79bd

encoder.encoder_c.conv2.lin.weight f4 [32, 32]
-0.27066645 -0.24234839 0.15083393 -0.06475028 0.21830584 0.07431731 0.12675196 0.22264083
-0.03514521 0.1489872 -0.15640599 -0.18276355 0.47755644 0.04049186 0.2849718 0.13240749
-0.22544579 -0.28839195 0.1298304 0.16603592 -0.03820933 -0.092788465 -0.13659655 0.15766458
-0.15123855 0.15862049 0.021803763 0.1757445 -0.090392545 -0.3573911 0.0036325406 0.2079683
-0.33263394 -0.09451683 -0.1538017 0.035137758 -0.101967886 0.26468793 0.225627 0.20644458
-0.15983537 0.30586085 -0.27910945 0.30271378 -0.08583541 -0.16799794 -0.34133974 0.2662849
0.2737846 0.10564097 0.11048652 -0.13104485 -0.1022782 -0.088806234 -0.10433521 0.06357622
-0.30006135 0.09608886 0.27936453 -0.13452503 -0.21671827 0.2767467 -0.24010678 -0.21817428
-0.23255502 0.46740782 0.014514833 0.058867466 0.04953949 0.05697318 -0.11602998 -0.10666116
0.12331425 0.23124678 0.068580255 0.23008643 0.1399979 0.1479704 0.069253 -0.11410051
0.07901275 -0.14092837 0.025747849 0.05673083 0.014372043 -0.049798623 0.021315593 -0.5172631
0.24424094 0.365089 -0.22270712 -0.031425145 -0.16319828 0.07786844 0.2028841 -0.2604394
0.068747975 0.18224093 -0.11730952 0.14355128 -0.18108474 0.2570458 0.12416803 -0.3963474
-0.098998986 0.18351215 0.13973954 -0.11041524 -0.114583395 0.26941273 -0.0684763 -0.107894115
-0.1684211 -0.1397675 0.28580585 -0.04760289 0.07172057 0.34136355 0.0810024 -0.101042345
-0.28271604 -0.099425845 -0.28985035 0.18607931 -0.025697773 -0.16272636 -0.07728816 0.17597254
0.08275035 -0.2945094 0.077793114 0.31248283 0.25939426 0.05012808 -0.027201666 -0.12896763
0.1724078 -0.0016152505 0.34393403 -0.2517544 -0.030615445 0.045103274 0.34721243 0.17267723
0.15694115 0.21931008 0.0852655 0.16530365 0.0109560955 -0.26054695 -0.17009154 0.053796254
0.07730931 0.31813505 -0.19466886 -0.14046322 -0.17792718 -0.1920106 -0.37852696 -0.40803307
-0.17899455 0.17435865 0.14620048 -0.11421072 -0.1717562 0.32273394 -0.1940742 0.056950614
0.18407379 -0.2519984 -0.07512725 0.23826803 -0.32500726 0.09539092 -0.30870092 0.027797146
0.07890098 0.096249536 0.21695766 0.28317493 0.25052872 -0.056925766 -0.3648139 0.37686872
0.17156306 -0.110525005 0.09550318 -0.011753658 0.0271557 -0.11792801 0.16848171 -0.14434354
0.13835827 0.04982077 0.19544289 -0.1648953 -0.31124324 -0.23138513 0.0004093537 0.1931
-0.054524645 0.1686987 -0.100428715 0.28451633 0.036895853 -0.012239941 0.17643589 0.14787692
0.35391712 0.13354479 -0.2666462 0.030785508 0.25228596 0.05093301 -0.029515922 0.174805
0.06475468 -0.027262168 -0.15533182 -0.0858845 -0.18308972 0.011010779 0.043518633 -0.3977164
0.039306384 -0.13772997 -0.21163042 -0.11076288 0.1333494 0.2776147 -0.09289577 -0.3827632
-0.005228185 -0.290128 -0.2840046 -0.15478155 0.21801442 0.023980206 0.2911581 -0.13788083
0.19062886 0.20859677 0.011604518 -0.023011506 -0.046576027 0.30861112 -0.22377023 -0.0073656635
0.046730883 0.029051164 -0.2818393 -0.024688365 -0.017970584 -0.3146381 -0.28528187 0.048042327
00000000: cb94 8abe 2d2a 78be 3674 1a3e cb9b 84bd
00000010: 918b 5f3e ac33 983d 44cb 013e f5fb 633e
00000020: 6cf4 0fbd 1a90 183e e428 20be 5e26 3bbe
00000030: 4782 f43e cbda 253d d3e7 913e d495 073e
00000040: 43db 66be 1ca8 93be 43f2 043e 5205 2a3e
00000050: 6381 1cbd e107 bebd f7df 0bbe d372 213e
00000060: 47de 1abe 696d 223e ce9d b23c 5ef6 333e
00000070: ba1f b9bd f7fb b6be eb0f 6e3b a4f5 543e
00000080: ff4e aabe 0a92 c1bd 317e 1dbe 9cec 0f3d
00000090: 8ad4 d0bd 2d85 873e c40a 673e 3566 533e
000000a0: e2ab 23be cb99 9c3e 6fe7 8ebe 4dfd 9a3e
000000b0: 7aca afbd a707 2cbe 15c4 aebe 7f56 883e
000000c0: 7f2d 8c3e 4b5a d83d c246 e23d 9f30 06be
000000d0: 3c77 d1bd 0be0 b5bd b3ad d5bd 4034 823d
000000e0: a4a1 99be 3cca c43d de08 8f3e eec0 09be
000000f0: 65eb 5dbe beb1 8d3e 8dde 75be 1469 5fbe
00000100: e722 6ebe 1450 ef3e 9fcf 6d3c 031f 713d
00000110: ece9 4a3d b65c 693d 20a1 edbd 2b71 dabd
00000120: 2e8c fc3d f5cb 6c3e ce73 8c3d c79b 6b3e
00000130: 9c5b 0f3e 8d85 173e 84d4 8d3d 87ad e9bd
00000140: 70d1 a13d 874f 10be 27ed d23c 965e 683d
00000150: b878 6b3c a4f9 4bbd 0a9e ae3c 5b6b 04bf
00000160: 4c1a 7a3e f2ec ba3e 560d 64be a7b7 00bd
00000170: 731d 27be 7d79 9f3d d9c0 4f3e 5058 85be
00000180: bdcb 8c3d 5e9d 3a3e f93f f0bd 1bff 123e
00000190: 476e 39be 829b 833e cf4b fe3d 0cee cabe
000001a0: fbbf cabd 9cea 3b3e e217 0f3e 6321 e2bd
000001b0: b3aa eabd 77f0 893e 4d3d 8cbd 97f7 dcbd
000001c0: 9576 2cbe 361f 0fbe 2555 923e 3ffb 42bd
000001d0: 3ce2 923d 34c7 ae3e 96e4 a53d 4aef cebd
000001e0: 28c0 90be c79f cbbd 4467 94be 938b 3e3e
000001f0: 2384 d2bc bda1 26be 4149 9ebd 2532 343e
00000200: 0479 a93d f0c9 96be ff51 9f3d c0fd 9f3e
00000210: 53cf 843e 1a53 4d3d 07d6 debc 1710 04be
00000220: ac8b 303e d0b6 d3ba 1f18 b03e f4e5 80be
00000230: 3ecd fabc 36be 383d d4c5 b13e 4dd2 303e
00000240: 2eb5 203e d292 603e ae9f ae3d 5c45 293e
00000250: 3281 333c 6966 85be 7a2c 2ebe 7659 5c3d
00000260: 5854 9e3d 99e2 a23e 4657 47be 97d5 0fbe
00000270: 8b32 36be 6d9e 44be 49ce c1be b6e9 d0be
00000280: 594a 37be 138b 323e 94b5 153e 4fe7 e9bd
00000290: dbe0 2fbe 623d a53e 63bb 46be 0c45 693d
000002a0: d77d 3c3e ef05 81be 51dc 99bd 89fc 733e
000002b0: 5a67 a6be 515c c33d 0c0e 9ebe d7b6 e33c
000002c0: d696 a13d 7a1e c53d 262a 5e3e 4efc 903e
000002d0: 4d45 803e fe2a 69bd e3c8 babe f0f4 c03e
000002e0: 3aae 2f3e ef5a e2bd 2c97 c33d 6a92 40bc
000002f0: a175 de3c 3e84 f1bd 7886 2c3e cbce 13be
00000300: caad 0d3e dd10 4c3d 2e22 483e 50da 28be
00000310: 465b 9fbe 39f0 6cbe 869e d639 02bc 453e
00000320: 3c55 5fbd 5abf 2c3e 92ad cdbd 20ac 913e
00000330: 1b20 173d 098a 48bc 9cab 343e 0c6d 173e
00000340: a034 b53e f7bf 083e da85 88be e431 fc3c
00000350: a02b 813e 229f 503d 60cb f1bc 1500 333e
00000360: 1a9e 843d e954 dfbc 4e0f 1fbe 36e4 afbd
00000370: df7b 3bbe 8e66 343c 9840 323d 7ca1 cbbe
00000380: bbff 203d 1609 0dbe a5b5 58be a6d7 e2bd
00000390: bf8c 083e 8423 8e3e 2340 bebd 8af9 c3be
000003a0: 3251 abbb a88b 94be 0d69 91be 0e7f 1ebe
000003b0: 2c3f 5f3e 2372 c43c ad12 953e a230 0dbe
000003c0: 3634 433e 649a 553e e020 3e3c a082 bcbc
000003d0: 81c6 3ebd 4702 9e3e 0624 65be aa5b f1bb
000003e0: e268 3f3d b5fc ed3c 3e4d 90be 413f cabc
000003f0: 0c37 93bc 3f18 a1be 7710 92be 08c8 443d
