output/sc/model_pth/seqfish_trained_gae_model.pth (torch, 221663 bytes, 10 tensors)

encoder.encoder_g.conv1.bias f4 [32]
00000000: 25fe 8cbd 528a f8bd 19a3 d0bd daff d7bd
00000010: 60e7 41be 6e81 e7bd 3318 06be 524a 95bd
00000020: 4cf9 f7bd e705 dabd 9f82 bbbd acda b0bd
00000030: f83d d9bd a093 f4bd b533 01be 0470 edbd
00000040: 8c4e e7bd 0b99 21be f9ec c3bd ac4b 08be
00000050: 3523 74bd 03d4 28bd 7c29 e0bd bcde 37bd
00000060: 1bd1 d1bd ba2c a3bc 8558 aabd b3c6 21bd
00000070: 5201 f5bd ab3e eebd 386f 1cbd 26eb aebd
-0.06884412 -0.121357575 -0.101873584 -0.10546847 -0.18935919 -0.11303984 -0.13095169 -0.07289566
-0.121080965 -0.10645657 -0.09155773 -0.08635458 -0.10607523 -0.1194222 -0.12617381 -0.11593631
-0.112942785 -0.15781038 -0.09566683 -0.13310117 -0.05960389 -0.041217815 -0.109454125 -0.04489015
-0.10244962 -0.019918788 -0.08317665 -0.039496135 -0.119631425 -0.11633047 -0.038192004 -0.08540945

encoder.encoder_g.conv1.lin.weight f4 [32, 64]
00000000: 4fde 41be b977 0fbd 218e 253e d721 533e
00000010: defc 253e 94d6 67be d1b0 bb3e e6e9 13bc
00000020: ea90 8cbc 6b15 d4bc 8ccb 1abc 529b fc3d
00000030: 51bd 623e da57 df3d 18ae d0bd a1ad 26bd
00000040: e55f 0b3e 9137 b63d 20e6 523e 3164 10be
00000050: a995 80be 0002 043e 8d5d c9be a220 25bc
00000060: 2fc0 623e 1bdc 05be e0ac 953e 7083 a1bd
00000070: 3021 9bbd c15a a8be 1395 89be 31ca a83c
00000080: 039c 84bd e56c fb3e 9e02 a03e 2aab fc3d
00000090: fdb6 1cbe fe06 583e 4abc a9be 9a19 723d
000000a0: 5a0a 873d e814 b33d 4e47 42be 7c0e a03d
000000b0: 2788 1a3e 7875 5c3e 70f0 3dbe e9d7 3bbd
000000c0: 04d5 44be 7e3a 1b3d df77 cfbd 7ea0 b33e
000000d0: d326 50be 5873 22be 3a00 623d a587 ef3d
000000e0: 078a 933e 8122 8b3e bd31 82be ccaf 43be
000000f0: cd94 7dbe c1df 24be 94b8 cbbe f084 94be
00000100: db6a aabe 68f2 083d 6a51 aa3e 45c3 4fbe
00000110: 5ab1 89bb cc98 d43d 6af8 d2be 79bc f43c
00000120: 72b5 853e 8ded f5bd f519 df3d b8f6 183e
00000130: 5dbd 833e 07de 7e3c 88db 85bd aae4 03bd
00000140: 9e9f 113d 2804 5a3e e0bb 7d3e c6e2 7dbe
00000150: 1728 a33d de9b d53e 9d88 c4be 1d5b 3cbc
00000160: 9425 1f3e beb8 ab3e 506d 473e 2f55 b9be
00000170: cf18 6e3e 3d3e 9c3d 1380 b6bd b504 43be
00000180: f261 2f3d c95d a93e 7739 b5bd db28 aabc
00000190: 4662 f73d 24a7 cc3e ca4a 573d ad26 1abe
000001a0: 2d0d 38bc 3b95 ddbd 07f3 5abe e0b3 7e3e
000001b0: 3036 e3bd 7e68 28be 635b fc3d 74de 8f3e
000001c0: b330 6bbe d7fd bc3e 042e 9f3c 273d 4b3d
000001d0: 66ee c4be b4d5 803d fb1a 5d3e 4735 083d
000001e0: e85d 23be 081e 883e 8478 583e 0f8f 1cbe
000001f0: 59a1 2e3d 6d0e 59bd 3b14 debe 246e 38be
00000200: b335 003e c272 afbd cf6b b3bc aa15 223e
00000210: 781c 31be 9d15 903d b776 18be 5120 3a3e
00000220: 692c 183e 1407 3b3e d50b 65bd db2c 643c
00000230: a116 46bd 4bd0 4bbe fb79 793e 75e0 713e
00000240: b710 573c 59a0 403e fd51 2a3e bcd1 f2bd
00000250: d872 a83d 2ee9 783e 393e 8ebe 789c 683e
00000260: 517c a83d 2596 3fbc 7dc5 ba3c 4312 a0be
00000270: 907e cabd 456b 9ebe a37c 563e 80a4 abbd
00000280: 3fed a6be 1f96 79be 7989 293e ab0d aa3e
00000290: c6f4 493d 49f3 6b3d 9b61 b03b 9118 163e
000002a0: d4c9 3a3d 11f0 8dbe 57a4 8abd 12da 41bc
000002b0: 3252 43be b720 3c3b 81af 7a3e 139a 473e
000002c0: 2197 64be 033f 5c3e 440b 063e 5a63 c03e
000002d0: 86b2 15be dc04 533e 6739 00bc 82b7 3d3e
000002e0: 5e05 363e 026d 963e 6da6 7cbe 0064 39be
000002f0: f08c 72bd 1218 c9bd 553d 043e a495 bbbe
00000300: c141 cabd a1a1 6bbe 2861 533d c670 81bb
00000310: f882 36be 0a4f 423e 9d57 a03d c094 543d
00000320: 549d 073d eb70 2cbe 8821 1e3d 79db d7bd
00000330: b47d f93c cff6 afbc 0af0 e93c db67 4cbd
00000340: b248 aabc 055c 703e 9c64 6dbc b6fe 65be
00000350: d2d7 9cbd 1d9e 913e b9ac a2be 528e 4d3e
00000360: a85b 15bd 7f4b 3e3e 06e2 953e e6f9 10bd
00000370: ef73 c43e efcd 89be 5a91 81be d0b5 01be
00000380: 3398 c73b d5c4 c83e b4a5 8ebd 7886 753e
00000390: 7c15 41bd f2c7 ef3d 81ba 50be fda1 e8bd
000003a0: 46e2 9f3c b363 a3be 6630 9dbe 752d de3d
000003b0: e419 70be c7e4 a6bd 8a71 093d 2f61 28be
000003c0: 8acf c9bd a8b9 593e e7fc f73d 3e46 1a3e
000003d0: e902 65be 08a6 8ebe b94c 17be e587 103e
000003e0: 7dbd 84bd 3297 27be c3a3 a83e 76ab a0be
000003f0: 6061 33be 6cab 56bd a0c5 f9bb 1898 c13d
-0.1893246 -0.035026286 0.16167499 0.20618378 0.16209742 -0.22640449 0.36658338 -0.009027934
-0.017158944 -0.02588912 -0.009447943 0.123343125 0.22142531 0.10905428 -0.10189456 -0.04069293
0.136108 0.08897317 0.20595598 -0.1410072 -0.25114182 0.12891388 -0.39329186 -0.010078581
0.22143625 -0.13072245 0.29233456 -0.07886398 -0.075746894 -0.3288174 -0.26871547 0.020604225
-0.064750694 0.49106517 0.31251997 0.123373345 -0.1530418 0.21096417 -0.33151466 0.059106447
0.06593771 0.08744222 -0.18972513 0.07815263 0.15091 0.21529186 -0.18548751 -0.045860205
-0.19221884 0.03789758 -0.101302855 0.35083383 -0.2032731 -0.15864313 0.055175997 0.11695794
0.28816244 0.27174762 -0.25428572 -0.1911003 -0.24763794 -0.1610098 -0.3978926 -0.29007673
-0.3328465 0.0334343 0.3326524 -0.20289333 -0.00420205 0.10380706 -0.4120515 0.029875027
0.26114994 -0.120082 0.10893623 0.14937866 0.2573041 0.015555865 -0.06536013 -0.032200493
0.035552613 0.21290648 0.247787 -0.24793538 0.07966631 0.4172048 -0.38385478 -0.0114963325
0.15541679 0.33539385 0.19475293 -0.36197802 0.23251651 0.076290585 -0.08911147 -0.19044764
0.042818017 0.33079365 -0.08848851 -0.020771435 0.12079291 0.39971268 0.05256156 -0.15053816
-0.01123361 -0.10819479 -0.2138177 0.24873304 -0.1109432 -0.1644611 0.12322118 0.28099406
-0.22967796 0.36912414 0.019431122 0.049618866 -0.38463134 0.06290761 0.21592323 0.033253934
-0.15953791 0.26585412 0.21139723 -0.15288948 0.042634342 -0.052992273 -0.4337481 -0.18010765
0.12520485 -0.0856681 -0.021901993 0.15828577 -0.17296016 0.070353724 -0.14889036 0.1817639
0.14860691 0.18264419 -0.055919487 0.01392671 -0.048361424 -0.19903676 0.24362938 0.2362078
0.013126544 0.18811168 0.16632839 -0.1185641 0.0822503 0.24307701 -0.27781847 0.22715938
0.082268365 -0.011693512 0.022799248 -0.31263933 -0.09887421 -0.30941215 0.20945983 -0.08380985
-0.3260288 -0.24373673 0.16556348 0.33213553 0.0493057 0.05760506 0.005382729 0.14657809
0.045602635 -0.2772222 -0.067696266 -0.011831777 -0.19074324 0.0028706023 0.24481012 0.19492368
-0.22323276 0.21508412 0.13090235 0.375758 -0.14618883 0.20607322 -0.007826186 0.18527034
0.17775485 0.2938004 -0.24672861 -0.18104553 -0.05921644 -0.09819044 0.12914021 -0.36637604
-0.09875823 -0.23010875 0.051606327 -0.003950211 -0.17823398 0.18975464 0.07829211 0.05189967
0.033109024 -0.1683995 0.038606197 -0.10539908 0.030455448 -0.021479992 0.028556842 -0.04990373
-0.020786617 0.23472603 -0.014489319 -0.22460446 -0.07658352 0.28440943 -0.31772402 0.20073822
-0.036464363 0.18583487 0.29274005 -0.03539457 0.383697 -0.26914927 -0.25306207 -0.12667012
0.0060911416 0.3921267 -0.06965199 0.23977077 -0.04713963 0.117080584 -0.20383646 -0.11359022
0.019517075 -0.31912002 -0.30700988 0.10848514 -0.23447376 -0.081491046 0.033555545 -0.16443323
-0.09854038 0.21262228 0.12108784 0.15065858 -0.22364391 -0.27861047 -0.14775361 0.1411434
-0.064814545 -0.1636627 0.3293744 -0.31380814 -0.17517614 -0.052409574 -0.0076224357 0.09452838

encoder.encoder_g.conv2.bias f4 [32]
00000000: 3304 e63e e7b5 4ebd 414c c2bc f5db 87be
00000010: 9e58 883e f002 fcbe 8d52 c53d 17a8 a33d
00000020: 6a58 553e 80b7 b5be 4a5e a6bd 72b3 e0be
00000030: 7495 a13e 7cc6 43ba 578c 1ebc deda 383e
00000040: 76ad a5be a750 653e 256d ba3d 3d9f 073f
00000050: d083 f5bc 5654 efbe 0c23 fdbd 652a 85be
00000060: 74cc ebbc f04e a63e f532 643e e16f ed3e
00000070: 15e7 8c3e 3e34 bf3e 5448 4dbe 122f ccbe
0.4492508 -0.050466444 -0.023718001 -0.26535 0.2663011 -0.4922099 0.09634886 0.07991045
0.20834509 -0.35491562 -0.08123453 -0.43886906 0.31559336 -0.0007468236 -0.009677014 0.18052241
-0.32358903 0.22394048 0.09102849 0.52977353 -0.02997008 -0.4674403 -0.123602 -0.26008907
-0.028784014 0.324821 0.22285064 0.4637442 0.27520052 0.37344545 -0.20047122 -0.39879662

encoder.encoder_g.conv2.lin.weight f4 [32, 32]
00000000: 158e 5abd 9d5b 9abe b498 2fbe f0af c93d
00000010: 4710 8c3c f770 943d 2e74 a93c 1e88 5d3e
00000020: 101b 83be cddc 593d 9bc8 bdbe 8096 ccbe
00000030: 4c63 a8bc 3a3b 9f3d 7768 0fbd 6f7b a4be
00000040: 1562 50bd 8092 a1bd 140f df3d ceb4 b5be
00000050: 7b69 82be 9cb7 d93d a5e2 f9bd 5c32 b8be
00000060: 12fa 723e 7ad6 50be 58d2 c63d 6a5b 77be
00000070: 6563 353e ce76 70be 8651 453d 4e41 bd3d
00000080: 77c1 abbe d3c6 d4be 2454 87be e766 19be
00000090: 5059 73be 6052 693e e3e8 6d3e 3d52 a13d
000000a0: 2edd 133d 6cad 053e 2a2a 8bbe 0e03 083e
000000b0: 28d9 5d3e f3e9 27be 4e45 973c fe2a 84be
000000c0: cbd0 56be a19e 31bd eee7 a3be 9e70 343e
000000d0: d8c1 1bbd 6bdf 7b3d 746f 3cbe 641b 07be
000000e0: 07b9 08be ade5 de3c b5b9 56be dd0a 4abe
000000f0: dff2 30be 8448 aabe 2b31 7fbd 8f92 28bc
00000100: d22d 0abe 3d9e 14be cdb8 5d3d f159 91be
00000110: a9cd 64be 44bb 20bd 087d 4cbe 89c5 7f3e
00000120: 4066 7cbe 0db2 c13c 5969 133e af3e 8c3c
00000130: e159 0cbe b4e2 a4be 0da4 423e 9ffb f4bd
00000140: e268 febc 8bb8 933e 6137 86be 9bc3 8d3e
00000150: b6e9 7abe b112 c13d 4515 3e3e 63dc 6ebe
00000160: 80ba 2ebe 1963 28be 719e 27bc 33e0 16be
00000170: 5d47 efbd 7f5d ccbc b972 633d c726 173e
00000180: ea3f c3be e293 2b3d 6b3f 2cbe a2e0 fcbd
00000190: a0ea b63d ecfc 713e 38b4 3dbe 9127 6ebe
000001a0: e994 edbd cb48 e43d 0e45 583e b362 483e
000001b0: 5575 d53d c109 a93d a97d 543d 1e35 b2bd
000001c0: 0a49 e8bd 1285 b3bd 79b4 0d3e 8aaf 733e
000001d0: 0e9b 61be ebac 13be f7f3 b23d e68b ed3d
000001e0: 2652 4b3d 4e08 083e a9fd 94be e04a a5bd
000001f0: 12cc 85be 1441 873d 4546 04be b065 633e
00000200: ec55 bc3c 0450 83be 8ed1 02be 6557 843e
00000210: 8cba 743e 7758 4dbe 82fa cbbd 615e 4dbe
00000220: b2ec 553e f935 0f3e 0be0 153d d164 4bbe
00000230: 8578 a9bd 31d8 8bbe 1b52 24bd 033c dabd
00000240: 9c21 8c3d 6160 733e ed13 2e3d 5b31 2fbe
00000250: f87f 883d 939a 8bbd 2b63 cabc 0292 2d3d
00000260: 133a 423e 36af bd3d 039a aebe 2ce1 263e
00000270: c478 103e ff0a 94be 0a5a d13d a5d5 5f3e
00000280: a5bb 853c f194 87bd 85f8 853e d90a d43e
00000290: 3d3f 0abe 98f7 273e 3c00 713e 296f 3b3d
000002a0: c38b 813e a4da 763e e150 cb3d 3420 873e
000002b0: f8be 5ebe 7e89 08be ecf0 793e 7f8c 6f3e
000002c0: c4b7 343d 2426 82bd 677e 9e3d b002 f63c
000002d0: 775f bcbd d7be 903e 2ac8 edbd 3030 2e3e
000002e0: db91 753e bbb7 f9bd 2a64 d9bd ba2d 44be
000002f0: 55d0 0fbe ff3d 3fbe ad04 c3bc b26f 99bd
00000300: 5002 16be a2e2 ef3d db56 01be 8f3f 7fbd
00000310: b398 273e 17bd f33d 7167 853e cb08 67bd
00000320: f675 9f3e 3722 d43c 0b50 2a3e 41d2 efbd
00000330: 831d 6c3e ba8f 6bbe ce8a 8a3e e8a3 39bd
00000340: 97d3 6d3e fc84 2f3e 0bd4 1cbe 9534 09bd
00000350: 3db3 a6bd 9308 5a3e 3b4f a2bc 9840 82bd
00000360: 00a9 94bd e2b7 393e cfb4 353e 039c 87bd
00000370: 8f85 d93d 7458 593e 2ce1 8a3e 84bc d9bd
00000380: 245e ccbe f76b 283e b2f3 c73d 8dcb 10be
00000390: 1f0d f0bc 5980 313e f2bf febc c912 84bd
000003a0: a074 94be b8b9 ee3e 1dcb 0abe 55ab 2cbe
000003b0: ddb3 553e b3d6 c53d eb4f 19bd 1e44 ad3e
000003c0: 23f8 4cbe 90cc 98bd 549f 1bbe 2ee6 7abe
000003d0: 3bc3 233e 7bcc 2c3d 1c4a adbd 2c0c 5bbe
000003e0: e319 9f3e 7d2b aebe d67b 193b c4b0 e0bd
000003f0: 481a 51bd 7720 243e 1054 3abe 9bc6 633e
-0.053358156 -0.3014802 -0.17148095 0.098480105 0.017097605 0.07248109 0.020685282 0.21633956
-0.25606585 0.053189088 -0.37067112 -0.39958572 -0.020555161 0.077749684 -0.035011735 -0.32125422
-0.05087479 -0.07889271 0.10891548 -0.35489506 -0.254711 0.10630724 -0.12201432 -0.3597592
0.23728207 -0.20394316 0.09708089 -0.24155965 0.17713697 -0.2348282 0.04817345 0.092409715
-0.3354604 -0.4155794 -0.26431382 -0.1498066 -0.23764539 0.2278533 0.2323337 0.07877014
0.036099605 0.13054436 -0.27180606 0.13282415 0.2166487 -0.16397838 0.018465664 -0.2581405
-0.20978086 -0.04336417 -0.32012886 0.17621085 -0.03802666 0.061492365 -0.18401891 -0.13194042
-0.13351832 0.027209127 -0.20969279 -0.19730707 -0.17280148 -0.3325845 -0.06230275 -0.010288849
-0.13494042 -0.14513488 0.054131318 -0.28388932 -0.22344078 -0.03924109 -0.1996957 0.24977697
-0.2464838 0.023644472 0.14395656 0.017119734 -0.13706161 -0.3220421 0.19007893 -0.119620554
-0.031055871 0.28851733 -0.26214126 0.27688298 -0.24503216 0.09427393 0.18562801 -0.23326258
-0.17063332 -0.16444053 -0.0102306465 -0.14733963 -0.11683533 -0.024946926 0.05552933 0.14760886
-0.381347 0.04188908 -0.16821067 -0.12347533 0.0893147 0.23631638 -0.18525779 -0.23257281
-0.11600668 0.11146697 0.21120092 0.19568901 0.1042277 0.082538135 0.05187765 -0.087015375
-0.11342056 -0.087656155 0.13838376 0.23797432 -0.22031805 -0.14421432 0.08737939 0.11598949
0.04963889 0.13284418 -0.29099777 -0.08070922 -0.26132256 0.066042095 -0.1291743 0.2220676
0.02299019 -0.25646985 -0.12775251 0.25847927 0.23899287 -0.20053278 -0.0995989 -0.20055534
0.20891073 0.13985433 0.036590617 -0.19862677 -0.082749404 -0.27313378 -0.040117364 -0.106559776
0.06842348 0.23767234 0.04249947 -0.17108671 0.06665033 -0.06816592 -0.02470549 0.042375572
0.18967466 0.092619345 -0.34101877 0.16296834 0.14108568 -0.2891464 0.10222252 0.21858843
0.016324827 -0.06620205 0.26166168 0.41414526 -0.13500686 0.16403043 0.23535246 0.045760307
0.25301942 0.24106842 0.09927536 0.26391757 -0.21752536 -0.13333699 0.2440831 0.23393439
0.044120565 -0.06354931 0.07738953 0.030030578 -0.09197896 0.282706 -0.11610444 0.1701057
0.2398142 -0.12193247 -0.10614808 -0.19158068 -0.14044316 -0.18675993 -0.02380594 -0.07492007
-0.1464932 0.11713149 -0.12630789 -0.062316474 0.16366844 0.119013004 0.26055482 -0.05640487
0.31144685 0.025895221 0.16632096 -0.117100246 0.23058133 -0.23004046 0.27059025 -0.04532233
0.23225246 0.17140573 -0.15315263 -0.03349741 -0.08139656 0.21292333 -0.01981317 -0.063599765
-0.07258797 0.18136552 0.17744754 -0.06621554 0.106211774 0.21225148 0.27124918 -0.106316596
-0.39915574 0.16447435 0.09763278 -0.14140148 -0.029303132 0.17334117 -0.031097386 -0.064488955
-0.28995228 0.46626067 -0.13554044 -0.16862233 0.20869394 0.09660091 -0.03742973 0.33841032
-0.20016532 -0.07460892 -0.15197498 -0.24501869 0.15992443 0.042187195 -0.08461401 -0.21391362
0.31074437 -0.34017554 0.002341976 -0.10971215 -0.051050454 0.1602801 -0.1819613 0.2224373

encoder.encoder_g.linear.weight f4 [32, 1440]
00000000: c36b d13d 8a74 a23b a115 813d e2ae 313d
00000010: 5cec 663c 1e32 8e3c 768f d03c 99cc bc3e
00000020: 4686 843d a7ff f2bd c20f 74be ce8a debd
00000030: a489 1f3e f482 aebc c492 e5bd 885e 00ba
00000040: d21e 91be a5ee b9bd 4167 5a3d e7ac 5e3d
00000050: 7595 8abd 0b70 e4bd 9f26 59be feb6 083b
00000060: 2788 933e 80a9 813d 8734 9f3e 470b 4fbc
00000070: 42a2 043e 3ccc 91bb a065 22be 7932 c8bc
00000080: d23c 833d 5425 e9bd 45c9 c8bd ac55 f93c
00000090: 9248 c23c 226f 933c cf10 d63d ef4a 4e3e
000000a0: fdf9 b63d 34a2 103c 0378 a9bd 1c7d b33b
000000b0: df9a 643a 532d 053d ac44 f6bd 52e6 81bb
000000c0: 058c 90bd 36a7 d03d 7993 e53d 2aa7 16bd
000000d0: 6aec dd3d 4c08 23bd 3e40 47bd f547 cc3d
000000e0: 402a 433e e5f2 4f3d de20 313e 1cf6 42bc
000000f0: 593a 323d d945 28bd 12da 0abd b416 dabc
00000100: 5dfa e23d 3096 8dbb 3c0a 493d 17c1 a13d
00000110: bb1d 273d d921 d33c 6342 be3d 9a1a ae3e
00000120: c508 593d 7577 e1bd c01c 3cbe a185 b5bd
00000130: 8182 b73d ec45 ad3b 8e6e 0ebe 3116 07bd
00000140: 1a3f 50be e52c b3bd 55a9 5b3b 3af9 463d
00000150: 2b18 73bd 8c17 14be c3ae 07be 1ecc 833a
00000160: 2bb2 833e 3621 413e ad1e aa3e c10a 7d3c
00000170: ecff 093e 01f7 0cbd a96b 0abe a48d 87bd
00000180: fca8 f43d 8f41 0dbe 62ff 73bd 0cb4 613d
00000190: d91f 813d 60f7 1fbc c835 a83d 3767 883e
000001a0: 1045 be3d b1e3 bc3c fe86 e2bd f86e 8ebc
000001b0: a46f bb3c 4935 833d f784 37bd 67f0 b83b
000001c0: 6747 07be f876 8d3d 7fe1 f63d c42c 6cbd
000001d0: 9169 3b3d fc93 14bd c35f a3bd d530 9b3d
000001e0: f74e 463e 7ca5 463d 79d5 363e 41df cebc
000001f0: 1cee de3c e208 7fba 7176 93bd 7ab1 19bd
00000200: 89ca f13d 6438 8fbd b86a 8ebb d2b0 a43b
00000210: df81 0b3d a660 bd3a a0a7 5d3d df1a aa3e
00000220: 1193 553d acf2 56bd 6198 18be 85f8 0cbd
00000230: be61 d83d ab37 313c b406 fbbd 4eb9 07bd
00000240: 41d3 7ebe e81b 85bd ba95 7e3d 2c87 1d3d
00000250: 1245 6b3c 4c0b e8bd fbe9 30be 92a0 0f3d
00000260: 84b4 913e b332 903d 68d2 a03e 7e1b 6f3c
00000270: 8e35 9f3d 847a 0cbd 675b 01be b671 13bc
00000280: 4f55 cb3d 1674 2cbd 9e84 4fbd d183 fa3c
00000290: 59ec 203d ad06 20bc 2a2f 313d 437f 933e
000002a0: 1be2 5a3d a388 38bd ee5a 2ebe 3ca6 88bd
000002b0: ca8e ed3c e017 173d bba9 c9bd 3eae 0fbc
000002c0: 6d52 f5bd 0595 c9bc 3c49 5e3d e4ee 0ebc
000002d0: 6b25 70bd 12b0 ddbd 1644 07be 48cf 4b3d
000002e0: 791a 6d3e 8088 f23d 4d1d 913e 2ddf 16bd
000002f0: 4d5c f53d 24c8 82bc 317a febd 89df bfbc
00000300: b806 e43d bfc8 b4bd 1870 89bd e3b0 303d
00000310: 263f 903d 28e4 483d cb89 c83d eb2e 883e
00000320: a2bf 943d 7913 d9bc 0f86 bebd 6342 9ebd
00000330: 262e 203d 9d26 ef3c 75e7 c5bd e721 89bc
00000340: f8e7 47be a4ed ccbb a7d5 a33d f6b4 263c
00000350: 7085 773c 22e2 bfbd 3de9 e9bd 576c 593d
00000360: 8866 6b3e a587 9b3d f6f4 823e 521f 5cbc
00000370: 211c ac3d 1026 95bc 2fe6 02be e565 193c
00000380: 76ad 613d 62b9 21bc b245 92bd d44f 863d
00000390: b53d 713d c67f d43c 2b4c 093e d9bd 753e
000003a0: f622 ca3d e0d1 adbc 0e86 babd 81db a6bc
000003b0: 9a8c debc 7ea9 9c3c 7156 47be 079d af3c
000003c0: d619 17be a224 473d 810a 103e b200 edbc
000003d0: 5614 813d 8cfe d0bd 488c a0bd 141e 333d
000003e0: 2da5 013e f4f2 2f3d ba79 3c3e 87b8 0dbd
000003f0: 7acc bd3d 5264 1dbd 69d7 91bd 983d 16bd
0.10225632 0.00495774 0.063029535 0.043379672 0.014094438 0.017357882 0.025459033 0.36874846
0.06470923 -0.11865168 -0.23834136 -0.10866319 0.1557985 -0.021302678 -0.11209634 -0.0004896899
-0.28343827 -0.09078721 0.053321127 0.05436411 -0.06766788 -0.11154183 -0.21206139 0.0020861025
0.28814813 0.06331158 0.31094763 -0.012636966 0.12952521 -0.0044493955 -0.1585908 -0.02443813
0.06408085 -0.11384073 -0.09804014 0.03043636 0.023716245 0.017997328 0.10452425 0.20145772
0.089344 0.008827735 -0.082748435 0.0054775607 0.00087205874 0.032513928 -0.12024817 -0.003964224
-0.070579566 0.10188143 0.11209769 -0.036780514 0.10836108 -0.039802834 -0.04864525 0.09974662
0.19059086 0.05076875 0.17297694 -0.011899497 0.043512676 -0.041082237 -0.033899374 -0.026622154
0.11082909 -0.0043208823 0.049082026 0.07898157 0.040799838 0.025772976 0.09290006 0.3400467
0.05298688 -0.11009113 -0.18370342 -0.08863378 0.089604385 0.0052878764 -0.13909361 -0.032980148
-0.20336571 -0.08748797 0.0033517678 0.048577525 -0.05934922 -0.14462107 -0.1325026 0.0010055338
0.2572187 0.18860325 0.3322653 0.015444458 0.13476533 -0.03441525 -0.13517632 -0.06618813
0.11946294 -0.1379454 -0.059569724 0.055103347 0.063049026 -0.009763569 0.08213383 0.26641247
0.092905164 0.02305779 -0.11060904 -0.017386898 0.022880383 0.06406648 -0.04480454 0.0056438926
-0.13210832 0.06907457 0.12054729 -0.05765988 0.045754973 -0.03627394 -0.079772495 0.07577673
0.1936606 0.048497662 0.17854871 -0.02525294 0.027213149 -0.00097288017 -0.07200325 -0.03752277
0.11806209 -0.069931775 -0.004346218 0.0050259614 0.0340594 0.0014448359 0.054114938 0.33223626
0.052142207 -0.052477524 -0.14901878 -0.034416694 0.10565518 0.010816495 -0.12257138 -0.033135705
-0.24885274 -0.06499463 0.06215451 0.038458988 0.014359729 -0.1133028 -0.17276756 0.03506524
0.28458035 0.0704092 0.31410527 0.014593957 0.077738866 -0.034296528 -0.12632523 -0.008999279
0.09928381 -0.042102896 -0.050663583 0.030580433 0.0392879 -0.009767217 0.04325787 0.2880803
0.053438287 -0.045052182 -0.17026874 -0.06672332 0.028998751 0.036888003 -0.09846827 -0.00876957
-0.11978612 -0.02460719 0.05426906 -0.008723948 -0.058629435 -0.10824598 -0.13209566 0.049758226
0.2315463 0.118424416 0.28342667 -0.03683393 0.119804956 -0.015964575 -0.1242565 -0.02342202
0.11134094 -0.08827352 -0.06710833 0.043137442 0.070432946 0.04904571 0.09791907 0.26598296
0.072631136 -0.026498543 -0.093029134 -0.07727506 0.03910651 0.029193217 -0.096632876 -0.016739799
-0.19522083 -0.006253915 0.07999735 0.01017498 0.015107498 -0.09369303 -0.1142144 0.053081837
0.22988331 0.075942315 0.25577515 -0.013435202 0.08403803 -0.018206626 -0.1278312 0.009362672
0.055097066 -0.009870859 -0.071421996 0.06558195 0.05889674 0.025939833 0.13407962 0.23998202
0.098699495 -0.02121824 -0.091076 -0.02036834 -0.027166653 0.019123789 -0.19466569 0.021437181
-0.1475595 0.04861892 0.14066507 -0.028930996 0.06302707 -0.10204801 -0.078392565 0.043729857
0.12660666 0.042956308 0.1840581 -0.034599807 0.092675164 -0.03842575 -0.07121164 -0.036679834

encoder.encoder_g.linear.bias f4 [32]
00000000: 3f63 4a3e d394 cc3c 7ef2 b43d 8f03 60bb
00000010: d327 69be 1a39 573e b679 d03d cbae 1abd
00000020: fb9d fdbd 78cf cabd ed69 683e b72c 103c
00000030: eada 24bc 75fd 323e 0d76 5dbc 8913 38be
00000040: d701 ca3e 4872 1b3e f014 7abe 1afa a5bc
00000050: 864c 4d3e 33b5 a83c 7c4b 133d 4e0c afbc
00000060: e133 28bc 8c72 90be 4313 afbe 38b3 05bd
00000070: b449 8e3d 610e 843e a259 c6bd 3583 9abd
0.19764422 0.024973309 0.08835314 -0.0034181809 -0.22769098 0.21017876 0.101794645 -0.03776435
-0.12383648 -0.09902853 0.22696657 0.008799723 -0.010061959 0.17479499 -0.013516915 -0.17976202
0.3945453 0.15180314 -0.2442205 -0.02026086 0.20048723 0.020594215 0.03596066 -0.021368172
-0.010266275 -0.28212392 -0.34194383 -0.03264162 0.069476515 0.2579222 -0.09685065 -0.07544557

encoder.encoder_c.conv1.bias f4 [32]
00000000: cc29 3c3d 7a29 d03d 1485 d63d 30dd f83d
00000010: 2799 813d 863c ef3d 500f e43d f969 e53d
00000020: f473 893d c14f e73d 046e 523d 820b af3d
00000030: 39f9 f63d 26f6 b33d b305 253a 6cc3 a03d
00000040: d09d a03c 5954 a93d f262 d03d 788d f43d
00000050: bdc7 a23a 43fc 003e 41a9 b53c 2c45 913d
00000060: 70e8 a93d 9a09 b33d 6a21 d23d f127 083e
00000070: b857 f2bb 43a4 bb3d 0da3 f13d a293 b53d
0.045938298 0.10164161 0.104746014 0.12151563 0.063280396 0.11681466 0.11135733 0.11201853
0.067115694 0.11294509 0.05137445 0.08547117 0.12059254 0.087871835 0.00062951 0.07849774
0.0196065 0.08268041 0.10175122 0.119410455 0.0012419146 0.1259623 0.022175433 0.070932716
0.08296287 0.08742066 0.102602795 0.13296486 -0.007395711 0.0916219 0.117986776 0.08866049

encoder.encoder_c.conv1.lin.weight f4 [32, 125]
00000000: 2adf 533e 29b5 4c3d 5fa7 8a3d f9a5 be3b
00000010: 5c95 a73e 9912 a43e 5047 6f3e c360 86be
00000020: bb45 22bf 7be5 963d 005f d03e f160 b83c
00000030: 1aad 183e fd3e edbd 3191 0bbd 5fdc 3dbd
00000040: fada 13bf 2b7a 1e3f 0aa3 093d 7cae 5fbe
00000050: 94e0 243e 3152 67be e891 cd3d 924d 8e3d
00000060: 1347 b8be a4a7 f83d d37c ab3d 2aef d4bd
00000070: 2dd6 db3e 4e43 073d c8da e83c 1f10 5f3e
00000080: 5a3e 693e f042 f43d 6fb6 c43e fae9 353e
00000090: 4043 f33d cbe7 d9bd 2ac9 08bd 20f7 ca3d
000000a0: 80c7 d53e 9e6b e83d 2773 c23c cb7a 643e
000000b0: bde1 ae3d eb42 e4bd 9202 0e3e 080f f6bd
000000c0: dd8c 503e ecfb a3bd 5809 8c3d 0c91 9ebc
000000d0: 859b f83d c8d1 20bd 8b7f 85bd f282 e4bd
000000e0: ea10 8b3e 8f50 033e b7cf bc3d a7fc 0dbe
000000f0: a7c2 e13e 40ad d73c 295f 843d 12e4 373e
00000100: 5dd7 2dbc f7de 4cbf e299 13be 76e2 a53e
00000110: 4a85 6fbe f247 5dbc 7ed6 53be 1e69 b8be
00000120: 41bb c63e 255c 65be ffad ae3e 2ec8 5d3e
00000130: 1f7e abbe 4db2 4a3e 0d39 c13d c6a6 3b3e
00000140: 5849 a33e 7af4 113e fe6e 5fbe 9a66 96be
00000150: 2453 fc3d 83fa 81be 499a 38be 6bc7 863e
00000160: 5125 463e 6eec 92bd 4ece b83d e5f3 cb3e
00000170: 5301 57be 62c8 4ebe 3ec3 3c3f b6ba 1b3c
00000180: 77ab ca3e a9a0 4ebd 672b 833e 806e dfbe
00000190: d704 0ebe f5f5 74be 0e79 9ebd a285 56bd
000001a0: c81c 17bf c81c 50be 447b 7ebd 1ac0 20be
000001b0: 0187 a63e 59fa 61be 5683 20bd 9a78 4bbe
000001c0: 86ba a5be 3ad0 2e3d e93f f43e 116b 10be
000001d0: c33c 92bd 4119 8dbe 932e dcbe 028a 08bf
000001e0: 501f a2be 9109 74be 4356 823c 3885 79bd
000001f0: 334c 153f a809 d83e d43a 14be 1d0a cb3e
00000200: 3d57 17be 67cc 95be 38f9 e83d 5f2f 09be
00000210: 99f0 9abe 33d9 24be ac67 9b3d 8266 8c3e
00000220: 9fd4 b5be 93b4 f7be 3097 68be f0fa e03d
00000230: 6cf0 6bbe 6b79 2b3e b445 90bd f316 333e
00000240: 2674 a3be e84a 263d 91d4 40be 010e ab3e
00000250: 7eb8 88bd d2b0 edbd 11a1 50be c8c4 e4be
00000260: 7c96 9cbe 1f56 df3e 8ca6 61be 6c9d d13d
00000270: 0d41 99bd 99d1 093f b9a3 fdbd 7af6 d73c
00000280: eb01 973d 089a f53e 73e0 aabc a0e7 a03e
00000290: c240 523e 43f0 493e 6ee6 a13e 645d e3be
000002a0: eb20 083e bb71 82bd b7a1 a63e e38d a23e
000002b0: 6dab 9dbe 583a e43b 115c 7d3e 4747 8c3e
000002c0: 329a b2bd e2d3 013e 2dcf 293e d0ac 1dbe
000002d0: 3ac7 123d 7abf 033e c922 86be d9c6 893e
000002e0: 8896 a63e 0c41 a3be f85b c13e a37b 013f
000002f0: 6cbd f43e 7215 ecbe 005e 053f 15f9 803f
00000300: fdf9 e13e 3245 36be 489f 0cbe a856 873e
00000310: 5007 413e 6aba e53d 95ff aa3e c836 ecbe
00000320: 3f86 d93d d1d2 e33e 7006 933e fa6d a0bd
00000330: 5bac 00be 03ce 17bf 8c31 52be e4c6 643e
00000340: 4c9b a33e 1a4d 8b3e 1638 00be 9adf 883e
00000350: 2eb0 34be ce30 923d d59d 903d d1be ddbc
00000360: 3fa0 923d 9fa2 73be 8c21 fb3d 6767 ebbe
00000370: 2230 b23e f739 90bd 9dc3 c2be 86cd f3bd
00000380: a530 08be 4982 4bbe 00e6 2fbf 4052 5fbe
00000390: 63e8 233e 9bd2 35be 9773 59be 78a7 bebe
000003a0: 9884 5bbe 3a78 4bbe 8e97 413e 4044 00bb
000003b0: 8938 ff3e be4a d5bd d941 54be 104d 3c3e
000003c0: ead4 18bd c8f2 89be 289d 37bd ab91 73bd
000003d0: f406 933e 18b4 993d 71ff 943d ec12 933d
000003e0: afdb 58be 7ea0 bf3e f4ed 47be fa52 603d
000003f0: de2a 2cbf 37d2 d63e 44b8 173e c62e 21bd
0.20690599 0.049977455 0.06770205 0.0058181253 0.3273114 0.3204544 0.23367047 -0.26245698
-0.6338765 0.07367989 0.4069748 0.022507163 0.14909783 -0.1158428 -0.034074012 -0.04635274
-0.57756007 0.61905164 0.03360275 -0.21843904 0.16101295 -0.22589947 0.10037595 0.06948389
-0.35991725 0.1214135 0.08373418 -0.103971794 0.4293684 0.03302317 0.028424636 0.21783493
0.22777691 0.1192683 0.38420436 0.17765036 0.11878061 -0.10639914 -0.03339497 0.099104166
0.4175377 0.11348651 0.02373655 0.22312467 0.0853915 -0.11145576 0.13868168 -0.12014586
0.20366235 -0.08007035 0.0683772 -0.019356273 0.12139038 -0.039262563 -0.065184675 -0.11157788
0.27161342 0.128237 0.09219306 -0.1386591 0.4409382 0.02632773 0.06463463 0.17958096
-0.010610429 -0.8002772 -0.1441417 0.32399338 -0.2339069 -0.013505923 -0.20687291 -0.36017698
0.38814738 -0.22398432 0.34117123 0.21658394 -0.3349466 0.19794579 0.0943471 0.18325338
0.31891894 0.14253417 -0.21819684 -0.29375154 0.12320545 -0.25386438 -0.18027605 0.2632402
0.19350173 -0.07174002 0.090237245 0.39834514 -0.20996599 -0.20193627 0.73735416 0.009504965
0.39583942 -0.050446186 0.2561905 -0.43638992 -0.13869034 -0.2392195 -0.07737933 -0.052373536
-0.5902829 -0.20323479 -0.062129274 -0.15698281 0.32524875 -0.22068156 -0.03918775 -0.19870225
-0.3236887 0.04267905 0.4770501 -0.14103343 -0.07140496 -0.2755833 -0.43004283 -0.53335583
-0.31664515 -0.23831774 0.015910273 -0.060918063 0.58319396 0.42194867 -0.14475566 0.39656153
-0.14779373 -0.2925751 0.1137566 -0.13396977 -0.30261686 -0.1609848 0.07588133 0.27421957
-0.3551378 -0.48379955 -0.22713923 0.109853625 -0.23040932 0.16745536 -0.07044545 0.17489223
-0.31924552 0.04059878 -0.18831088 0.33409122 -0.06675814 -0.116059914 -0.20373942 -0.44681382
-0.3058356 0.43620393 -0.22036189 0.10235104 -0.074831106 0.53835446 -0.12384743 0.026362646
0.07373413 0.4796908 -0.020858979 0.31426716 0.20532516 0.19720559 0.31621116 -0.4440719
0.13293807 -0.063693486 0.32545254 0.31748876 -0.3079485 0.006964963 0.24742152 0.2739813
-0.08720817 0.12678483 0.16582938 -0.15397954 0.03583453 0.12866011 -0.26198414 0.2690952
0.3253672 -0.31885564 0.3776548 0.5057928 0.47800767 -0.4611011 0.5209656 1.0076014
0.44136038 -0.17799833 -0.13732636 0.264333 0.18850446 0.11217196 0.3339812 -0.46135545
0.106213085 0.44496778 0.2871585 -0.07833476 -0.12565748 -0.59298724 -0.20526713 0.22341496
0.3195442 0.2720726 -0.12521395 0.26733094 -0.17645332 0.07138215 0.07061354 -0.027068527
0.07159471 -0.23792504 0.12262258 -0.45977327 0.34802347 -0.07042306 -0.38039866 -0.11904435
-0.13299806 -0.19873919 -0.6871033 -0.2180872 0.16006617 -0.17756121 -0.212355 -0.37237144
-0.21437299 -0.19870082 0.1890547 -0.001957193 0.4984782 -0.104146466 -0.20728244 0.18388772
-0.037312426 -0.2694304 -0.04482761 -0.05946509 0.28716242 0.07505053 0.07275284 0.071813434
-0.21177553 0.37427133 -0.19524366 0.054766633 -0.6725291 0.41957256 0.14816386 -0.039351247

encoder.encoder_c.conv2.bias f4 [32]
00000000: cff5 983d 0eeb 433d 4304 90bd 27da 89be
00000010: c415 3abe 9cc7 0a3e c21f e8bc 24a7 3abe
00000020: 481a b1bc 8b49 aabd 9c9d f73d f053 a43d
00000030: 7159 e33d 97bf 43bc 1ed2 e33d be89 67be
00000040: 86ac eebd ffed f93d fb10 8a3d 0d5c 35be
00000050: eed2 b23e 4ead 943b d9fb 403d 1240 63bd
00000060: 7051 da3d e622 84bd 92ea 47bd 595b 88be
00000070: 0b31 6cbd e49f 99bc bb2e ccbd 98bf c6bd
0.07468759 0.047831587 -0.07032063 -0.2692425 -0.18172365 0.13552707 -0.028335456 -0.18227822
-0.021618977 -0.083148085 0.120906085 0.08023822 0.11101044 -0.011947534 0.11124061 -0.22611138
-0.11654 0.12203597 0.0674152 -0.17710896 0.34926552 0.004537261 0.04711518 -0.055481024
0.10660064 -0.06451969 -0.048807688 -0.26632193 -0.05766396 -0.018753 -0.09969851 -0.09704512

encoder.encoder_c.conv2.lin.weight f4 [32, 32]
00000000: f730 37be 74e4 e3bd 4b82 093f e5cc c3be
00000010: c645 e73e 5dca 0abd 0826 a63e 30f8 ef3e
00000020: 7a94 8a3e 5e53 403e 6fc9 33bd adde 90be
00000030: 498e 9abe 6041 3bbe 0484 acbe 41ed 2dbe
00000040: d92e 4d3d 7d40 f9be a8ae 2f3e 3725 8e3e
00000050: 59ce 99bd 0ddc f43e d045 b13e ef73 583d
00000060: ef51 273e 6ba9 6abd 39ec 99bd aeeb 37be
00000070: c881 c3bb d5f3 a3be a59c 723d 4a1d 7bbd
00000080: c676 b4be c311 0dbf ce20 8dbe 54bc 5a3e
00000090: 2d8d b43e d1ce 173e 9bd7 80be 80d9 51bd
000000a0: faf5 cabd 9f2f 413d f85a 023e 57b8 91be
000000b0: e206 5abd 9885 223e 1ce8 7f3e 5856 f9be
000000c0: 3473 5ebe 47ae b5bc 8991 abbc 7e5c e33e
000000d0: 0888 143e 684a 1cbf 6e76 d7bd e989 aa3e
000000e0: 9c2f 3abe 9efb 363e 3668 773e 23b2 1bbe
000000f0: 0eda 01be 1e43 243e 442a e73e 4193 d5be
00000100: e1cc 70be 414a e7be dd1d e9be f6d9 7ebe
00000110: 7476 b53c dcb6 8cbe 2218 4a3e 34e9 5cbb
00000120: b37a 62be 2766 97bd d139 b93e 9f15 b33e
00000130: d6b3 1b3f 7d88 d53e 29b8 513d 7c3c 6d3e
00000140: a183 473e 6985 8dbe 26d5 ec3d f91d ccbd
00000150: 4ff5 953d 732c 463e 0536 b93d 12be 1a3e
00000160: d7ff 273d ea5e bb3e 4abd cb3e bb3d 83be
00000170: 3a45 a5bd b3fd f9be da47 0cbf d7cd 8c3e
00000180: 5c85 5ebe 2cf3 4c3d f4b7 a9be 1e1d 27be
00000190: bedc 183e 4ae2 cf3c 8e6a d0bd 2119 bdbe
000001a0: b623 e13e 4298 b03e 6073 92be 2023 983e
000001b0: d1a5 8ebe 43de 1bbe 9062 a2be d700 39bd
000001c0: 1ab9 debe 487f 1bbe 1ea9 073b 9a11 c83d
000001d0: b130 8e3e d301 8e3e 7979 c73e e5d6 11bf
000001e0: f30d fc3d 55c3 cf3e bb57 483e 95e1 af3e
000001f0: 3907 69bd 51b9 a3be 5215 5b3c 1770 11be
00000200: 5d91 b3bd 6d1f adbe 49a6 a03e dfd5 7f3e
00000210: d011 b03e 96d9 2f3e 3920 513e 9eb8 4e3e
00000220: f812 a7be 901a db3e cff0 3cbe 342a eabe
00000230: d962 f1be 0132 223d 2078 53be 1d8c 35bd
00000240: 93ce 593c eb47 be3e 9fb6 e43d fea0 3c3e
00000250: 402c 673e 6077 fb3e c1d0 cfbe ecc7 73be
00000260: 07d1 8a3e 218e fabe 0a3b 663e ce12 79bd
00000270: 0c0e d43c d3db a23e ffba cf3d cb51 c3be
00000280: 4f2e a0be 71de 48bd 62ba 5c3e 1817 063f
00000290: 6add 98be a4e3 5abe cc3f 8bbe 0df4 cc3e
000002a0: fe3f a2be b399 dabe 7291 10be 2eda e4be
000002b0: cf00 6ebc 731e 3abe c197 573e 5426 c73b
000002c0: a2ac 13bb 51ea 9abe 7eb8 083f 19db 6f3e
000002d0: 84e3 d5bc 29cb 38bf d7b5 6b3e 10b5 d7bd
000002e0: 5dfe 243e 0f55 533e d857 42bc ba2c 5a3e
000002f0: 0695 94be b129 88be 3c92 063f 755d 57bd
00000300: 2eea 4cbe db6e 8a3e 7e6f bd3e 4d01 15bf
00000310: 90ba 153f 3fd7 11bf 82f6 28bd f14a 26bf
00000320: ec13 cc3e 94d1 81be 84e7 04bf b660 62be
00000330: 819b 6ebe 7bf3 79be 145f 5a3e 3468 16be
00000340: 6754 453e debc 263f 341d adbe 336a db3e
00000350: 5dd8 22be fd8a 5f3c 3d78 803e e806 65bd
00000360: 3e2e ea3d 0905 16bd 79cd 60bd 8e40 4dbe
00000370: d46d e1bd db4e 0a3f f55e 953d 9752 893e
00000380: 9ec0 b13e 71c7 443e b0ec e1be e9e5 993e
00000390: 4e21 94be ba72 983e 21d7 fcbe ab17 d2bd
000003a0: 1a00 28be 10c5 4e3e 1380 1ebe 079d b33e
000003b0: 02fc ddbe 90a4 ae3e 77ea 2c3e 3422 ccbe
000003c0: 892b a83e 134d d73e 48f0 d2bd ad75 28be
000003d0: e325 96be a3ab 69be 13d2 623e 6160 a7be
000003e0: 65ce 98be b899 c4be 5afb 813e 37b9 03bf
000003f0: 0b98 603b aed6 9a3d ad09 1e3f 7a03 893e
-0.17889772 -0.11127558 0.53714436 -0.3824226 0.4517042 -0.033884395 0.3245089 0.4686904
0.27066404 0.18781802 -0.043893274 -0.28294888 -0.3018668 -0.18286657 -0.3369447 -0.16985036
0.050093506 -0.48682013 0.1715647 0.27762768 -0.07510061 0.47824135 0.34623575 0.052844938
0.16339849 -0.057290476 -0.07515759 -0.17960998 -0.005966399 -0.32021967 0.05923142 -0.06130723
-0.35246867 -0.5510523 -0.2756409 0.21360904 0.3526396 0.14824988 -0.25164494 -0.051232815
-0.099101976 0.047164556 0.12730014 -0.28460953 -0.05322922 0.15871274 0.24990886 -0.48698688
-0.21723634 -0.022177828 -0.02094342 0.44406503 0.14505017 -0.61051035 -0.105206355 0.33308342
-0.18182224 0.17869422 0.24160847 -0.15204673 -0.12680838 0.16041228 0.45149434 -0.41713908
-0.23515655 -0.4517384 -0.45530596 -0.24887833 0.02215121 -0.2748326 0.19735768 -0.0033708336
-0.22117119 -0.07392531 0.36176923 0.34977433 0.6082128 0.41705695 0.05120102 0.23167604
0.19483806 -0.27640846 0.11564092 -0.09966654 0.073221795 0.19352894 0.090435065 0.15111569
0.041015472 0.3659585 0.39792854 -0.25633034 -0.080698445 -0.4882637 -0.54797137 0.27500793
-0.2173056 0.050036594 -0.33148158 -0.16319701 0.14927956 0.025376458 -0.10176574 -0.36933234
0.43972558 0.34491163 -0.2860365 0.29714298 -0.27860883 -0.15221505 -0.31715822 -0.045166817
-0.43500596 -0.15185273 0.0020700167 0.09768982 0.27771524 0.27735767 0.38959864 -0.5696853
0.12307348 0.40578714 0.19564717 0.34351793 -0.056891654 -0.31977323 0.013371782 -0.14202915
-0.0876796 -0.33813038 0.31376866 0.24983929 0.3438859 0.17172846 0.20422448 0.20187613
-0.3263166 0.42793703 -0.18451236 -0.45735323 -0.47145727 0.03959847 -0.20651293 -0.044323076
0.01329388 0.37164244 0.11167645 0.18420789 0.22575474 0.49114513 -0.40588954 -0.23806733
0.271126 -0.4893656 0.22483459 -0.06080895 0.025885604 0.31808338 0.101430885 -0.3814834
-0.3128533 -0.04904026 0.21555474 0.5237899 -0.29856426 -0.213759 -0.2719711 0.40029946
-0.31689447 -0.42695388 -0.14117983 -0.44697708 -0.01452656 -0.18175678 0.21053983 0.006077567
-0.0022533317 -0.30256894 0.5340651 0.23423423 -0.026109464 -0.72185 0.23018585 -0.10532582
0.16112657 0.20637916 -0.011861764 0.21306124 -0.29019946 -0.26594308 0.52566886 -0.052579362
-0.20011207 0.270377 0.36999124 -0.5820511 0.58487797 -0.56969064 -0.041250713 -0.649581
0.3985895 -0.25355208 -0.51915765 -0.22107205 -0.23301508 -0.24409287 0.21325332 -0.14688188
0.19270478 0.6513194 -0.33811343 0.4285446 -0.15902849 0.013643977 0.25091735 -0.05591479
0.11434601 -0.036625896 -0.054883454 -0.20044157 -0.11007276 0.54026574 0.07293502 0.26820824
0.34717268 0.19216706 -0.4412589 0.3005822 -0.2893166 0.2977503 -0.4938288 -0.102584206
-0.16406289 0.20192361 -0.15478544 0.3508074 -0.4335633 0.34109926 0.16886316 -0.39869845
0.32845715 0.4205099 -0.10299736 -0.1645114 -0.2932578 -0.2281938 0.2215045 -0.3269072
-0.29844967 -0.38398528 0.2538708 -0.5145449 0.0034270312 0.07560478 0.61733514 0.26760465
