output/tansfer/sc/merfish_0.1.pth (torch, 225223 bytes, 10 tensors)

encoder.encoder_g.conv1.bias f4 [32]
-0.03056263 -0.07020673 -0.05319933 -0.022207191 -0.028613066 -0.04699329 -0.034933627 -0.031265162
-0.024031144 -0.03889811 -0.045273416 -0.054936193 -0.044603266 -0.0204932 -0.033561464 -0.06253871
-0.042908717 -0.042621933 -0.026796417 -0.036966145 -0.025086025 -0.06832393 -0.04941408 -0.0858982
-0.038881406 -0.0489101 -0.028969256 -0.043937232 -0.025651926 -0.042491034 -0.022112122 -0.032120705
00000000: 7b5e fabc 8cc8 8fbd 8ae7 59bd dbeb b5bc
00000010: f365 eabc 097c 40bd 9016 0fbd e60f 00bd
00000020: f6dc c4bc a053 1fbd 9e70 39bd c604 61bd
00000030: eab1 36bd 5be1 a7bc bf77 09bd 4c14 80bd
00000040: 0dc1 2fbd 5694 2ebd 2984 dbbc d069 17bd
00000050: 3581 cdbc 6bed 8bbd 6b66 4abd 65eb afbd
00000060: 1c42 1fbd f555 48bd ef50 edbc 87f7 33bd
00000070: fd23 d2bc 140b 2ebd 7b24 b5bc 0091 03bd

encoder.encoder_g.conv1.lin.weight f4 [32, 64]
-0.22823669 -0.13338661 -0.10818698 0.06410197 -0.21139021 0.19697689 -0.12516518 -0.05566585
-0.114100836 -0.18111236 -0.24990076 -0.053096328 0.19237508 0.06080168 -0.15108217 -0.18794481
-0.0665262 0.23644179 0.21683383 0.18977362 -0.067062736 -0.067187615 -0.20872617 0.13825724
-0.10865403 -0.24753073 0.046967715 -0.21538848 0.13972901 0.21634395 0.090818 -0.018129777
0.16595392 0.05840122 0.15751974 0.046502806 0.10777804 -0.10796067 -0.16757712 0.19195576
-0.034084827 -0.13511923 0.21978304 0.23833828 -0.1255705 -0.21538273 -0.078705266 0.1802399
-0.2511762 0.17680858 -0.037332583 -0.17038834 -0.12997174 -0.0693701 0.1698542 -0.12598577
0.1767021 0.2103239 -0.24822181 -0.24105188 0.10465289 0.11017011 -0.10598107 0.14758663
-0.29942626 0.28808588 -0.13871185 -0.058901373 -0.052512955 0.26289484 0.037098087 0.13255116
-0.3046339 0.04456633 0.0901774 0.15070577 0.054156538 0.14463204 -0.10576235 0.040748194
-0.04377455 0.0050935377 0.063136384 -0.16842566 -0.086362325 -0.049288053 -0.2159338 0.24192876
0.088263884 -0.06403069 -0.1609946 -0.10484051 -0.086758696 0.08880677 -0.060452625 -0.14047684
-0.2803371 0.055452257 -0.31740713 -0.1909359 0.13922203 0.1851543 -0.07468879 0.12423978
-0.25083193 -0.06490034 0.009141443 -0.051545165 0.1479901 -0.23545808 -0.19835967 0.113725305
0.037517823 0.21180983 0.09922538 0.15005992 0.12265867 -0.30397263 0.11225141 0.28117275
-0.06928999 0.15039854 -0.088933796 0.07020834 0.1986028 0.021267643 0.16610801 -0.11203368
-0.18135037 0.16875954 -0.024926595 -0.10796693 0.19374038 0.25187716 0.039714295 -0.12374495
-0.29984066 0.05377743 -0.2548368 0.1037804 0.16289383 -0.09523653 0.1695919 0.0290069
0.10433395 -0.16684307 0.13364357 0.21949713 -0.10713848 -0.16729248 0.03653581 -0.03866742
-0.13329892 0.016312415 0.15586081 0.003454012 0.19306922 -0.042703416 0.097138904 0.044936225
-0.17713957 -0.24366955 -0.18865925 -0.19526769 0.29019305 0.085651234 0.019085623 0.27427578
-0.23503006 0.19423947 -0.07116297 0.066837445 -0.10540074 -0.08768227 0.19383255 -0.032087717
-0.13278165 0.081180625 0.06936455 -0.083716616 0.033873755 0.011614987 0.15394446 0.28624392
0.019900225 -0.175463 -0.24106632 -0.2438179 0.19081442 0.191711 -0.02378374 -0.016047293
0.091435134 -0.021823516 0.21916535 0.043957822 0.011678116 0.15947382 0.14593439 -0.0052056597
-0.1246319 0.05571706 0.07421433 -0.074422 -0.16757742 -0.19088654 -0.010885465 0.108373314
0.07183734 -0.101420544 0.17256995 0.12978448 -0.020282691 -0.018455446 0.025080219 -0.21741872
-0.15336329 -0.094747 0.17093934 -0.036526017 0.11378292 0.080677316 0.21282968 0.23453401
-0.07672836 0.03349731 0.17599948 -0.034319457 0.16613804 0.13252547 -0.07881271 -0.10603439
0.2023415 0.13907422 0.061603412 0.24743295 -0.1451156 0.01795187 0.075249195 -0.06772215
0.06394618 0.17419517 -0.103360064 -0.22340451 -0.12762436 -0.074321456 0.15727372 -0.13552512
0.08080342 0.109651856 -0.09377156 0.117114924 0.22603574 -0.11676128 0.0047084806 -0.028359316
00000000: e1b6 69be 8096 08be 2391 ddbd e547 833d
00000010: ad76 58be 4fb4 493e 4d2b 00be e001 64bd
00000020: b3ad e9bd 8575 39be fce5 7fbe 897b 59bd
00000030: f9fd 443e 2f0b 793d 49b5 1abe 9b74 40be
00000040: e33e 88bd cc1d 723e b009 5e3e 0454 423e
00000050: 3058 89bd a999 89bd 50bc 55be 4e93 0d3e
00000060: 0186 debd b278 7dbe 3861 403d cc8e 5cbe
00000070: 1f15 0f3e 4589 5d3e cafe b93d e684 94bc
00000080: d3ef 293e 1e36 6f3d db4c 213e ba79 3e3d
00000090: bcba dc3d 7c1a ddbd 5699 2bbe 0d90 443e
000000a0: 889c 0bbd b25c 0abe ce0e 613e f30e 743e
000000b0: 8e95 00be 4a8d 5cbe 3a30 a1bd cf90 383e
000000c0: 2b9a 80be 4f0d 353e 0dea 18bd 487a 2ebe
000000d0: 5017 05be e911 8ebd 42ee 2d3e 6a02 01be
000000e0: 65f1 343e 265f 573e dc2d 7ebe 4ed6 76be
000000f0: 4154 d63d dea0 e13d 9a0c d9bd f320 173e
00000100: 664e 99be fe7f 933e 7b0a 0ebe 9142 71bd
00000110: d317 57bd 279a 863e 2af4 173d 7ebb 073e
00000120: f9f8 9bbe 2f8b 363d eeae b83d 9d52 1a3e
00000130: 3fd3 5d3d 6c1a 143e ee99 d8bd 94e7 263d
00000140: f14c 33bd b1e7 a63b a64d 813d c777 2cbe
00000150: bbde b0bd 45e2 49bd c01d 5dbe 2cbc 773e
00000160: b2c3 b43d 8622 83bd c5db 24be 9fb6 d6bd
00000170: 8bae b1bd 53e0 b53d 2c9d 77bd 29d9 0fbe
00000180: 5888 8fbe e821 633d 3083 a2be b384 43be
00000190: 3890 0e3e 1799 3d3e 70f6 98bd 6d71 fe3d
000001a0: 0b6d 80be 78ea 84bd fec5 153c 0621 53bd
000001b0: b78a 173e ec1b 71be cc1e 4bbe d0e8 e83d
000001c0: 4aac 193d ade4 583e ad36 cb3d 4fa9 193e
000001d0: 7834 fb3d 4da2 9bbe 11e4 e53d e0f5 8f3e
000001e0: e9e7 8dbd 1302 1a3e ec22 b6bd 64c9 8f3d
000001f0: 885e 4b3e 7b39 ae3c 3818 2a3e ea71 e5bd
00000200: e9b3 39be 4dcf 2c3e dc32 ccbc c41d ddbd
00000210: e163 463e 0bf6 803e 75ab 223d fe6d fdbd
00000220: b784 99be b945 5c3d f879 82be d18a d43d
00000230: a4cd 263e 5f0b c3bd 80a9 2d3e e19f ed3c
00000240: 0aad d53d e9d8 2abe dcd9 083e dbc3 603e
00000250: 6b6b dbbd b84e 2bbe 93a6 153d bb61 1ebd
00000260: 837f 08be 9da1 853c fa99 1f3e b55c 623b
00000270: f0b3 453e c7e9 2ebd c3f0 c63d 0c0f 383d
00000280: 1364 35be 8384 79be e42f 41be 41f4 47be
00000290: 2f94 943e ea69 af3d 7459 9c3c e06d 8c3e
000002a0: b8ab 70be b6e6 463e e4bd 91bd 12e2 883d
000002b0: 58dc d7bd c392 b3bd 0a7c 463e 696e 03bd
000002c0: eaf7 07be 0742 a63d 000f 8e3d 9e73 abbd
000002d0: 35bf 0a3d c94c 3e3c 9ea3 1d3e 908e 923e
000002e0: cc05 a33c 93ac 33be 17da 76be 66ab 79be
000002f0: db64 433e e34f 443e 1ed6 c2bc 9d75 83bc
00000300: 5842 bb3d 3bc7 b2bc e26c 603e 1e0d 343d
00000310: 9255 3f3c 1b4d 233e d36f 153e 3d94 aabb
00000320: 023f ffbd 9237 643d affd 973d 906a 98bd
00000330: 6a99 2bbe c377 43be f358 32bc d4f2 dd3d
00000340: 751f 933d 93b5 cfbd 2db6 303e 39e6 043e
00000350: e327 a6bc e02f 97bc 0875 cd3c 03a3 5ebe
00000360: 440b 1dbe b70a c2bd b90a 2f3e 4e9c 15bd
00000370: 0507 e93d 263a a53d 06f0 593e af29 703e
00000380: c223 9dbd 7a34 093d 3539 343e 8f92 0cbd
00000390: 1720 2a3e c2b4 073e 8f68 a1bd 8f28 d9bd
000003a0: 9c32 4f3e 7969 0e3e dc53 7c3d 105f 7d3e
000003b0: 2f99 14be cd0f 933c 401c 9a3d e9b1 8abd
000003c0: 37f6 823d 3860 323e 71ae d3bd 27c4 64be
000003d0: f6af 02be d935 98bd 5d0c 213e 19c7 0abe
000003e0: 437c a53d 2791 e03d 4e0b c0bd f3d9 ef3d
000003f0: ea75 673e 8a20 efbd 9949 9a3b cc51 e8bc

encoder.encoder_g.conv2.bias f4 [32]
-0.0007765837 -0.0015910845 0.0083650835 -0.0008594928 0.012966916 -0.017032802 0.0068923966 -0.00037109933
-0.01561261 0.008282013 0.031501565 -0.00134091 -0.0029019727 0.012829101 -0.0063207224 0.008553881
-0.00083762367 -0.008409102 -0.010215647 -0.016529296 -0.0016817609 0.013039357 0.02349699 0.01028672
0.005196661 -0.0295813 0.006315613 -0.0034671633 0.011183827 0.012233348 -0.0010843399 -0.0035497213
00000000: a693 4bba f08b d0ba b40d 093c 964f 61ba
00000010: 3073 543c 6088 8bbc 9dd9 e13b 1c90 c2b9
00000020: 08cc 7fbc 48b1 073c c907 013d 79c1 afba
00000030: 062f 3ebb 2631 523c 101e cfbb 9425 0c3c
00000040: f993 5bba 55c6 09bc 875f 27bc 7268 87bc
00000050: 886e dcba 07a3 553c c27c c03c a189 283c
00000060: c148 aa3b 7c54 f2bc 34f3 ce3b 5939 63bb
00000070: 5f3c 373c 616e 483c 6920 8eba 71a2 68bb

encoder.encoder_g.conv2.lin.weight f4 [32, 32]
0.0689534 0.2092203 0.2929733 -0.12834957 0.17386222 -0.04653651 0.1088656 0.1042659
-0.1646164 0.20871548 -0.20947619 -0.046414856 0.094285674 0.1515255 -0.20715912 0.09710067
-0.15714353 -0.024955897 0.093820564 -0.20330371 -0.14194375 -0.15598364 -0.20763303 -0.0647573
0.092018165 0.17651266 -0.1198963 0.18853943 0.1242097 0.09632505 -0.27497265 -0.0049212864
0.17030072 -0.12165561 0.22575271 0.07638118 0.10349843 0.01174412 -0.031349752 0.1714792
-0.2073225 0.073389605 -0.20268016 0.18378203 0.25556922 -0.2772954 -0.06748374 0.13667114
-0.07346211 -0.09967917 0.11085738 -0.04722351 -0.11763995 0.13967873 0.16459766 0.14358279
0.12553911 0.16109835 -0.19817899 -0.3254324 -0.1062755 0.22076763 -0.28837806 -0.13597399
0.29900143 -0.099652715 -0.1290749 -0.14764589 0.20828375 0.18757364 0.27161866 -0.063984156
0.041146073 -0.012108701 -0.12450858 0.25216767 0.16367498 0.0908084 -0.21887271 -0.22558789
-0.2385171 -0.20752335 0.043288756 -0.12688112 -0.26279643 -0.006665186 0.24386007 0.24466743
-0.0869222 -0.1340187 -0.27609593 0.06526055 -0.022514902 -0.19758222 -0.08715651 0.024946798
-0.27664447 0.1307034 -0.13949846 -0.12397405 0.19081117 -0.14183956 -0.19908825 -0.06366987
0.16113985 0.121921614 0.2890371 -0.32011175 0.07436058 0.004882082 -0.21818498 0.12759966
-0.22658956 0.22311021 -0.025005529 0.034364324 0.14621045 0.21425588 0.079772696 0.014762549
-0.090118356 -0.17909142 -0.26162314 -0.070886195 0.09190521 -0.119949415 -0.2829157 -0.004861795
-0.16715981 0.12322333 -0.1506339 -0.03583479 -0.25914678 0.2789246 0.16675559 0.1550847
-0.026582167 -0.024820456 -0.02050629 -0.08907092 0.14854038 0.25436494 0.043663945 0.15069139
-0.22420958 0.29624435 0.066805296 0.23835526 0.09469987 0.069059305 -0.21401213 0.33931014
-0.08272654 -0.045096334 -0.2762833 -0.034594268 -0.20292853 0.1272351 0.3073658 -0.04881089
-0.017293444 -0.21117443 -0.12263459 0.18125845 -0.01953298 -0.283859 -0.15399446 0.099929765
-0.2680605 0.041601684 0.13788913 -0.0748259 -0.32381406 -0.122677796 0.19837028 0.17295897
0.080335476 -0.21681477 0.12615119 -0.24362385 0.07096528 0.26045334 -0.11432572 -0.23872945
-0.02081516 0.22604603 -0.13516627 -0.054550618 0.19217066 0.11755812 -0.0019309473 -0.25624642
0.20470819 0.22772439 -0.1702414 0.15951402 0.2740232 0.08840571 0.17939131 -0.1639031
-0.24682724 0.2571487 -0.33895308 -0.08094732 -0.16318761 0.18587399 -0.107541256 0.04095803
0.19123508 0.1393928 -0.18882191 -0.039353844 0.018390408 0.05850707 0.08254368 -0.020922702
0.22060129 -0.17626461 -0.2805772 -0.17892331 0.12056932 0.029405694 -0.1860939 -0.059151728
-0.19455056 0.23455039 0.17743155 -0.07297024 0.17473459 0.20202589 -0.1820505 -0.20614804
0.20722401 -0.18360896 -0.09406591 -0.09500329 0.240699 -0.14464478 -0.045409285 0.04893641
0.0018493911 0.24617106 0.1036973 -0.23248474 0.20764512 -0.03608433 0.24928725 0.30253124
-0.19927055 -0.2918909 -0.23062214 -0.25094688 0.24574326 -0.20635477 0.043282144 -0.2268884
00000000: 7137 8d3d d93d 563e 9900 963e 126e 03be
00000010: f008 323e 119d 3ebd edf4 de3d 5c89 d53d
00000020: 3491 28be 83b9 553e ed80 56be 811d 3ebd
00000030: d918 c13d 8029 1b3e 8521 54be b7dc c63d
00000040: 3cea 20be 4f70 ccbc ff24 c03d d92e 50be
00000050: b459 11be 2dba 1fbe c19d 54be 7a9f 84bd
00000060: 0574 bc3d bcbf 343e 318c f5bd 7b10 413e
00000070: a861 fe3d 1146 c53d 37c9 8cbe be42 a1bb
00000080: 5063 2e3e 9426 f9bd b82b 673e bc6d 9c3d
00000090: fcf6 d33d 696a 403c 9968 00bd 3e98 2f3e
000000a0: 594c 54be 4a4d 963d 638b 4fbe 5b31 3c3e
000000b0: f8d9 823e aaf9 8dbe ea34 8abd 85f3 0b3e
000000c0: 4d73 96bd 9824 ccbd 3209 e33d 706d 41bd
000000d0: 37ed f0bd f107 0f3e 4a8c 283e 5e07 133e
000000e0: 538d 003e f7f6 243e 6fef 4abe 139f a6be
000000f0: f8a6 d9bd e910 623e 4aa6 93be c43c 0bbe
00000100: b716 993e b916 ccbd 362c 04be 7c30 17be
00000110: 5648 553e 4e13 403e 9a11 8b3e 200a 83bd
00000120: c988 283d 9363 46bc 5bfe febd 1f1c 813e
00000130: 6a9a 273e c1f9 b93d 2b20 60be 8300 67be
00000140: d43d 74be 0081 54be 8d4f 313d 20ed 01be
00000150: 418d 86be a267 dabb 74b6 793e 198a 7a3e
00000160: 4404 b2bd 333c 09be 725c 8dbe 53a7 853d
00000170: 2c71 b8bc fe52 4abe 1d7f b2bd 3a5d cc3c
00000180: 58a4 8dbe 1dd7 053e afd8 0ebe 1be6 fdbd
00000190: 0164 433e 643e 11be cadd 4bbe 5965 82bd
000001a0: d801 253e 0ab2 f93d acfc 933e b0e5 a3be
000001b0: 5c4a 983d dff9 9f3b e26b 5fbe 7ca9 023e
000001c0: 1807 68be 0177 643e 65d8 ccbc 9bc1 0c3d
000001d0: 31b8 153e e565 5b3e de5f a33d 9ede 713c
000001e0: f98f b8bd be63 37be 78f3 85be c82c 91bd
000001f0: cc38 bc3d 0aa8 f5bd 54da 90be b14f 9fbb
00000200: f12b 2bbe 835c fc3d c63f 1abe 80c7 12bd
00000210: e3ae 84be 35cf 8e3e fac1 2a3e 86ce 1e3e
00000220: d8c2 d9bc 4554 cbbc cffc a7bc d16a b6bd
00000230: f81a 183e 1f3c 823e f7d8 323d d84e 1a3e
00000240: 3297 65be 57ad 973e 37d1 883d 6713 743e
00000250: 01f2 c13d f76e 8d3d ff25 5bbe 0fba ad3e
00000260: 886c a9bd efb6 38bd 0175 8dbe b8b2 0dbd
00000270: 7fcc 4fbe eb49 023e 0d5f 9d3e eeed 47bd
00000280: fbaa 8dbc 1c3e 58be d827 fbbd d19b 393e
00000290: a103 a0bc f855 91be b9b0 1dbe faa7 cc3d
000002a0: 3a3f 89be 8766 2a3d cf32 0d3e 523e 99bd
000002b0: f5ca a5be 7f3e fbbd 9421 4b3e 281c 313e
000002c0: ed86 a43d b104 5ebe c72d 013e 8878 79be
000002d0: 3f56 913d 245a 853e 9a23 eabd 7e75 74be
000002e0: 8e84 aabc 9c78 673e 0769 0abe 7870 5fbd
000002f0: 63c8 443e 50c2 f03d d717 fdba bb32 83be
00000300: 069f 513e 9530 693e c353 2ebe a557 233e
00000310: c54c 8c3e 0e0e b53d 5bb2 373e 37d6 27be
00000320: 48c0 7cbe ffa8 833e 428b adbe b5c7 a5bd
00000330: a71a 27be c055 3e3e 973e dcbd 9bc3 273d
00000340: 21d3 433e fcbc 0e3e 885a 41be 7f31 21bd
00000350: 7ba7 963c 1ca5 6f3d a90c a93d 1666 abbc
00000360: 4ee5 613e b67e 34be d1a7 8fbe ac37 37be
00000370: 0ced f63d 36e4 f03c 668f 3ebe 1549 72bd
00000380: 4338 47be fa2d 703e 9eb0 353e 6c71 95bd
00000390: a0ed 323e e0df 4e3e 726b 3abe 7918 53be
000003a0: 8832 543e fd03 3cbe a1a5 c0bd 1691 c2bd
000003b0: cc79 763e c31d 14be 16ff 39bd 8c71 483d
000003c0: 4567 f23a 4414 7c3e 405f d43d 7b10 6ebe
000003d0: eca0 543e 2acd 13bd 2845 7f3e 60e5 9a3e
000003e0: 940d 4cbe b972 95be 3628 6cbe 1c7c 80be
000003f0: 1fa4 7b3e aa4e 53be 9e48 313d 6f55 68be

encoder.encoder_g.linear.weight f4 [32, 1440]
-0.011317081 -0.013131262 0.033340026 0.015488459 -0.004348118 -0.027155567 0.012572831 -0.036497265
-0.019680727 0.02929499 -0.009237735 -0.010495987 -0.00737035 0.009839873 0.01990168 -0.0005545683
0.018002335 0.018898232 -0.025951685 -0.057932995 -0.01664643 0.050008025 0.009767074 0.0038668378
-0.042338964 -0.028347572 0.03513415 -0.009347746 0.0149285225 0.018969957 -0.027852366 -0.03776257
-0.02309484 0.0007648788 -0.0077713947 -0.0073865284 -0.018917672 -0.012003156 0.035764273 -0.023698341
-0.008291384 0.061684616 -0.0010541856 -0.0056279036 0.015545105 0.008295465 0.019723222 -0.0038946494
-0.0005188573 -0.0011890007 -0.039592043 -0.05891012 -0.038265157 0.07905469 0.032770414 -0.022398125
0.028648416 0.01853731 -0.001254724 0.013958167 0.047163293 -0.038555354 -0.009864474 -0.0008509047
0.013539993 0.040925436 -0.008460867 -0.020802604 0.016212184 -0.00015534612 0.03405588 -0.0123681305
0.0021653373 0.047646064 0.0039669033 0.023250613 -0.0013222636 -0.008511255 -0.021637969 0.0017079796
0.016873179 -0.018074766 -0.030669812 -0.008986072 -0.008301643 0.0929203 0.032013737 -0.010676856
0.010113159 -0.0017005275 -0.0026408487 0.012576108 0.0070017707 0.003510299 -0.01055335 -0.030121343
-0.024523014 0.0062960056 0.012133037 0.016449613 0.0005996469 -0.020449944 -0.007429883 -0.020347867
0.020632247 0.026578309 -0.00084529084 -0.018915394 -0.012790129 0.013388814 -0.0049895635 -0.007903028
0.02355352 0.024002492 0.01225824 -0.055262282 -0.032799333 0.033655502 0.03410116 -0.02671257
-0.0033479796 -0.0013967811 0.029858593 0.012413968 0.0099101905 -0.0067497394 -0.053896487 -0.024636896
-0.011163603 0.003297956 0.015725669 0.0035062912 -0.025841452 -0.031027362 0.039675746 -0.028063046
-0.009887739 -0.0059640766 -0.032186564 -0.004606755 -0.005899396 -0.019256784 -0.0005439734 0.0045239045
-0.018834969 0.02210949 -0.028301919 -0.024839355 -0.05074383 0.05418237 0.011621404 -0.03047376
-0.00014317594 0.02263111 0.0008298691 -0.011991507 0.0035367454 0.0056310655 0.021724433 -0.00466459
-0.01207631 0.026739284 0.00043634584 -0.008397366 -0.004050848 -0.0054248003 0.0105286045 -0.0072219684
0.020284068 0.059500244 -0.022770714 0.0030701212 0.004708688 -0.003935331 -0.012355578 0.041393477
0.0057287803 -0.007979891 -0.03082023 -0.047834273 -0.022022739 0.06210809 0.03198774 -0.023360008
0.013978245 0.003493147 0.036684364 -0.014792152 0.0034829546 -0.0014964717 0.02632476 -0.01484854
0.01183495 0.0063244267 0.009668494 -0.00421462 -0.0048509277 -0.009941386 0.027161175 -0.0310232
-0.0005458919 0.034889493 -0.032928996 0.024310106 0.018504126 0.017063877 0.02620778 0.0010925899
0.017328396 0.008743045 0.0070435726 -0.036002863 -0.032327812 0.009846544 0.042189356 0.0042904266
-0.038519096 0.004507295 0.04584444 0.007354243 0.049474224 0.027029565 -0.067295626 -0.0077981288
-0.017032204 0.030643275 -0.006432834 -0.013592094 0.0060384376 -0.0018729562 -0.0021795942 -0.035666604
-0.013237482 0.036684617 -0.013514424 0.0043364908 0.024357745 -0.008775253 -0.005553598 0.023479171
0.023394858 0.00918192 -0.012147522 -0.024246046 -0.010246446 0.0734009 0.007451368 -0.037467226
-0.00053187803 -0.008337944 0.020068869 -0.03116982 0.008810529 0.0017500723 0.039339356 -0.015196572
00000000: 476b 39bc 8124 57bc 8d8f 083d 4ec3 7d3c
00000010: a87a 8ebb 5a75 debc 46fe 4d3c 287e 15bd
00000020: 7a39 a1bc 0cfc ef3c de59 17bc 5cf7 2bbc
00000030: fa82 f1bb 6b37 213c d908 a33c 7360 11ba
00000040: a279 933c 77d0 9a3c a198 d4bc 264b 6dbd
00000050: 185e 88bc 37d5 4c3d 1406 203c c66a 7d3b
00000060: 9f6b 2dbd 2b39 e8bc d4e8 0f3d 4a27 19bc
00000070: c396 743c e266 9b3c a52a e4bc edac 1abd
00000080: 6431 bdbc 2682 483a 2fa7 febb b10a f2bb
00000090: 3cf9 9abc e3a8 44bc 8f7d 123d 0623 c2bc
000000a0: 96d8 07bc 02a9 7c3d 992c 8aba 476a b8bb
000000b0: e5b0 7e3c b4e9 073c 9892 a13c 603d 7fbb
000000c0: ed03 08ba 3ed8 9bba 442b 22bd bd4b 71bd
000000d0: edbb 1cbd 6de7 a13d 453a 063d 467c b7bc
000000e0: 15b0 ea3c 8fdb 973c 8d75 a4ba ccb0 643c
000000f0: 4c2e 413d 38ec 1dbd 9a9e 21bc 3f0f 5fba
00000100: d9d6 5d3c 6ea1 273d 739f 0abc 396a aabc
00000110: 6acf 843c 68e4 22b9 2e7e 0b3d b3a3 4abc
00000120: 55e8 0d3b 8528 433d ccfc 813b 1278 be3c
00000130: ce4f adba ca72 0bbc 1c42 b1bc 49de df3a
00000140: 9f39 8a3c 8811 94bc 423f fbbc 513a 13bc
00000150: 9d03 08bc 004d be3d d620 033d fbed 2ebc
00000160: aab1 253c 3ce4 deba 1712 2dbb 050c 4e3c
00000170: 1c6f e53b 0b0d 663b f5e7 2cbc 09c1 f6bc
00000180: 7de4 c8bc b94e ce3b a5c9 463c 57c1 863c
00000190: 9f31 1d3a a486 a7bc 6076 f3bb 92b0 a6bc
000001a0: f504 a93c c1ba d93c 8296 5dba 75f4 9abc
000001b0: b08d 51bc c25c 5b3c 7e7f a3bb b47b 01bc
000001c0: 50f3 c03c e0a0 c43c c9d6 483c b45a 62bd
000001d0: 9858 06bd 5ada 093d a8ad 0b3d 52d4 dabc
000001e0: c769 5bbb 3214 b7ba 029a f43c f563 4b3c
000001f0: 5a5e 223c eb2c ddbb 90c2 5cbd 51d3 c9bc
00000200: 8be7 36bc 8522 583b 1ed3 803c cec9 653b
00000210: 74b1 d3bc 182d febc 0983 223d 79e4 e5bc
00000220: 2f00 22bc 4d6e c3bb 0fd6 03bd 43f4 96bb
00000230: b84f c1bb 67c0 9dbc 7099 0eba 433d 943b
00000240: cb4b 9abc f61e b53c 6dd9 e7bc e77b cbbc
00000250: c3d8 4fbd 55ee 5d3d b467 3e3c 1ba4 f9bc
00000260: 8021 16b9 e164 b93c 938b 593a 0778 44bc
00000270: bec8 673b cd84 b83b 70f7 b13c 6bd9 98bb
00000280: b7db 45bc 580c db3c 59c5 e439 1b95 09bc
00000290: fabc 84bb 86c2 b1bb 2b80 2c3c 43a6 ecbb
000002a0: c62a a63c 87b6 733d a689 babc 1634 493b
000002b0: 564b 9a3b f3f3 80bb 0d6f 4abc 358c 293d
000002c0: 7eb8 bb3b 17be 02bc b57a fcbc dfed 43bd
000002d0: 0869 b4bc 0d65 7e3d 9405 033d 7d5d bfbc
000002e0: 0205 653c 48ed 643b 5842 163d c85a 72bc
000002f0: 4842 643b 4225 c4ba 06a7 d73c 4a47 73bc
00000300: 61e7 413c 233d cf3b 9a68 1e3c cc1a 8abb
00000310: 88f4 9ebb 32e1 22bc 1d81 de3c 5e24 febc
00000320: 2f1a 0fba 49e8 0e3d 8ee0 06bd fd25 c73c
00000330: f795 973c 8bc9 8b3c b3b1 d63c 3c35 8f3a
00000340: 48f4 8d3c fd3e 0f3c c5cd e63b bd77 13bd
00000350: 2b6a 04bd 6653 213c bfce 2c3d b596 8c3b
00000360: 33c6 1dbd eeb1 933b 61c7 3b3d ddfb f03b
00000370: 7ca5 4a3d 1b6d dd3c 4ad2 89bd 7287 ffbb
00000380: 1f87 8bbc 9b07 fb3c 86ca d2bb 60b1 5ebc
00000390: 16de c53b fb7d f5ba 86d7 0ebb 2517 12bd
000003a0: 06e2 58bc 9c42 163d 9a6b 5dbc 1f19 8e3b
000003b0: e589 c73c 14c6 0fbc f5fa b5bb 6457 c03c
000003c0: 93a6 bf3c c46f 163c 6606 47bc a59f c6bc
000003d0: b6e0 27bc 3653 963d 9b2a f43b 3c77 19bd
000003e0: bb6d 0bba df9b 08bc 7867 a43c da57 ffbc
000003f0: 095a 103c af62 e53a 4e22 213d 0bfb 78bc

encoder.encoder_g.linear.bias f4 [32]
-0.042092465 -0.028521508 0.013467718 -0.011185501 0.023629902 0.013864532 -0.017735332 0.0023511325
-0.017064273 -0.024909154 -0.015017194 0.010188701 -0.031921167 -0.090330176 0.012358632 0.040683933
-0.020302186 -0.027369143 -0.01360553 0.042318884 -0.005909957 -0.03497667 -0.029504737 0.024504371
-0.027392637 0.018330822 -0.039200928 0.005272562 -0.023257824 -0.01667056 0.050774246 -0.0055220337
00000000: 2669 2cbd f0a5 e9bc b4a7 5c3c 6443 37bc
00000010: 7f93 c13c 1028 633c b049 91bc 7515 1a3b
00000020: 60ca 8bbc 480e ccbc ad0a 76bc 82ee 263c
00000030: c5bf 02bd 07ff b8bd dc7b 4a3c 32a4 263d
00000040: c550 a6bc 4135 e0bc bbe9 5ebc 9156 2d3d
00000050: 50a8 c1bb b243 0fbd ebb3 f1bc 64bd c83c
00000060: 8666 e0bc 852a 963c 2791 20bd 75c5 ac3b
00000070: 3187 bebc b390 88bc a8f8 4f3d 2df2 b4bb

encoder.encoder_c.conv1.bias f4 [32]
0.14758264 0.05671873 0.14046949 0.05807843 0.08711566 0.10318541 0.026742565 0.12262169
0.07168707 0.11762927 0.11748982 0.10298182 0.08178187 0.20343944 0.1069815 0.059868183
0.0665468 0.07080816 0.11935858 0.11116104 0.14648151 0.1231261 0.056781434 0.11097994
0.074761726 0.13078004 0.103769 0.11642222 0.10830045 0.09372713 0.067430146 0.10074735
00000000: e71f 173e e651 683d 3cd7 0f3e a6e3 6d3d
00000010: b269 b23d df52 d33d 3913 db3c 1521 fb3d
00000020: acd0 923d 9de7 f03d 819e f03d 22e8 d23d
00000030: 417d a73d 6e52 503e 1e19 db3d 5738 753d
00000040: b049 883d de03 913d 4572 f43d 66a8 e33d
00000050: 40ff 153e 8929 fc3d a693 683d 7349 e33d
00000060: ad1c 993d 34eb 053e d784 d43d c66e ee3d
00000070: a0cc dd3d 02f4 bf3d d118 8a3d a054 ce3d

encoder.encoder_c.conv1.lin.weight f4 [32, 160]
0.13804443 0.13200408 0.10202929 0.033282503 -0.12079718 -0.1114053 0.13098526 -0.2033818
-0.09406244 0.12248726 -0.08489297 0.06734506 0.5428867 -0.32413417 -0.10675881 -0.15635437
-0.1088788 0.048651177 0.19280629 0.13220035 -0.61273074 0.0017340356 -0.36610514 -0.41075322
-0.2540887 0.23079109 0.051977597 0.19262947 0.04811086 -0.15380104 -0.24806912 -0.1786303
0.0722747 0.050650537 -0.19084994 -0.0767948 0.31700978 0.03915562 0.09261803 -0.11876122
-0.0001506703 -0.19402198 -0.09208931 -0.39442793 0.38798943 0.023461213 0.09318768 -0.018196858
-0.30148298 0.13551743 -0.08718755 0.15666859 0.03495494 0.30091056 -0.16850169 -0.355474
0.44007152 -0.05504468 -0.011044348 -0.025937509 0.06901266 0.15889367 0.022736702 -0.24697292
0.45933035 0.04159132 0.084431365 0.25834596 0.24551319 -0.26356626 -0.014439833 -0.1831234
-0.12538877 0.04980485 0.2867158 0.1597001 0.32996938 0.25770208 -0.46961918 0.1734998
0.5366688 0.35174257 0.14643562 -0.49645695 -0.26459998 0.20169188 0.60439634 0.06486263
-0.080282494 0.022150138 0.12327816 0.21744357 -0.6780897 0.027417067 0.074460745 0.20896348
0.06756719 0.48370102 0.100788176 0.0056034424 0.37996882 0.05513624 0.16681945 -0.06543179
0.015692336 0.11114602 0.023643518 0.112278245 0.11154277 0.083180554 -0.0005859557 0.33452207
0.38456535 -0.19190204 0.3080613 0.3938825 0.35534754 0.085150875 0.2608065 -0.2378076
0.27725056 -0.70961976 0.1139658 -0.058312215 0.038800627 -0.043060787 -0.057181563 -0.15154116
0.165656 -0.23864646 -0.22994053 0.030901825 0.2895554 0.084684215 -0.076809466 0.14785838
-0.16126376 0.088209726 0.0024494743 -0.005448702 -0.3015298 -0.052178312 -0.0051663634 -0.08244545
0.2341855 -0.29506013 -0.17448294 -0.38290668 -0.061955944 -0.47882208 0.044843014 0.1592398
-0.42958316 -0.4078434 -0.5096455 -0.28223246 -0.09821115 -0.10544134 -0.3769027 -0.0359414
0.29498082 0.01645664 -0.029417807 -0.22455919 0.16057523 -0.039796166 -0.1460717 -0.19724102
-0.13126506 -0.08380146 -0.22127533 0.081325874 -0.029754028 -0.27954692 0.17427061 -0.26154238
0.04041636 -0.19940072 0.008883532 -0.09010318 -0.1835536 0.049402278 0.111003935 0.10449197
-0.02324321 -0.39953828 0.38762352 0.19352801 -0.10030469 -0.17086062 -0.4432159 0.012835922
0.15474819 -0.07094663 0.029394502 -0.17548521 -0.13578829 -0.15417232 0.2290088 0.2438099
-0.27976552 -0.20926479 -0.23246215 -0.0045900093 0.27736074 0.09231693 -0.13912347 -0.15430848
0.22166626 -0.10801697 0.14421174 0.41715735 0.23856583 0.08968159 0.3423086 -0.25096703
0.29259938 -0.27831718 0.1472267 -0.13033064 0.08037854 0.076144695 -0.014157671 -0.02535939
0.23432265 -0.027441394 0.021203492 -0.13262111 -0.4423637 -0.21168914 -0.26018712 -0.046075217
-0.15513694 0.10581734 -0.11455177 0.013520667 0.26147196 -0.0322204 -0.21457212 -0.17811847
0.14445886 0.11994692 0.22930889 -0.06611233 0.11853104 0.040492613 -0.02210818 0.01722222
0.1024207 -0.052666277 0.24490371 0.20439568 -0.24802211 0.16383503 0.34843707 0.20407829
00000000: 855b 0d3e 142c 073e bbf4 d03d 3c53 083d
00000010: 8364 f7bd 7628 e4bd 0021 063e 5243 50be
00000020: cfa3 c0bd 9ada fa3d 5edc adbd 35ec 893d
00000030: 9ffa 0a3f eaf4 a5be 5da4 dabd 5c1b 20be
00000040: d9fb debd 7546 473d 036f 453e 875f 073e
00000050: ecdb 1cbf 9448 e33a 2272 bbbe 3f4e d2be
00000060: ea17 82be 8054 6c3e 76e6 543d a940 453e
00000070: e50f 453d 057e 1dbe d505 7ebe ddea 36be
00000080: c204 943d f076 4f3d 2b6e 43be 9846 9dbd
00000090: 1b4f a23e a561 203d 86ae bd3d 1539 f3bd
000000a0: 40fd 1db9 b3ad 46be 5299 bcbd 75f2 c9be
000000b0: 8da6 c63e bb31 c03c 2fd9 be3d 9411 95bc
000000c0: fa5b 9abe 15c5 0a3e 638f b2bd bb6d 203e
000000d0: e92c 0f3d f310 9a3e b58b 2cbe b000 b6be
000000e0: 0e51 e13e 8876 61bd 5af3 34bc e67a d4bc
000000f0: 8256 8d3d 06b5 223e 5242 ba3c 78e6 7cbe
00000100: 592d eb3e a95b 2a3d 5aea ac3d ec45 843e
00000110: cf67 7b3e 28f2 86be 0d95 6cbc b384 3bbe
00000120: ea65 00be 2c00 4c3d 6acc 923e 6c88 233e
00000130: bff1 a83e 87f1 833e ed71 f0be eea9 313e
00000140: 2063 093f 9a17 b43e 38f3 153e 9b2f febe
00000150: a679 87be 5188 4e3e b8b9 1a3f b3d6 843d
00000160: 266b a4bd 3574 b53c 4379 fc3d 87a9 5e3e
00000170: 4997 2dbf c299 e03c e07e 983d 86fa 553e
00000180: ab60 8a3d a9a7 f73e 086a ce3d 159d b73b
00000190: 468b c23e 8ad6 613d b8d2 2a3e 1a01 86bd
000001a0: 378d 803c 86a0 e33d 0db0 c13c 23f2 e53d
000001b0: 8970 e43d 915a aa3d d29a 19ba 7a46 ab3e
000001c0: c0e5 c43e f881 44be 36ba 9d3e f8aa c93e
000001d0: 1df0 b53e 9563 ae3d 6e88 853e d683 73be
000001e0: c9f3 8d3e a4a9 35bf e766 e93d cad8 6ebd
000001f0: 68ed 1e3d 8260 30bd 3737 6abd 9b2d 1bbe
00000200: baa1 293e bd5f 74be 8875 6bbe d325 fd3c
00000210: 9b40 943e eb6e ad3d 484e 9dbd 3068 173e
00000220: 5422 25be 4da7 b43d 5c87 203b 068b b2bb
00000230: 1d62 9abe edb8 55bd 994a a9bb 29d9 a8bd
00000240: 53ce 6f3e 1f12 97be a8ab 32be 580c c4be
00000250: 84c5 7dbd 2b28 f5be 4fad 373d c20f 233e
00000260: 53f2 dbbe dad0 d0be 2178 02bf c680 90be
00000270: ed22 c9bd a1f1 d7bd 64f9 c0be 4a37 13bd
00000280: ba07 973e 13d0 863c 9dfd f0bc d8f2 65be
00000290: d56d 243e 4e01 23bd d293 15be 8df9 49be
000002a0: 596a 06be 1aa0 abbd 0096 62be 2e8e a63d
000002b0: b8be f3bc c620 8fbe ff73 323e e2e8 85be
000002c0: a08b 253d b42f 4cbe 3c8c 113c 0488 b8bd
000002d0: 7af5 3bbe 0b5a 4a3d 0856 e33d e3ff d53d
000002e0: 8b68 bebc 4890 ccbe 9776 c63e 352c 463e
000002f0: 8c6c cdbd 16f6 2ebe 32ed e2be c24d 523c
00000300: 4f76 1e3e 774c 91bd bdcc f03c 65b2 33be
00000310: 160c 0bbe 59df 1dbe 4881 6a3e 4da9 793e
00000320: 6d3d 8fbe 8249 56be 8f0a 6ebe ca67 96bb
00000330: 3a02 8e3e a910 bd3d 6276 0ebe 0b03 1ebe
00000340: 7bfc 623e 0038 ddbd 3eac 133e a695 d53e
00000350: 9a4a 743e fbaa b73d 1343 af3e c07e 80be
00000360: 96cf 953e 977f 8ebe 99c2 163e 6575 05be
00000370: 819d a43d c0f1 9b3d 93f5 67bc 7fbe cfbc
00000380: 47f2 6f3e c6cc e0bc f2b2 ad3c d4cd 07be
00000390: 7f7d e2be 0ac5 58be 3f37 85be 5eb9 3cbd
000003a0: 38dc 1ebe c3b6 d83d 1e9a eabd ca85 5d3c
000003b0: a7df 853e 8af9 03bd cbb8 5bbe b064 36be
000003c0: 06ed 133e bba6 f53d f3cf 6a3e e765 87bd
000003d0: 67c0 f23d 95db 253d 371c b5bc 9d15 8d3c
000003e0: f2c1 d13d 98b8 57bd 0ac8 7a3e 1a4d 513e
000003f0: 82f9 7dbe 5fc4 273e 5866 b23e e6f9 503e

encoder.encoder_c.conv2.bias f4 [32]
0.022503238 -0.018515639 0.06951537 0.046729404 -0.007446781 0.081290185 0.002582233 0.052751824
-0.01908035 -0.060926188 -0.043012146 -0.07380988 -0.017349297 -0.044635054 -0.038546886 0.03170726
0.04608389 -0.064922914 -0.06604653 -0.026499843 -0.041299876 0.050537262 0.0076440037 0.030343609
0.012004705 0.04194301 0.04488652 0.0069615664 -0.01119152 0.020584017 0.066757716 0.022361511
00000000: b658 b83c 1cae 97bc 135e 8e3d 5567 3f3d
00000010: 2004 f4bb 787b a63d ae3a 293b 4c12 583d
00000020: 654e 9cbc bd8d 79bd 812d 30bd a229 97bd
00000030: 1d20 8ebc 3fd3 36bd 57e3 1dbd 79df 013d
00000040: 76c2 3c3d 4ef6 84bd 6743 87bd 3316 d9bc
00000050: 0f2a 29bd 2900 4f3d 8d7a fa3b 2993 f83c
00000060: 62af 443c 6fcc 2b3d edda 373d da1d e43b
00000070: a35c 37bc d09f a83c 45b8 883d 7d2f b73c

encoder.encoder_c.conv2.lin.weight f4 [32, 32]
0.23940235 -0.13690226 -0.3358726 -0.27087873 0.19545 -0.48968315 -0.13832432 0.3975471
-0.26262495 0.2542578 0.4802149 -0.1813111 0.024154752 0.119619936 -0.3152807 -0.34621897
-0.14801522 -0.06537681 -0.38567695 -0.33769885 0.27763504 0.27128568 -0.40367228 -0.16020116
0.3110723 -0.35739228 0.11149691 0.36990145 0.15667486 0.4655266 0.1346951 0.124748744
0.16841424 -0.049201384 -0.01599057 0.07543204 -0.20586456 -0.42194998 -0.18085584 -0.2699569
-0.06474568 -0.46085912 -0.3322217 0.24124612 0.32208225 -0.28327736 -0.041898977 0.3182784
-0.24919415 -0.17185123 0.0017667437 0.3538037 0.41882068 0.26700047 -0.19005656 -0.34555948
0.50579625 0.32057798 -0.4852024 0.169899 0.354369 -0.054232858 0.09357654 0.29714274
-0.18701123 -0.16191718 0.35470784 0.20623203 -0.093439735 -0.08121821 -0.3129858 0.263592
-0.45323738 -0.044969663 0.33364156 -0.0065772543 0.40401718 0.02756475 -0.43238205 0.17952256
-0.009612025 0.008234537 -0.25202858 0.24842104 -0.5635522 -0.45945895 0.082462996 0.039824616
0.25279015 0.4205893 0.24837285 0.19988093 -0.11701896 -0.47320697 0.11608571 -0.115440115
0.4251565 0.15165082 0.4014622 0.5442579 -0.32203707 -0.2597305 0.05180814 0.2700262
-0.1243423 0.18506932 -0.43901965 -0.012234078 -0.13027242 -0.32188833 -0.18615411 -0.0056529525
0.26733127 -0.13266656 -0.14298344 0.2621967 0.27583268 -0.06940854 0.01732207 -0.43334094
-0.32050997 -0.4060805 0.48879418 0.39608946 -0.16375911 -0.31677946 -0.20914549 -0.13835648
-0.1762414 0.17601837 0.07206262 0.41392276 -0.0710333 -0.3152681 0.23379844 -0.36756954
0.23993991 0.18600403 0.2117318 0.31396094 0.19014882 -0.4118348 -0.0690943 -0.28962222
0.26084745 -0.17933467 0.22002853 -0.16395183 -0.35421446 0.36177486 -0.008798467 0.21697867
-0.330952 0.15557584 0.20332913 -0.09608869 0.17310275 -0.44052443 0.29286993 -0.16040613
-0.03862791 -0.06608153 0.4913237 -0.1298718 0.21606228 -0.19234435 -0.054811068 0.4806904
-0.34538645 -0.36713737 0.15620156 -0.18363182 0.36675248 0.100878984 0.1202164 -0.5405241
-0.36088052 -0.5141507 -0.5215774 0.037933525 -0.13795862 0.5115808 -0.20512012 0.28268373
-0.4758224 0.29914865 0.3479479 0.31735626 -0.3030104 -0.1682398 0.21990591 -0.35358867
-0.12353302 -0.27447522 0.18990724 -0.11276847 0.109447114 0.48311406 -0.07671598 0.43891296
-0.46856102 -0.2236702 -0.10387877 -0.34767216 -0.4504255 -0.14425871 0.16756263 -0.32972717
0.4218907 0.46593192 0.38490823 0.25379518 -0.17450702 0.49421555 0.08743842 -0.20297134
-0.53890485 0.18053506 -0.02040425 -0.16740048 0.4269146 0.17980824 -0.40079784 -0.37328124
0.27873003 0.15116854 0.28993595 0.23251228 0.19415249 -0.32195416 -0.764248 0.05296811
0.12414116 0.139497 0.28663063 -0.39507738 -0.3817687 0.22483128 -0.27866971 -0.023186108
0.0054841563 0.24952815 -0.32588425 -0.039268978 0.06282547 -0.39916384 -0.26593757 0.43400267
0.38741145 0.33615527 -0.41736385 -0.34065574 -0.018315291 0.23211128 -0.16894092 -0.2077527
00000000: e425 753e 1b30 0cbe 7ef7 abbe 9eb0 8abe
00000010: 0b24 483e c0b7 fabe e4a4 0dbe 4b8b cb3e
00000020: c776 86be 142e 823e bade f53e 9ea9 39be
00000030: 30e0 c53c 4cfb f43d 796c a1be 9d43 b1be
00000040: 4d91 17be 47e4 85bd 7377 c5be dde6 acbe
00000050: 2e26 8e3e f5e5 8a3e 22ae cebe c60b 24be
00000060: de44 9f3e 1ffc b6be 7e58 e43d b963 bd3e
00000070: 606f 203e 8159 ee3e 83ed 093e 457c ff3d
00000080: c874 2c3e 6487 49bd a8fe 82bc 1d7c 9a3d
00000090: 29ce 52be d409 d8be 4632 39be ca37 8abe
000000a0: 6299 84bd baf5 ebbe f618 aabe 3909 773e
000000b0: f7e7 a43e bb09 91be 439e 2bbd 63f5 a23e
000000c0: c02c 7fbe c5f9 2fbe 1592 e73a c225 b53e
000000d0: aa6f d63e 49b4 883e 309e 42be 2ced b0be
000000e0: dd7b 013f cc22 a43e 736c f8be 01fa 2d3e
000000f0: db6f b53e 4623 5ebd 0fa5 bf3d 1823 983e
00000100: df7f 3fbe 9ecd 25be 449c b53e 7d2e 533e
00000110: 555d bfbd bc55 a6bd ad3f a0be 88f5 863e
00000120: bb0e e8be 1c32 38bd 11d3 aa3e 0286 d7bb
00000130: 57db ce3e 78cf e13c 2e61 ddbe c3d4 373e
00000140: c17b 1dbc 27ea 063c e409 81be 1662 7e3e
00000150: f544 10bf 343e ebbe 5ce2 a83d 231f 233d
00000160: b66d 813e 7b57 d73e 7455 7e3e 96ad 4c3e
00000170: a3a7 efbd 2f48 f2be 58be ed3d de6b ecbd
00000180: 1dae d93e 5a4a 1b3e 748c cd3e 7c54 0b3f
00000190: 0be2 a4be 65fb 84be c634 543d e040 8a3e
000001a0: 2da7 febd d082 3d3e 2fc7 e0be 7171 48bc
000001b0: 2266 05be 8cce a4be 2f9f 3ebe 673c b9bb
000001c0: a5df 883e bed9 07be 406a 12be a53e 863e
000001d0: f139 8d3e 1126 8ebd 04e7 8d3c ddde ddbe
000001e0: e219 a4be c9e9 cfbe 3b43 fa3e 3dcc ca3e
000001f0: 78b0 27be eb30 a2be 3c2a 56be 52ad 0dbe
00000200: a078 34be 293e 343e 9195 933d afed d33e
00000210: e879 91bd d26a a1be dc68 6f3e 1332 bcbe
00000220: cfb2 753e d777 3e3e 39d0 583e 7dbf a03e
00000230: 5fb6 423e 03dc d2be 5081 8dbd 5d49 94be
00000240: cc8d 853e 82a3 37be 294f 613e fde2 27be
00000250: 995b b5be 8e3a b93e 7227 10bc a82f 5e3e
00000260: 8a72 a9be 464f 1f3e 8335 503e 26ca c4bd
00000270: d941 313e 6b8c e1be 0cf3 953e 8141 24be
00000280: 4d38 1ebd c155 87bd c88e fb3e 1dfd 04be
00000290: 6e3f 5d3e ebf5 44be 9281 60bd 0d1d f63e
000002a0: 7ed6 b0be 6ef9 bbbe 4df3 1f3e fb09 3cbe
000002b0: fbc6 bb3e a499 ce3d 0434 f63d ca5f 0abf
000002c0: 55c5 b8be 619f 03bf 1986 05bf 2f60 1b3d
000002d0: 0645 0dbe f6f6 023f 020b 52be ecbb 903e
000002e0: fe9e f3be 032a 993e 3a26 b23e 857c a23e
000002f0: 2e24 9bbe 0e47 2cbe 042f 613e 9309 b5be
00000300: e1fe fcbd 0488 8cbe 0b77 423e 28f3 e6bd
00000310: cf25 e03d ba5a f73e 451d 9dbd 33b9 e03e
00000320: 3be7 efbe cd09 65be 64be d4bd 1602 b2be
00000330: 2c9e e6be 8eb8 13be 8a95 2b3e 00d2 a8be
00000340: 0f02 d83e a18e ee3e b112 c53e 71f1 813e
00000350: f8b1 32be d209 fd3e ea12 b33d b8d7 4fbe
00000360: abf5 09bf 2fde 383e d026 a7bc 086b 2bbe
00000370: 8d94 da3e a71f 383e 6035 cdbe b81e bfbe
00000380: b4b5 8e3e edcb 1a3e 7c72 943e b317 6e3e
00000390: e9cf 463e 2dd7 a4be c2a5 43bf 17f5 583d
000003a0: b83d fe3d 4dd8 0e3e 40c1 923e 9547 cabe
000003b0: 3077 c3be 2c3a 663e ccad 8ebe cbf0 bdbc
000003c0: 70b4 b33b 4f84 7f3e 4dda a6be 82d8 20bd
000003d0: a4aa 803d 345f ccbe f828 88be 9935 de3e
000003e0: cb5a c63e 8b1c ac3e b7b0 d5be 6e6a aebe
000003f0: f309 96bc 94ae 6d3e d9fe 2cbe 20bd 54be
