output/tansfer/sc/seqfish_0.1.pth (torch, 220743 bytes, 10 tensors)

encoder.encoder_g.conv1.bias f4 [32]
00000000: 0cce 78bd d41f 9dbd 27ce 64bd 6f9a a2bd
00000010: 7fc4 93bd 6263 3ebd 295e 87bd 524a 95bd
00000020: a7bf 8dbd c990 b8bd 0d59 29bd 92d3 15bd
00000030: b081 3cbd 3ef3 6dbd 9bb6 c6bd 0c97 14bd
00000040: ba00 b2bd 068b bdbd b1f8 64bd 4bb3 92bd
00000050: 3523 74bd 4b04 933c d992 49bd e3d8 aabc
00000060: 2563 b5bd e9cb 17bd 8558 aabd b3c6 21bd
00000070: ea66 7bbd f464 a5bd 9281 52bd 26eb aebd
-0.060743377 -0.07672086 -0.055860665 -0.07939612 -0.07215213 -0.046481498 -0.066097565 -0.07289566
-0.069213204 -0.090119906 -0.04134469 -0.036578722 -0.046022117 -0.058093302 -0.09702798 -0.036276862
-0.08691545 -0.09255032 -0.055901233 -0.07163104 -0.05960389 0.017946383 -0.04921231 -0.020855373
-0.08856801 -0.0370597 -0.08317665 -0.039496135 -0.061377443 -0.08075896 -0.0513931 -0.08540945

encoder.encoder_g.conv1.lin.weight f4 [32, 64]
00000000: d7c4 14be 909b d5bd 0155 c13d 2a84 ea3d
00000010: 8c56 3f3e b2eb 87be e99c 8d3e 4199 55bd
00000020: 1c80 39bd a0a3 fdbd b25b 263d ed14 9a3d
00000030: 5efb e53d 25f7 213e 220e 28be 2b6e f23c
00000040: 83ba f33d b85b 783d b57c 643e 690c bcbd
00000050: 908d 18be db37 ae3d 4b03 9dbe bddf bfbc
00000060: e718 b93d 6839 19be 4faa 983e f0df 1ebd
00000070: acda 4b3d f95c 71be 4bc8 01be 037e c73d
00000080: 5267 82bc 9034 9c3e ec4a 393e 8755 9c3d
00000090: 4939 40be 7753 8d3e b3d7 6abe 54ec 403d
000000a0: 5eb6 823c 11ab 893d 407a 18be fd7c c63c
000000b0: b576 da3d 329b 143e 34c1 93be d762 2bbc
000000c0: cfd0 dabd e93e e93b 8ea9 cbbd 6ffb 943e
000000d0: 7618 a4bd 7145 93bd 60c5 8fbd 2dd2 263e
000000e0: a125 743e 4b3a 993e b5d9 0cbe 6d0e f9bd
000000f0: 7b70 5cbe 776d afbd 4197 90be c98c 6bbe
00000100: 7deb 9bbe 706b 903c a24c 9b3e 7513 6cbe
00000110: d582 003d a694 9a3d 478a f4bd 9f37 b33c
00000120: ea23 723e ebd0 2dbe b164 1d3e 0bfc f63d
00000130: ca97 163e be25 07bb 2401 a4bd 1750 d9bc
00000140: 19b3 8c3d 776d 363e 457d 853e 0e40 5dbe
00000150: 771f 173e 7bd0 9e3e d8a0 9ebe 2fe0 70bd
00000160: 1466 da3d 48a4 923e 7530 643e acac 83be
00000170: 809d 413e d484 2f3e d53c 7c3b d14f 1fbe
00000180: e0da 2d3d 1a14 523e 5ea0 10be 0990 a2bd
00000190: bbaf 8f3d 8be9 143e 6c1b 173d 4cec 23be
000001a0: 1c89 fdbc fefa 08be 10f5 c7bd 1dcd 4a3e
000001b0: 4490 5bbc 7493 dfbb a5b5 453d a30e a63e
000001c0: 8a38 2ebe a49f a83e f4a6 493c 19ec c23d
000001d0: b7e5 0cbe adc4 913d cea9 9b3e 7504 993d
000001e0: 5624 30be 3312 963e f830 463e 0a8f cabd
000001f0: 97a9 9e3d 6f34 013d ec9f 15be e156 5dbe
00000200: 7e31 133e c999 d9bd 2334 3ebc e4a0 d23d
00000210: 1463 24be 38ad 3abd 9442 35bd 5c9b 193e
00000220: 83c1 263e f12d d03d 77ee d83b 660a 18bd
00000230: 4ea6 c8bd b187 ebbd 9229 393e 984b 383e
00000240: 8aed 2fbd 961a 403e b55a 513e 8ff9 a9bd
00000250: 6890 e33d 1ee3 f93d 1750 3dbe d33d 2e3e
00000260: 2f5d 69bd 8f69 12bd 6a75 36bd 07de 87be
00000270: cb05 703d 6cb2 73be 9ecc 943e fcf4 aabd
00000280: 8ebb 2abe 298a bfbd cd0b c23d ee3d 553e
00000290: 98c6 933c 6d7e 153e 1ab2 0bbd 36e8 f43d
000002a0: 427c 023d c556 a2be dbc3 683d 118b d1bc
000002b0: 6bf5 3dbe 3792 d83d 63f7 073e 5f0f 453e
000002c0: a647 24be 7666 9a3e 0ca5 f03d 8925 423e
000002d0: c95d 4e3d 4970 643e 5698 f7bd fbd2 533e
000002e0: 9691 f13d 792e 993e dc8e dbbd fd6b 01be
000002f0: c609 ed3c d18f 293d 3f5e 193e 6488 40be
00000300: b6f0 4bbd b820 95be c892 95ba 3d15 d4bc
00000310: 0d4e fbbd e4ac 033e 2b25 2d3e 9c4f 253c
00000320: 76af 1fbc 24a4 86be 7a72 cf3d 4724 1abe
00000330: 947e 9fbc 3cbd 523d 88d0 b1ba cdab 263c
00000340: 92d9 a6bd 3214 443e 6313 3c3d 52b6 31be
00000350: d30a e4bc a0e3 663e f423 8ebe 7d98 1a3e
00000360: e21f d1bd ed8e 033e 019c a53e 5e37 5f3c
00000370: 1e7d ba3e e72a 39be 6f3b 1ebe 7a66 02be
00000380: 03b7 60bd f97a 8a3e d06c 14be 3dde 8d3e
00000390: f37f c0bd 578d 653d aeb1 30be 9e63 14be
000003a0: c325 f3bc 7c4b babe 7c8b 2cbe e4ff 493d
000003b0: 6ae0 25be 2f27 d53c 521f f2bd 428c f3bd
000003c0: a38a 4fbd 227b 383e a051 9d3d 698b da3d
000003d0: 637b 0bbe 4b8e 27be 4974 2bbe 13fe 3c3e
000003e0: ca3d e6bd c535 fcbd a043 953e 7b66 83be
000003f0: ed03 44be ea0e 0b3d 13f9 51bc 28ee be3d
-0.14528213 -0.10430062 0.09440041 0.114509895 0.18685359 -0.2654701 0.27658775 -0.052148107
-0.04528819 -0.123847246 0.04061479 0.075235225 0.11229585 0.15816934 -0.16411641 0.029593548
0.11900809 0.060634345 0.22313197 -0.091820545 -0.14897752 0.08506747 -0.30666575 -0.023422116
0.09037953 -0.14963305 0.29817435 -0.038787782 0.04976909 -0.23570623 -0.12674062 0.09740832
-0.015918408 0.30508852 0.18094987 0.076335005 -0.18771853 0.2760274 -0.22933845 0.04710038
0.0159561 0.067220815 -0.14890385 0.024229521 0.10667173 0.14512327 -0.2885834 -0.010460577
-0.10684358 0.007118095 -0.09944449 0.2909808 -0.08012478 -0.07190979 -0.07020068 0.16291113
0.2384248 0.29927287 -0.13754924 -0.121609546 -0.21527283 -0.08565801 -0.28240398 -0.23002924
-0.304531 0.017629355 0.30331904 -0.23054297 0.03137477 0.07547884 -0.11940437 0.021877108
0.23646513 -0.16974227 0.15370442 0.12059792 0.1470634 -0.0020621861 -0.0800803 -0.026527448
0.06870098 0.17815195 0.26072136 -0.21606466 0.14758097 0.31018433 -0.3098209 -0.058807548
0.10664001 0.28640962 0.2228411 -0.25717676 0.18907738 0.17140514 0.0038488407 -0.15557791
0.042445064 0.2051548 -0.14123675 -0.07937629 0.0701594 0.14542215 0.036891386 -0.16008109
-0.030949168 -0.13376996 -0.09763539 0.19804807 -0.013401095 -0.0068229977 0.048268933 0.32433042
-0.17013755 0.32934296 0.012307871 0.09517688 -0.13759504 0.07117591 0.30402988 0.07471553
-0.17201361 0.2931076 0.19354618 -0.09890564 0.077471904 0.031544145 -0.14611787 -0.21615173
0.14374349 -0.10625035 -0.01160911 0.10284594 -0.1605342 -0.04557535 -0.044252947 0.15000671
0.16284756 0.10165013 0.006620224 -0.03711929 -0.09797345 -0.115004905 0.18082264 0.17997587
-0.042951144 0.18760142 0.20444758 -0.08299553 0.11111528 0.12201522 -0.18487583 0.17015772
-0.056973632 -0.0357452 -0.04454557 -0.2653658 0.058599275 -0.23798531 0.2906236 -0.08347508
-0.16673109 -0.09352524 0.09474907 0.20824406 0.018039033 0.14599009 -0.034105398 0.11958353
0.031856783 -0.31706825 0.056827407 -0.025579007 -0.18550651 0.10574763 0.13277964 0.19244145
-0.16042957 0.30156296 0.1175023 0.18959631 0.05038241 0.22308458 -0.12089603 0.20685951
0.117953464 0.29918268 -0.10720608 -0.1263885 0.028935324 0.04139692 0.14977358 -0.18802029
-0.049790107 -0.29126525 -0.0011411542 -0.025889033 -0.122707464 0.12858921 0.1690871 0.010089781
-0.009746423 -0.26297104 0.101292565 -0.15052901 -0.019469537 0.05145 -0.0013566175 0.010172796
-0.08146967 0.19148329 0.045916926 -0.17354706 -0.027837193 0.2254777 -0.27761805 0.15097232
-0.10211159 0.1284749 0.32345584 0.01362404 0.36423582 -0.18082772 -0.1545236 -0.12734404
-0.054862034 0.27046946 -0.14494634 0.27708617 -0.093994044 0.056042995 -0.1725528 -0.14491126
-0.029681092 -0.36385715 -0.16850084 0.049316302 -0.16198888 0.02601966 -0.1182238 -0.118919864
-0.050669324 0.18015721 0.07681584 0.106711216 -0.13621287 -0.16362874 -0.16743578 0.18456297
-0.11242254 -0.12314943 0.29153156 -0.25664124 -0.19142123 0.03394977 -0.012815732 0.093227684

encoder.encoder_g.conv2.bias f4 [32]
00000000: c729 18ba 7db5 91bc 27bc 433c 11c8 a83b
00000010: 693f aebb 0650 61bc 0a13 42bb 09a1 143b
00000020: 8e1a bfbb 20af 933b 440d 60b9 b32f 0c3b
00000030: ddbb a63c bdf2 ccbb 55bf a63c 851a 043a
00000040: 1d84 853b e9ca 9fbc c332 383b 4866 58bb
00000050: 235f 90bb 6474 efbb c633 e93a 5355 d73b
00000060: 8d04 ab3c daab d43b 7209 1a3c 816c 41bc
00000070: f1cd 38bc e1fa 253b 9000 973b 44e6 4abb
-0.0005804565 -0.017786736 0.0119467145 0.005150803 -0.0053176177 -0.013751989 -0.00296134 0.0022678992
-0.005832023 0.0045069605 -0.00021367247 0.0021390736 0.020353252 -0.0062545226 0.020354906 0.0005039352
0.004074587 -0.019505935 0.0028106428 -0.0033019949 -0.0044058724 -0.007307576 0.0017791919 0.0065714507
0.020876193 0.006490213 0.009401666 -0.0118056545 -0.011279569 0.0025326537 0.0046082214 -0.0030960003

encoder.encoder_g.conv2.lin.weight f4 [32, 32]
00000000: 3680 0b3d 0c89 88be 6ae7 01bd 9d89 2f3e
00000010: 663c ea3d 3a61 083e f692 c53d 1e88 5d3e
00000020: 5564 52be fdd9 113e 3bed 9dbe a62a 86be
00000030: 12bf 213d b771 b43d 1346 5e3c 0905 84be
00000040: eced 76bd fb40 f7bb 6429 463e 4c65 95be
00000050: 7b69 82be 715a 2d3e 65e2 7bbd e771 72be
00000060: 0339 8e3e bf93 fabd 58d2 c63d 6a5b 77be
00000070: a18d 933e bb13 25be 2275 e33d 4e41 bd3d
00000080: 2767 3fbe 6508 9abe 40b4 31be abd9 7fbd
00000090: 1cf5 6cbe ae40 363e 7d33 813e 3d52 a13d
000000a0: e728 c23d 801e 313e 67a8 5bbd a2e5 623e
000000b0: e173 203e 9699 273c 1fb1 c83d dd09 47be
000000c0: 6696 86be a1a6 b9bd ca17 6fbe fb52 853e
000000d0: d8c1 1bbd 21fb 013e fdcf ecbd 0fcf 223d
000000e0: 319c aabd 88be 373e b5b9 56be dd0a 4abe
000000f0: 2564 8cbd 1535 7ebe 40d6 2d3d 8f92 28bc
00000100: e98d 32bd ae72 aabc 3dc7 fd3d 76b3 5ebe
00000110: 9bc5 5fbe e9ef cbbd 7cd9 6fbe 89c5 7f3e
00000120: 9492 36be c874 1fbd 0253 9b3e e417 1cbd
00000130: e6ce 49be afc1 29be d0fc 6a3e df9b 6bbd
00000140: 0374 3abd 1abe 953e 43b2 62be 8b70 793e
00000150: b6e9 7abe 15cb 203e c070 873e 0cbb f5bd
00000160: 0297 7bbe 6890 333d 719e 27bc 33e0 16be
00000170: c088 c7bd 175f 98bc 6e62 8e3d c726 173e
00000180: c6c8 92be ec15 f53d c515 4abe 6751 f6bd
00000190: 7706 023e 0b4c 313e 23ff 3ebe 9127 6ebe
000001a0: c067 2fbe 6532 c53d b925 413e ffb2 433e
000001b0: a13a 273e ddbb d73d c07c c73d 8b5c d4bc
000001c0: f0ba 01be 4604 12be d98b 6a3e 12b4 353e
000001d0: 0e9b 61be c32a 53be 01cd 193e ead2 583e
000001e0: 32b8 b33d 8d4a 513e a9fd 94be e04a a5bd
000001f0: 293f 84be 37bb 633e 31cf 0bbd b065 633e
00000200: e731 d0bd 91eb 79be d13a c7bd 4328 603e
00000210: 330c 563e ccfa 84be 1b92 23bd 615e 4dbe
00000220: 417a 143e a7e3 663e 357c 823d 0bd6 94bd
00000230: e52c 12be 015c 81be 3e3f abbd 6371 3dbd
00000240: 664e ec3c 0a15 783e e916 26bd 5fa5 62be
00000250: f87f 883d 4017 02be aaa0 2b3d 492b f3bb
00000260: 0968 4c3e 89d3 60ba 039a aebe 2ce1 263e
00000270: e85b 723e 24b3 a6be 1806 283d a5d5 5f3e
00000280: 0a1b 1dbe 9892 2fbe b819 ae3d 845a 8a3e
00000290: 674e 86be fd1d d33d 2a3e 363e 296f 3b3d
000002a0: 9f9d 553e 6632 2b3e a830 dcbd 9594 6f3e
000002b0: 3f1d 8ebe f49b 0abe c0c7 c93d a9ba 2d3e
000002c0: 70a9 8b3d 54c2 19be a1a3 0a3d 175a 17bd
000002d0: 775f bcbd f7b0 5e3e 195b 36be 4b17 5e3c
000002e0: e73c 5c3e 5263 70be 2a64 d9bd ba2d 44be
000002f0: 187b f7bd 66ea 7cbe dde1 71bb b26f 99bd
00000300: 6d45 47be 7451 ad3d a109 78be 3200 1ebe
00000310: ec2d 02bd d4b1 6e3d a37c 033e cb08 67bd
00000320: c415 803e 9170 45bd 9259 ad3d 5bdc 8cbd
00000330: faac 2e3e 7cd0 80be d2c3 7c3e 9953 633c
00000340: 19ee 963e 5184 5ebd c037 29be 2eae f9bd
00000350: 3db3 a6bd 488b 1a3e cdfb 183d e5ca b7bd
00000360: dda6 4abd f688 e93d cfb4 353e 039c 87bd
00000370: 8e6e 0f3e 52ec 643e aa8c 203e 84bc d9bd
00000380: cb90 9ebe 4bb2 323e eeb7 613e 45f7 9cbd
00000390: bf94 a1bc 0f0c 6f3e 4333 b0bd c912 84bd
000003a0: fc2c 6abe ed83 b03e 8d5a 1fbe 5e17 60bd
000003b0: 8292 893e dff4 b8bb f46b 173d 306c 8e3e
000003c0: 9567 7bbd 0071 4bbd 16e2 d03d 1551 24be
000003d0: 3bc3 233e fa88 d33d dcdf 1cbe 1b0a 6abc
000003e0: 7345 913e 516c cebd d67b 193b c4b0 e0bd
000003f0: 33f1 1a3d 9bfa 663e eeb0 06be 9bc6 633e
0.03405782 -0.26667058 -0.031714834 0.17142339 0.11437301 0.13318339 0.09647171 0.21633956
-0.20546086 0.14243312 -0.30845055 -0.26204413 0.03948886 0.08810752 0.013566512 -0.25785092
-0.060285494 -0.007545588 0.19351727 -0.29178846 -0.254711 0.16929032 -0.061495204 -0.23676263
0.2777787 -0.122352116 0.09708089 -0.24155965 0.28818992 -0.16120808 0.11106326 0.092409715
-0.18691693 -0.3008453 -0.17353916 -0.062463444 -0.23140377 0.17798111 0.25234595 0.07877014
0.09480458 0.17296791 -0.053627398 0.2215791 0.15669204 0.010229489 0.09799408 -0.19437356
-0.2628662 -0.09064985 -0.23348919 0.26039872 -0.03802666 0.12693454 -0.11563108 0.039748248
-0.083305724 0.17943776 -0.20969279 -0.19730707 -0.068550386 -0.24824937 0.042440653 -0.010288849
-0.043592367 -0.020806637 0.12391517 -0.21748146 -0.21852724 -0.099578686 -0.23422807 0.24977697
-0.17829353 -0.03892973 0.30336767 -0.03810872 -0.19707832 -0.1657779 0.22948003 -0.057521697
-0.045520794 0.29246598 -0.22138314 0.24359338 -0.24503216 0.1570247 0.2645321 -0.11998567
-0.24569324 0.04383889 -0.0102306465 -0.14733963 -0.0974288 -0.01860003 0.06952368 0.14760886
-0.28668803 0.11967072 -0.19734867 -0.12027245 0.12697779 0.17314164 -0.18652014 -0.23257281
-0.17129421 0.096287526 0.18862046 0.1911125 0.16330959 0.10533879 0.09740591 -0.025923034
-0.12668967 -0.14259443 0.2290491 0.17744473 -0.22031805 -0.20621781 0.15019609 0.21174207
0.08775367 0.20438595 -0.29099777 -0.08070922 -0.25829437 0.22239386 -0.03413314 0.2220676
-0.10165768 -0.24406268 -0.09728015 0.21890359 0.20903091 -0.25972593 -0.03993426 -0.20055534
0.14499761 0.2254778 0.06371347 -0.07267388 -0.14274938 -0.25265506 -0.08361672 -0.046250712
0.028845977 0.24226776 -0.040549193 -0.22133397 0.06665033 -0.12704182 0.041901268 -0.0074209315
0.19961561 -0.0008576443 -0.34101877 0.16296834 0.23667872 -0.32558548 0.041021436 0.21858843
-0.15342346 -0.17145765 0.08500999 0.27022183 -0.2623169 0.10308454 0.17797151 0.045760307
0.20860909 0.16718444 -0.10751468 0.23396523 -0.27756688 -0.13536054 0.098525524 0.16965736
0.06819427 -0.15015537 0.033847455 -0.03695115 -0.09197896 0.21747194 -0.17808188 0.013555358
0.21507607 -0.23475388 -0.10614808 -0.19158068 -0.12084025 -0.24698791 -0.0036908307 -0.07492007
-0.19460078 0.084628016 -0.24222423 -0.15429762 -0.031782076 0.05827506 0.12840514 -0.05640487
0.25016606 -0.048203055 0.0846435 -0.06877967 0.17058173 -0.2515906 0.24684075 0.013874912
0.2947853 -0.054325406 -0.16525173 -0.12191425 -0.08139656 0.15092194 0.03734951 -0.08974246
-0.04947554 0.11403076 0.17744754 -0.06621554 0.14007017 0.22355774 0.15678659 -0.106316596
-0.30969843 0.17450826 0.2204282 -0.076643504 -0.019724248 0.23344444 -0.086035274 -0.064488955
-0.22868723 0.3447565 -0.15561886 -0.054709785 0.2686959 -0.0056444253 0.036968186 0.27816916
-0.06137808 -0.049668312 0.101993725 -0.16046555 0.15992443 0.103288606 -0.1531977 -0.014284636
0.28373298 -0.100792535 0.002341976 -0.10971215 0.03782768 0.22556536 -0.13153431 0.2224373

encoder.encoder_g.linear.weight f4 [32, 1440]
00000000: 4e7f 9ebc 56cd f7bb fa9b 5f3d e22f dbbc
00000010: d963 4dbd bb01 cf3b 534d 2ebd 57df 7c3d
00000020: 1e80 76bd 6c75 c2bc 145d afbd 64c0 d1bc
00000030: 53e3 d83c d806 1ebd 6f28 a4bb 05b2 8a3d
00000040: d177 acbd 594f 903d 18e7 00bd 5441 d33b
00000050: fcfe d8bb 6b2c 653d 32a8 79bd f953 623a
00000060: eee0 313d 9286 e03c b8f8 9c3d bc87 89bc
00000070: d5fd 783d ca20 9c3d 493e 43bd 8ac4 25bc
00000080: aa51 9cbc 0d3b 21bd e931 94bc d038 75bd
00000090: 74d6 94bd 7d89 32bb 9d55 73bd 5b25 d23c
000000a0: beea 7abd 5741 36bb 0db9 49bd 2c8a 6f3c
000000b0: dc2d 0c3c 8be2 40bd cc9f 2c3c 31f0 093d
000000c0: 22cc 27bd 4776 9a3d 608e 97bd f19e 133b
000000d0: 57bd a53c 9aa8 4b3d 7849 f4bc 2f10 cd3a
000000e0: 2b29 673d 4c27 1c3d e1cc 453d 0d20 ea3c
000000f0: c977 c73c 8fa4 083d 9c63 d0bc 746c 413d
00000100: 2265 2b3c 3132 25bd 1a67 1b3d 452f 56bd
00000110: 6c32 f2bc 8e63 663c bb60 0fbd c722 de3c
00000120: 9c45 70bd b965 383a 9c11 52bd 76eb 183c
00000130: 08fe bdbc 158d e6bc 9ec4 143b 0233 333d
00000140: e36d 3fbd ee1d 193d 7410 a8bd 36c4 cd3c
00000150: 6c17 bebb 7a51 f23c 6be6 c5bc 0f95 4e3b
00000160: 06aa 2a3c 9446 8f3d 8528 963d f47f 633c
00000170: 2d3e 333d f5aa 733d 70c0 94bd 927b 9dbc
00000180: b6f5 693c 476b 62bd 01d3 d73c a903 d4bc
00000190: 9a41 ddbc b5b4 a9bc 450c 62bd 58c8 533d
000001a0: 68ac 68bd f9e9 083c fd3e fdbc f25e 7dbc
000001b0: 2373 ad3c cb85 3abc 5453 183d 1a88 063d
000001c0: a9d1 6dbd 4ead 913c a767 57bd 6ebd f3bc
000001d0: 2d0c 02bb 1792 7e3d 068d 23bd 8a76 c6bb
000001e0: 3532 753d 3416 a43d 58ef 6d3d 18fd 073c
000001f0: 2263 513c 7630 0e3d cac9 0fbd 410c 8f3c
00000200: 7a49 d83b d3f7 5cbd 5a5f ac3b 5e5c 91bd
00000210: e467 13bd 61fa 2ebc e69c 31bd 4ca7 4b3d
00000220: 026f 95bd 9483 c33c 1453 22bd f8c0 cf3c
00000230: a8b3 f23b d4ae 9ebc dccf a1bb 5503 c33c
00000240: 6cf3 87bd 2203 2e3d 1385 63bd 4188 423c
00000250: 1907 ef3c 141a cf3c 3107 65bd 60db 823c
00000260: a2fd 8e3d f5e3 263d 89be bc3d 0a26 983c
00000270: 7766 9f3c 107f 2f3d 65c6 21bd 4785 d83c
00000280: 0386 0abc d61e e5bc bc74 a3bc 04d0 48bd
00000290: 45cb 1fbd 0b4c e13b 63d8 a3bd 2d32 cd3c
000002a0: 6aec 8dbd 8983 4abb 97e5 bfbc 6d34 973c
000002b0: a934 c0bc a313 0dbc b6ba 903c 2c51 1e3d
000002c0: 916f 8ebc 5b6c 143c a764 70bd 0a09 b0bc
000002d0: a0f8 8039 dc7d 663d 86aa 02bd 1738 783c
000002e0: fc57 073d 21f2 833d 887c b03d 0033 a5bc
000002f0: f27e 5e3d 5233 3c3d 2202 50bd 2ae0 d03c
00000300: 889d 233c 8eee 47bd 347e cebc aba9 12bd
00000310: 2295 32bc 583e 333d 6471 63bc 4917 093d
00000320: a3f1 32bd 3986 783c c5ae acbc c7b8 02bd
00000330: 462a d8bc 115c a1bc 4050 7f3c 087a e93c
00000340: 36ce 7fbd 7be2 653d ff3a 89bd 5f73 e1ba
00000350: 1199 23b9 a63f 223d 076e 7cbc 2ebb 273b
00000360: cb7b 1f3d 13ee 723d 9971 913d a040 973b
00000370: 39a3 193d a1d9 3e3d f46d 70bd dcd9 903d
00000380: e021 7fbc 6940 7c3d e1dc 21bc 459b 94bc
00000390: aacc eebc d5ad 863c c85f 46bc 9afb 0e3d
000003a0: 4a24 babc 0a2b dcbc beca aabc 1659 963a
000003b0: e2f2 86bc 835c 3bbd 0f72 80bd 45b0 783d
000003c0: 7ffe 7abd 9df8 063c d818 09bd ee3c 6ebc
000003d0: 8a0a 313c bc1a 7eba 6075 5fbd 5bed 03bd
000003e0: 291b fb3c f2c4 ad3c efb4 ce3c 0892 61bc
000003f0: 923e 533d 894c cc3c 85e9 12bd ed48 1c3d
-0.019347813 -0.0075623197 0.05459211 -0.02675623 -0.05014405 0.006317345 -0.04255421 0.06173643
-0.060180776 -0.023737632 -0.08562675 -0.025604434 0.026475584 -0.038580745 -0.005009703 0.06772236
-0.08421291 0.07046384 -0.03147039 0.0064469967 -0.0066221934 0.055950563 -0.06095142 0.0008633729
0.0434274 0.027407918 0.07664627 -0.016788356 0.060788948 0.076234415 -0.04766682 -0.010117659
-0.01908191 -0.039362956 -0.018090205 -0.059868634 -0.07267466 -0.0027242594 -0.05940782 0.025652578
-0.061259024 -0.0027809942 -0.049248744 0.014620345 0.008555856 -0.04709105 0.010536145 0.03367633
-0.04096616 0.07542091 -0.07400203 0.0022525156 0.020231886 0.049721338 -0.029820189 0.0015645082
0.056435745 0.038123414 0.04829109 0.028579736 0.02434911 0.03336006 -0.025438122 0.04722257
0.010461124 -0.04033107 0.037940122 -0.052291173 -0.029565059 0.014061822 -0.03500436 0.027116193
-0.058660135 0.0007034201 -0.051286325 0.009333482 -0.02319242 -0.028143445 0.00227002 0.043749817
-0.046735656 0.03738206 -0.08206263 0.025117975 -0.005801132 0.029579867 -0.024157723 0.0031521951
0.010416513 0.069958836 0.07331947 0.013885487 0.043760467 0.05948921 -0.07263267 -0.019223962
0.014279773 -0.05527809 0.026345732 -0.025880652 -0.02700882 -0.02071605 -0.055187482 0.051704735
-0.056805044 0.008356565 -0.030913824 -0.015464531 0.021173066 -0.011384438 0.037188843 0.03284464
-0.058061276 0.017782833 -0.052589085 -0.029753413 -0.0019843683 0.06215104 -0.039929412 -0.0060566114
0.059862334 0.080120474 0.058089584 0.008300088 0.012779983 0.034714185 -0.03510455 0.017461898
0.006600556 -0.05394728 0.00526039 -0.07097696 -0.03598775 -0.010679812 -0.04336252 0.049720094
-0.07296564 0.023866452 -0.03963001 0.02536057 0.0074066706 -0.019370474 -0.004938109 0.0238053
-0.06638226 0.042483456 -0.05554683 0.011873306 0.02917819 0.02528099 -0.05591506 0.015973747
0.0698197 0.04074474 0.09216029 0.018572826 0.019458039 0.042845786 -0.039495844 0.02643074
-0.008454802 -0.027968805 -0.019953124 -0.049026504 -0.039012212 0.00687552 -0.08000257 0.02504834
-0.06929858 -0.0030901155 -0.023424907 0.018457616 -0.02346261 -0.008610639 0.017667156 0.03865163
-0.017387183 0.009059037 -0.05868974 -0.021488685 0.00024599303 0.056272373 -0.031900905 0.015150092
0.033042893 0.06442667 0.086175025 -0.02016592 0.054320283 0.04594738 -0.050783284 0.025497515
0.009986289 -0.048811488 -0.025206663 -0.03580634 -0.010899814 0.043760628 -0.013882015 0.033469472
-0.043687474 0.01516872 -0.02107943 -0.0319145 -0.026387345 -0.019697221 0.015583098 0.028500572
-0.062452517 0.05612419 -0.06700706 -0.0017200521 -0.00015601913 0.03961148 -0.015407092 0.0025593746
0.038936418 0.059309077 0.07101745 0.004615858 0.037509177 0.046594266 -0.05869861 0.070728034
-0.015572041 0.061584864 -0.009879322 -0.018140445 -0.029150326 0.016440311 -0.012107797 0.034907915
-0.022722382 -0.026875991 -0.020848628 0.0011470641 -0.016473237 -0.045742523 -0.06271755 0.06071498
-0.061277863 0.008237985 -0.03347096 -0.014540894 0.010805735 -0.0009693315 -0.054555297 -0.03220878
0.0306526 0.021212075 0.02523276 -0.013767727 0.051573344 0.024938839 -0.035867233 0.038155485

encoder.encoder_g.linear.bias f4 [32]
00000000: 04b4 0c3c 6970 9d3c eb1a 433c 6376 2d3d
00000010: bfe6 133c 0e12 17bc 3b50 89bd a415 023d
00000020: 7ea7 4ebc 035a 11bd eeec 0cbd 369c 01bd
00000030: 9d52 63bc df13 f4bc 8146 90bc 821b 22bc
00000040: 0636 3fbc 4ba1 7d3c 373d 44bc 3c1b 9bbc
00000050: 71b9 27bd 5664 883b 9faa 983c 1369 cb39
00000060: d360 96bc 4889 d6b7 c98c 0f3c 53dc f43a
00000070: e989 bebc 266e a3bc 3568 2aba cb00 783c
0.008587841 0.01921864 0.011908273 0.04234923 0.009027182 -0.009220613 -0.06704756 0.03175892
-0.012613175 -0.035486232 -0.03440564 -0.031643115 -0.013874677 -0.029794632 -0.017611744 -0.009894254
-0.011670595 0.01548035 -0.011977485 -0.018933885 -0.040948335 0.0041623516 0.018636046 0.00038797464
-0.018356716 -2.5574715e-05 0.008761593 0.0018681384 -0.02325912 -0.019949984 -0.00065005134 0.015136908

encoder.encoder_c.conv1.bias f4 [32]
00000000: cc29 3c3d c63a e33d 06b1 003e f056 a53d
00000010: 6e94 2c3d 863c ef3d 500f e43d 4495 0b3e
00000020: 0049 a13d bd03 913d d333 e43d 2700 d53d
00000030: c2e2 fb3d f41d c83d db39 2c3d 6beb 013e
00000040: c910 e63d d188 b73d aeef c73d 1397 dd3d
00000050: fc10 7b3d 426b 063e 21fa da3d 4c15 b03d
00000060: 70e8 a93d 7478 d03d 5bb9 e03d b6f0 163e
00000070: 0e21 4e3d 1aad d33d 647b af3d 80a5 823d
0.045938298 0.110951945 0.12567529 0.08073223 0.04213374 0.11681466 0.11135733 0.13631159
0.07875252 0.07080791 0.11142697 0.1040042 0.1229911 0.09771338 0.042047363 0.12687461
0.1123367 0.089616425 0.09762512 0.10819831 0.061295494 0.13126853 0.106922396 0.08597812
0.08296287 0.101792246 0.10972854 0.14740261 0.050324492 0.10335751 0.08568457 0.06379223

encoder.encoder_c.conv1.lin.weight f4 [32, 125]
00000000: 2adf 533e 29b5 4c3d 5fa7 8a3d f9a5 be3b
00000010: 5c95 a73e 9912 a43e 5047 6f3e c360 86be
00000020: bb45 22bf 7be5 963d 005f d03e f160 b83c
00000030: 1aad 183e fd3e edbd 3191 0bbd 5fdc 3dbd
00000040: fada 13bf 2b7a 1e3f 0aa3 093d 7cae 5fbe
00000050: 94e0 243e 3152 67be e891 cd3d 924d 8e3d
00000060: 1347 b8be a4a7 f83d d37c ab3d 2aef d4bd
00000070: 2dd6 db3e 4e43 073d c8da e83c 1f10 5f3e
00000080: 5a3e 693e f042 f43d 6fb6 c43e fae9 353e
00000090: 4043 f33d cbe7 d9bd 2ac9 08bd 20f7 ca3d
000000a0: 80c7 d53e 9e6b e83d 2773 c23c cb7a 643e
000000b0: bde1 ae3d eb42 e4bd 9202 0e3e 080f f6bd
000000c0: dd8c 503e ecfb a3bd 5809 8c3d 0c91 9ebc
000000d0: 859b f83d c8d1 20bd 8b7f 85bd f282 e4bd
000000e0: ea10 8b3e 8f50 033e b7cf bc3d a7fc 0dbe
000000f0: a7c2 e13e 40ad d73c 295f 843d 12e4 373e
00000100: 5dd7 2dbc f7de 4cbf e299 13be 76e2 a53e
00000110: 4a85 6fbe f247 5dbc 7ed6 53be 1e69 b8be
00000120: 41bb c63e 255c 65be ffad ae3e 2ec8 5d3e
00000130: 1f7e abbe 4db2 4a3e 0d39 c13d c6a6 3b3e
00000140: 5849 a33e 7af4 113e fe6e 5fbe 9a66 96be
00000150: 2453 fc3d 83fa 81be 499a 38be 6bc7 863e
00000160: 5125 463e 6eec 92bd 4ece b83d e5f3 cb3e
00000170: 5301 57be 62c8 4ebe 3ec3 3c3f b6ba 1b3c
00000180: 77ab ca3e a9a0 4ebd 672b 833e 806e dfbe
00000190: d704 0ebe f5f5 74be 0e79 9ebd a285 56bd
000001a0: c81c 17bf c81c 50be 447b 7ebd 1ac0 20be
000001b0: 0187 a63e 59fa 61be 5683 20bd 9a78 4bbe
000001c0: 86ba a5be 3ad0 2e3d e93f f43e 116b 10be
000001d0: c33c 92bd 4119 8dbe 932e dcbe 028a 08bf
000001e0: 501f a2be 9109 74be 4356 823c 3885 79bd
000001f0: 334c 153f 251e b33e 737f 04be 456e 013e
00000200: 501c 5d3d 9d35 17be ce2e e13d 1a2a 55be
00000210: c7cd 73be 2692 a6bd 8790 693d c418 943e
00000220: e2a6 11bf b830 04bf e8e8 21be ad49 833e
00000230: 1d4c dcbd f7b8 053d bbb0 f0bc c0c9 663e
00000240: 057e bcbd 81c2 49bc 64d8 5c3d b55a b83e
00000250: 4165 8ebe 647f 133c 4d62 8fbe 00b9 c7be
00000260: 6415 a8be 3021 bb3e 992a 0fbe 5a05 17be
00000270: 84e4 e8bd 9a0a ca3e 089d 1cbd b54c 83bd
00000280: d948 d33d d81b b53e 9605 9c3c 468d 923e
00000290: a7d9 02bd f46b 8d3e 3986 ba3e b388 78be
000002a0: a9bc fe3d 6d3d c7bd 1159 363e f443 a53e
000002b0: ff6c 4bbe 8a72 a63d 622f 4c3e 8743 f83e
000002c0: a2dd c5bd 7e44 623e 7e02 2abe 75da f4bd
000002d0: 5290 89bb 96d0 0a3e a5f2 46be 9141 853e
000002e0: 399a 9d3e 7525 b6be 7091 043f 6a74 173f
000002f0: e0c5 683e de03 e9be 270a b43e 1153 5a3f
00000300: d03e 593e 8c0a 7abe 6b53 cabd 29f0 313e
00000310: a3d1 ba3d 276a 56bd 6c3f 433e 0cb0 f7be
00000320: 626d 053e f24b d83e a8e4 833e 450a b73c
00000330: 1599 4e3d af0d d7be 7319 31be 43e3 b63e
00000340: 5d3c cf3e 9dc9 903e 9c83 47be 6492 653e
00000350: c161 06be 0d9e aebd 4535 993d dfac cdbd
00000360: fd5a 07be 3ca2 6ebe 88b8 25bc f07b 8dbe
00000370: 8eca a93e 558a d9bc f244 4bbe 9237 8fbd
00000380: 7a80 3e3d d64d 44be 38b8 a4be e539 acbd
00000390: 0900 433e 2424 afbe 5b31 2ebe e5d4 babe
000003a0: 9499 6ebe 621b 39be 3fb1 0c3e f655 993b
000003b0: 294f 003f b7a9 773d 181c 13be 0583 7a3e
000003c0: 369f 16be 0582 0cbe fed3 18be fb84 2cbe
000003d0: 5610 b33e b530 5e3e 398d 433e 2efb fc3d
000003e0: 5bcc 25be e2a7 db3e ccff 32be 3dfe 9c3d
000003f0: 32fb 11bf b46d f33e bccc 0e3e 91f9 573d
0.20690599 0.049977455 0.06770205 0.0058181253 0.3273114 0.3204544 0.23367047 -0.26245698
-0.6338765 0.07367989 0.4069748 0.022507163 0.14909783 -0.1158428 -0.034074012 -0.04635274
-0.57756007 0.61905164 0.03360275 -0.21843904 0.16101295 -0.22589947 0.10037595 0.06948389
-0.35991725 0.1214135 0.08373418 -0.103971794 0.4293684 0.03302317 0.028424636 0.21783493
0.22777691 0.1192683 0.38420436 0.17765036 0.11878061 -0.10639914 -0.03339497 0.099104166
0.4175377 0.11348651 0.02373655 0.22312467 0.0853915 -0.11145576 0.13868168 -0.12014586
0.20366235 -0.08007035 0.0683772 -0.019356273 0.12139038 -0.039262563 -0.065184675 -0.11157788
0.27161342 0.128237 0.09219306 -0.1386591 0.4409382 0.02632773 0.06463463 0.17958096
-0.010610429 -0.8002772 -0.1441417 0.32399338 -0.2339069 -0.013505923 -0.20687291 -0.36017698
0.38814738 -0.22398432 0.34117123 0.21658394 -0.3349466 0.19794579 0.0943471 0.18325338
0.31891894 0.14253417 -0.21819684 -0.29375154 0.12320545 -0.25386438 -0.18027605 0.2632402
0.19350173 -0.07174002 0.090237245 0.39834514 -0.20996599 -0.20193627 0.73735416 0.009504965
0.39583942 -0.050446186 0.2561905 -0.43638992 -0.13869034 -0.2392195 -0.07737933 -0.052373536
-0.5902829 -0.20323479 -0.062129274 -0.15698281 0.32524875 -0.22068156 -0.03918775 -0.19870225
-0.3236887 0.04267905 0.4770501 -0.14103343 -0.07140496 -0.2755833 -0.43004283 -0.53335583
-0.31664515 -0.23831774 0.015910273 -0.060918063 0.58319396 0.34983936 -0.12939243 0.1263972
0.05398208 -0.14766546 0.109952554 -0.20816842 -0.23808967 -0.08133344 0.057022598 0.28925145
-0.5689527 -0.5163684 -0.15811503 0.25642148 -0.10756705 0.0326471 -0.029381147 0.22537899
-0.09203724 -0.01231444 0.053917304 0.36006704 -0.27811626 0.00900254 -0.28004685 -0.3900833
-0.3282882 0.36548758 -0.13981093 -0.14748135 -0.11371711 0.39461213 -0.038235694 -0.06411115
0.10316629 0.35372806 0.019045632 0.28623408 -0.03194585 0.27621424 0.3643053 -0.24270897
0.12438328 -0.09728513 0.17807414 0.32278407 -0.19865797 0.08127315 0.1993995 0.4848902
-0.09661414 0.2209644 -0.16602513 -0.1195573 -0.0041981125 0.13556132 -0.19428499 0.26026586
0.30781725 -0.35575452 0.5178442 0.5916201 0.22731733 -0.45510763 0.35163996 0.85283
0.21215367 -0.24418086 -0.09879192 0.1737677 0.09122016 -0.05234733 0.19067162 -0.483765
0.13030007 0.42245442 0.25760388 0.022343764 0.05043896 -0.42002627 -0.17294864 0.35720262
0.4047574 0.2827882 -0.19483799 0.22419125 -0.13123228 -0.085262395 0.074808635 -0.10042738
-0.13218303 -0.23304075 -0.010114796 -0.2763362 0.3316235 -0.02655522 -0.1985052 -0.06993021
0.046509244 -0.19170317 -0.32171798 -0.0840948 0.19042982 -0.3420726 -0.17011015 -0.3649055
-0.23300773 -0.18076852 0.13739489 0.004679437 0.5012079 0.060464587 -0.14366186 0.24464042
-0.14709172 -0.13721474 -0.14924619 -0.16847603 0.349734 0.21698268 0.19096841 0.12352596
-0.16191237 0.42901522 -0.17480391 0.076656796 -0.5702392 0.47544634 0.13945287 0.05272824

encoder.encoder_c.conv2.bias f4 [32]
00000000: 10f6 3b3d 652e ba3d 10c9 8f3d 4b6c 073d
00000010: c76b 8fbd 0386 33bd 3675 b0bc 90a3 e3bc
00000020: 2388 43bd 6471 9dbc 9707 61bd 8304 23bd
00000030: 099a 2d3d b52d 1ebd 21b8 00bd c6de 98bd
00000040: 0006 edbd ee31 4d3d d685 253a d338 873b
00000050: 5c37 f43c bb38 52bd a74b c4bc e0d7 843d
00000060: 5e8f 3a3d 3aa6 2d3d e2f4 a43b 9230 c93c
00000070: 31db 6c3d 0668 1a3d 9d4b 4ebd 3a1d e2bc
0.04588896 0.0909088 0.070207715 0.03306226 -0.07002979 -0.043828975 -0.021540266 -0.027787954
-0.047737252 -0.019219108 -0.05493888 -0.039799225 0.042383227 -0.03861781 -0.0314256 -0.07464366
-0.1157341 0.050096445 0.00063141936 0.004126647 0.029811554 -0.051323634 -0.023961855 0.064864874
0.04554688 0.042394854 0.005034075 0.024559293 0.057826225 0.03769686 -0.05036508 -0.027601827

encoder.encoder_c.conv2.lin.weight f4 [32, 32]
00000000: f730 37be 3d5c 9fbd f8ae b23e 1184 84be
00000010: db2f 913e 5dca 0abd 0826 a63e 0cd3 053f
00000020: 9777 e23d b4e3 773e e4a0 833c e5b0 a7be
00000030: 2698 c3be 2e1c 82be c8f0 bcbe 4666 48be
00000040: c686 c6b9 dbc3 a8be 741b 75bc c3ee 1d3e
00000050: f13a 77bc 81ec d73e 7bda ce3e b34e 25be
00000060: ef51 273e f20f 8dbd 0dbf eabd 3461 94be
00000070: 7e40 ebbd 6b79 37bd bf71 1a3d 2fe3 4abe
00000080: c676 b4be f643 a9be f6f6 0fbe e0e5 183e
00000090: 2291 c93e d1ce 173e 9bd7 80be da6a 62be
000000a0: bd98 d6bd ad03 623e 08d1 3f3e ca51 87be
000000b0: 7299 e23c 43ba 483d c749 883e 3037 debe
000000c0: 5019 aabe e058 d9bd 9ca3 643d a5ef 0b3f
000000d0: a7fc 513e d23a c9be ccf6 4dbd 835c a23e
000000e0: 9c2f 3abe 60cc f03d 6990 6b3e 3076 88bd
000000f0: 57f4 0cbe 8cf9 c23d c2c6 d93e 4274 d3be
00000100: e1cc 70be e355 bcbe 5a5b 0abf e3d5 0dbe
00000110: 6076 82be dcb6 8cbe 2218 4a3e 96ff 843e
00000120: 415b e33d 7f82 133e 5383 9a3e 6903 943d
00000130: 35d4 a33e 664e 1b3e 01b0 a5be 9ebf 6d3e
00000140: f685 a13e e125 e0be de9a b8bd 392a d6bd
00000150: dcc1 583c 54a6 4e3d 79cf 2f3d c28e 023d
00000160: d7ff 273d bf38 f13e 070e 883e ef7d 56be
00000170: 8b6c 42be 1185 a4be 7108 eabe 8fcc b13e
00000180: 5c85 5ebe ab7b 2bbc 0835 8bbe 7c28 16be
00000190: 5236 853e 4ae2 cf3c 8e6a d0bd a962 d8be
000001a0: d780 d43e e9ad 093e 1978 67be 78a0 843e
000001b0: 4849 15be ee40 36be 1e1e 82be fb2c bebd
000001c0: 8abf dfbe e425 36be 8ad1 1e3e 5424 0cbe
000001d0: 22cc ac3e 6868 a33e 57c4 c83e c6e6 a1be
000001e0: f30d fc3d b052 ac3e a4f1 a83e 1fe0 943e
000001f0: 0279 2bbd 2b80 42be dbfb 253e ae07 82be
00000200: 5d91 b3bd 0415 62be 3173 813e 3ab0 f13d
00000210: 2dd4 9b3e 96d9 2f3e 3920 513e f926 373e
00000220: d22d b6be 08dd d63e a1f7 febd 21e4 c1be
00000230: 45b1 dcbe 38e0 fcbc 9fc5 b5bd 850f ddbd
00000240: bbe8 98bd 39a7 b83e 64f2 1f3e 1b02 883e
00000250: ae52 923e 774e a73e b419 afbe e537 28be
00000260: 07d1 8a3e fab5 f7be 6175 e93d 467d f13c
00000270: 5301 22bd 4abc b53e 39ce a4bc ba54 c9be
00000280: 4f2e a0be 95c6 90bd 1dfd a53e 66f8 ac3e
00000290: 884f 03be a4e3 5abe cc3f 8bbe 31df d43e
000002a0: 6650 7cbe e9e9 e1be a6f7 4dbe 9fd3 b5be
000002b0: daae 27bd 2171 03be 4c1a 7e3e 387f 093e
000002c0: 8fbd c43d 1239 bcbe c1d0 043f 0ec5 643e
000002d0: 5263 b0bd 6f89 05bf dd59 4a3e f11d 3d3e
000002e0: 5dfe 243e 75fc dd3e 4dfc 293e 90cd 423d
000002f0: 68df 5dbe 0608 75be ab3d f93e 79aa e63c
00000300: 2eea 4cbe 3c46 923e 3449 f13e fa4b 2dbf
00000310: a921 0b3f 3fd7 11bf 82f6 28bd 855b 0dbf
00000320: 2d3d ed3e 7dc4 6bbe 9b15 ebbe ae6d 50be
00000330: a0c4 00be 6c12 9dbe 2410 963d 07a8 84bd
00000340: 44de 9d3d f6a9 d23e ae0b b6be e9eb b13e
00000350: 01ec cabd a8ce 083e 4089 8a3e d6e5 3cbe
00000360: 3e2e ea3d 8f97 983d dc6f 5c3e 86ae 88be
00000370: 773e 70bd 8bee dc3e 34e0 203e 7666 623e
00000380: 9ec0 b13e 5694 5b3e 9b62 a5be aed2 a23e
00000390: 8167 76bc ba72 983e 21d7 fcbe 5ec7 5fbd
000003a0: bf5d 9abe cb79 a73d cf8c c2bd 4453 da3e
000003b0: 1e27 a4be d7a9 d43e 26a0 333e 9361 bbbe
000003c0: c7a8 be3e e3c6 d93e caf4 f1bc 0514 5f3d
000003d0: 77d0 b4be 4696 7ebe 99e8 243e 8293 42be
000003e0: 65ce 98be 9a7d d6be ecc7 b23d a586 dfbe
000003f0: 3a4b f53c 005d bb3c a31b c83e 8fc9 d63e
-0.17889772 -0.07781265 0.34899116 -0.2588201 0.28356823 -0.033884395 0.3245089 0.52275157
0.11057966 0.24207956 0.01606793 -0.32752147 -0.38202018 -0.25412124 -0.36902452 -0.19570264
-0.00037865917 -0.32961926 -0.014960159 0.15423112 -0.015089736 0.42172626 0.40401062 -0.16143303
0.16339849 -0.06887807 -0.11462221 -0.2898041 -0.1148691 -0.044793528 0.037706133 -0.19813226
-0.35246867 -0.33059663 -0.14059052 0.1493144 0.3936854 0.14824988 -0.25164494 -0.22111073
-0.10478351 0.22071715 0.18732083 -0.26429588 0.027661059 0.049005758 0.26618788 -0.4340148
-0.33222437 -0.10612655 0.055820093 0.54662544 0.20506535 -0.3930269 -0.050284192 0.31711206
-0.18182224 0.117577314 0.23004307 -0.066631675 -0.13765083 0.095202535 0.42534453 -0.41299635
-0.23515655 -0.36784276 -0.5404564 -0.13851123 -0.25480938 -0.2748326 0.19735768 0.25976247
0.1110139 0.14405249 0.30178317 0.07227213 0.3199784 0.15166625 -0.32360843 0.23217627
0.31547517 -0.437789 -0.090139136 -0.10457272 0.013229813 0.05045159 0.04292247 0.031874426
0.041015472 0.47113606 0.26573202 -0.20946477 -0.18986718 -0.32132772 -0.45709565 0.34726378
-0.2173056 -0.010466496 -0.27188897 -0.14663881 0.26018006 0.025376458 -0.10176574 -0.42262772
0.41504547 0.13445248 -0.22604407 0.25903678 -0.14578736 -0.17798206 -0.25413603 -0.09285923
-0.4370082 -0.17787892 0.1550962 -0.13685733 0.3374949 0.31915593 0.39212295 -0.3162138
0.12307348 0.33656836 0.32996857 0.2907724 -0.04186345 -0.18994205 0.16209356 -0.25396484
-0.0876796 -0.2207833 0.25283197 0.11801191 0.30435315 0.17172846 0.20422448 0.1788596
-0.35581833 0.41965508 -0.12449575 -0.3786936 -0.43103996 -0.030868635 -0.08875584 -0.10793976
-0.07466265 0.3606508 0.15619808 0.26564106 0.28578705 0.3267705 -0.34199297 -0.16427572
0.271126 -0.48381025 0.113993414 0.02947868 -0.039552044 0.35495216 -0.020117866 -0.39322454
-0.3128533 -0.070691265 0.32419673 0.33783263 -0.12823308 -0.213759 -0.2719711 0.41576532
-0.24640045 -0.44123772 -0.20114002 -0.35513017 -0.040938236 -0.12836124 0.24814719 0.13427436
0.09606468 -0.3676229 0.51881033 0.22340795 -0.08612694 -0.5216283 0.19760843 0.18468453
0.16112657 0.43356672 0.16600151 0.04755932 -0.21667254 -0.23928842 0.4867986 0.02815746
-0.20011207 0.2856921 0.47126162 -0.67694056 0.54348236 -0.56969064 -0.041250713 -0.5521777
0.46335736 -0.23024173 -0.4591492 -0.2035434 -0.12575006 -0.30678117 0.07327297 -0.06477361
0.077084094 0.41145295 -0.35555786 0.34750298 -0.099082954 0.13360083 0.27057838 -0.1844705
0.11434601 0.074507825 0.21527046 -0.2669565 -0.05865332 0.43150744 0.15710527 0.22109398
0.34717268 0.21443304 -0.32301793 0.3180136 -0.015039326 0.2977503 -0.4938288 -0.05463349
-0.30149648 0.08177527 -0.09499513 0.42641652 -0.32061094 0.41535828 0.1754156 -0.3659788
0.37238142 0.4253455 -0.02953567 0.05446245 -0.35315296 -0.24862012 0.16104354 -0.19001582
-0.29844967 -0.418927 0.08729538 -0.43657413 0.029943097 0.022871494 0.39083585 0.41950652
