output/seqfish/model_pth/SOTA_train_test_0.3.pth (torch, 221627 bytes, 10 tensors)

encoder.encoder_g.conv1.bias f4 [32]
0	0xbd43fe14	-0.04784973
1	0xbda08d5b	-0.078394614
2	0xbcabdd6d	-0.020979607
3	0xbd6eaf44	-0.058272615
4	0xbd2f6f35	-0.042830665
5	0xbd57b9d7	-0.052667465
6	0xbd595b23	-0.05306543
7	0xbcbfe150	-0.023422867
8	0xbd85b85a	-0.06529303
9	0xbd618ccd	-0.05506592
10	0xbd58f533	-0.052968215
11	0xbd6ba064	-0.057526007
12	0xbd6b503c	-0.057449564
13	0xbd3e5079	-0.046463463
14	0xbd5315b2	-0.051534362
15	0xbd6160ac	-0.055023834
16	0xbce2dd91	-0.027693542
17	0xbd7728cd	-0.060341645
18	0xbdaf0ac4	-0.08546975
19	0xbd09cf52	-0.03364498
20	0xbda77799	-0.08177108
21	0xbcdeec87	-0.027212394
22	0xbd533358	-0.051562637
23	0xbd5557b3	-0.05208559
24	0xbd2540e9	-0.040345106
25	0xbca5f717	-0.020259423
26	0xbd838905	-0.06422619
27	0xbd5ae590	-0.053441584
28	0xbdb6a069	-0.089173146
29	0xbd433aa5	-0.04766335
30	0xbd7a3795	-0.061088163
31	0xbd0862c3	-0.03329731

encoder.encoder_g.conv1.lin.weight f4 [32, 64]
0	0xbe855d8c	-0.26047933
1	0x3e2e8cbf	0.17045878
2	0x3dcc91e6	0.099887654
3	0x3e453169	0.1925713
4	0xbd4dbe83	-0.050230514
5	0xbe511d1e	-0.20421264
6	0x3e807c3e	0.2509479
7	0xbdd67da3	-0.10473182
8	0xbdc88c8a	-0.09792431
9	0xbe05180c	-0.12997454
10	0xbe249b7e	-0.1607494
11	0x3b752386	0.0037405207
12	0xbe15c851	-0.14627196
13	0x3e85e36f	0.2615008
14	0x3e52de30	0.2059257
15	0x3d9b18cc	0.07573089
16	0x3ccba92e	0.024860945
17	0xbd4d159d	-0.05006944
18	0x3da1ccf2	0.07900418
19	0xbe91c4bc	-0.2847041
20	0x3e253a4d	0.16135521
21	0x3d2295e5	0.03969373
22	0xbde9041a	-0.113777354
23	0x3e8c89d8	0.27448916
24	0xbd00c0a9	-0.031433735
25	0xbdb7469d	-0.08949015
26	0xbe44c199	-0.19214477
27	0x3e4aed04	0.19816977
28	0xbd863a8e	-0.06554137
29	0xbd96f996	-0.073718235
30	0x3dce9bd5	0.10088316
31	0x3e845962	0.25849444
32	0xbb93c112	-0.0045090998
33	0x3e6a30fc	0.22870249
34	0xbd2b390a	-0.041802444
35	0x3e24db41	0.16099264
36	0x3cd28a8a	0.025700826
37	0x3e8c79a2	0.27436548
38	0x3e5e4dd8	0.21709383
39	0x3e6f635e	0.2337775
40	0xbbd5a6e5	-0.0065201395
41	0xbe5baab7	-0.21451841
42	0x3e46b5aa	0.19405237
43	0x3e24569f	0.16048668
44	0xbe13cd6f	-0.14433835
45	0x3e61e687	0.22060595
46	0xbe63c304	-0.22242361
47	0x3e899cdc	0.26877487
48	0xbca7cd76	-0.020483714
49	0xbe4b6bb6	-0.19865307
50	0xbd9008e9	-0.070329495
51	0x3e873858	0.26410174
52	0xbde1cdc8	-0.11025578
53	0xbd86ecda	-0.065881446
54	0x3e988f44	0.29796803
55	0x3e8f59c2	0.27998167
56	0xbe1f8348	-0.15577424
57	0x3dc64673	0.09681406
58	0xbd2f9629	-0.042867813
59	0xbe2df043	-0.16986184
60	0x3d66bea2	0.056334145
61	0xbe2b8701	-0.16750719
62	0xbdc2e8f9	-0.09517092
63	0xbe4230e3	-0.18963961
64	0xbe55c2f2	-0.20875147
65	0xbe154404	-0.14576727
66	0x3e8bcef1	0.2730632
67	0xbe5db465	-0.21650846
68	0xbe943d54	-0.2895304
69	0x3e02131c	0.12702602
70	0x3e21ae7d	0.15789218
71	0x3e3bf5fc	0.18355554
72	0xbd29b533	-0.04143257
73	0x3e162d86	0.14665803
74	0x3db3826f	0.087651126
75	0xbe27b20b	-0.16376512
76	0xbe0a5845	-0.13510235
77	0x3e8d87be	0.27642626
78	0xbd707c2b	-0.058712166
79	0xbe8db43e	-0.27676576
80	0x3e64e27c	0.22352022
81	0xbc9372a5	-0.017999003
82	0x3c9738f3	0.018459773
83	0xbe4e51a4	-0.20148331
84	0x3d4c7ffa	0.049926735
85	0x3c1d2e01	0.009593488
86	0x3d30144a	0.0429881
87	0x3e912d03	0.28354654
88	0x3e128eb3	0.14312248
89	0x3c81ed2d	0.015860165
90	0xbd5b7b8f	-0.05358463
91	0x3db8822f	0.090092055
92	0xbdb69bb9	-0.089164205
93	0xbe8ddaf4	-0.2770611
94	0x3dc765c9	0.09736211
95	0x3dd8d1dd	0.10586903
96	0x3d0fd6c4	0.035116926
97	0xbe1a92b8	-0.15095031
98	0xbe96a25f	-0.29420754
99	0xbd2a1ad0	-0.041529477
100	0x3e7ae71e	0.24502227
101	0x3e8a3418	0.2699287
102	0xbc9b592b	-0.018963417
103	0xbe0285b4	-0.12746316
104	0xbd92745e	-0.071511015
105	0xbe061d58	-0.13097131
106	0x3cf22db3	0.029562807
107	0x3daf93bb	0.08573099
108	0x3e93562e	0.28776687
109	0x3e206570	0.15663695
110	0x3da44a21	0.080219515
111	0xbddd6a7c	-0.10811326
112	0xbde50ee9	-0.111844845
113	0x3c86100e	0.016365077
114	0xbe91a690	-0.2844739
115	0xbd9c0057	-0.07617252
116	0x3c57a7b8	0.013162546
117	0x3ea59b11	0.3234487
118	0x3de7e232	0.1132244
119	0x3e4c32ad	0.19941206
120	0x39c09ab2	0.0003673635
121	0xbe1184cc	-0.14210814
122	0x3e520dde	0.20513102
123	0xbe603d10	-0.21898293
124	0xbe832e2b	-0.2562116
125	0x3dd4e310	0.10394871
126	0x3c5e8e2a	0.013583699
127	0x3d996173	0.0748929
128	0xbe117e94	-0.14208442
129	0x3d34663a	0.044042803
130	0xbd556331	-0.05209655
131	0x3d3bb3da	0.045825817
132	0xbe8c10b2	-0.27356488
133	0x3dfaf181	0.122530945
134	0x3c22d952	0.0099395085
135	0x3b3cd8f9	0.002881585
136	0x3e89e866	0.26935118
137	0xbe25a38a	-0.16175666
138	0xbe3bf2ab	-0.18354289
139	0x3c24a95e	0.010050146
140	0xbe3d1d92	-0.18468311
141	0x3d4c034f	0.049807843
142	0x3e50d888	0.203951
143	0x3e5e465b	0.21706526
144	0x3e8107c8	0.2520125
145	0x3c6a342c	0.014294665
146	0x3d051aef	0.03249639
147	0x3e3f8adf	0.18705319
148	0xbd3d2fc9	-0.04618815
149	0x3dff3e22	0.12463023
150	0xbdc39c4a	-0.09551294
151	0x3cef05bb	0.029177537
152	0x3e4181cb	0.18897168
153	0xbe5c9dc7	-0.21544562
154	0x3e1ff1cf	0.15619586
155	0x3e5d3ec6	0.21605977
156	0x3dc35d52	0.09539284
157	0x3e5b76c6	0.21432027
158	0x3e944b28	0.2896359
159	0x3e330a03	0.17484288
160	0xbcc09f22	-0.02351338
161	0x3e106016	0.14099154
162	0x3d6b2e99	0.057417486
163	0x3e7e56f5	0.24837859
164	0x3e5fbc01	0.21849062
165	0x3e86f58f	0.2635922
166	0xbe26986a	-0.16269079
167	0xbe20b9cf	-0.1569588
168	0x3d92c46a	0.07166369
169	0xbe190c42	-0.14946082
170	0xbde437c8	-0.11143452
171	0xbe51558f	-0.20442794
172	0xbcdbe141	-0.026840808
173	0x3da081c9	0.078372546
174	0xbd17910a	-0.037003554
175	0x3e008d2f	0.12553857
176	0xbe4c514f	-0.19952892
177	0xbe336ca8	-0.17521918
178	0x3c941f51	0.01808134
179	0x3d8afcdb	0.067865096
180	0x3c122a16	0.008921167
181	0x3bbc22a4	0.005741434
182	0x3e7fdc46	0.24986371
183	0x3e2e052e	0.16994163
184	0x3e8049ec	0.25056398
185	0x3e142de3	0.1447063
186	0x3e943d5f	0.28953072
187	0xbe65b2ff	-0.22431563
188	0x3e6f400a	0.23364273
189	0x3d8698c8	0.065721095
190	0xbd63ee9d	-0.05564748
191	0x3e1c20cb	0.15246885
192	0x3d93c305	0.072149314
193	0xbca3d3ed	-0.019998515
194	0xbdaf1274	-0.085484415
195	0xbce96f4c	-0.028495453
196	0x3de6a036	0.112610266
197	0x3e18e19d	0.14929815
198	0xbd58b27e	-0.0529046
199	0xbe0ff2d7	-0.1405748
200	0x3e33e529	0.17567886
201	0x3de6a25a	0.11261435
202	0xbe9b43c7	-0.30325148
203	0x3c5cd228	0.0134778395
204	0xbdf6e370	-0.12055099
205	0xbb98666c	-0.0046508815
206	0xbc416310	-0.0118034035
207	0xbd91f651	-0.07127059
208	0x3c12fe31	0.008971737
209	0xbcd2d948	-0.025738373
210	0x3e959a71	0.29219392
211	0x3dd6f3f6	0.104957506
212	0xbe61b00a	-0.2203981
213	0x3dee791b	0.11644193
214	0x3c7cff29	0.015441694
215	0xbe32abc3	-0.17448334
216	0xbcfeb8cb	-0.031093976
217	0xbe08b145	-0.13348873
218	0xbdd51f1a	-0.10406323
219	0x3e0b920e	0.13629934
220	0x3dc3047a	0.09522338
221	0xbe4b81fd	-0.19873805
222	0x3e00b6df	0.1256976
223	0x3e6e00b7	0.2324246
224	0xbe1b60af	-0.151736
225	0x3dc814ee	0.09769617
226	0xbcf0ed9a	-0.029410172
227	0x3dd2529a	0.10269661
228	0xbd9b45b6	-0.07581656
229	0xbd272003	-0.040802013
230	0xbe0c0376	-0.13673195
231	0xbc5acbf7	-0.013354293
232	0xbe4ca9e0	-0.19986677
233	0x3e04cefe	0.12969586
234	0xbc62ce0c	-0.013843071
235	0xbd69cfa3	-0.057082783
236	0xbd15aa48	-0.036539346
237	0x3e769806	0.2408143
238	0xbe7aca4a	-0.2449123
239	0xbe357c20	-0.17723131
240	0xbe40f64e	-0.18843958
241	0x3e92f237	0.2870042
242	0x3e0fde82	0.14049724
243	0xbbf0b400	-0.0073456764
244	0xbbee190d	-0.00726617
245	0x3e564d66	0.20927963
246	0x3e4078ad	0.18796034
247	0xbd2fb0e3	-0.0428933
248	0xbe2361d6	-0.1595529
249	0x3dde8850	0.10865843
250	0x3d39f622	0.045400746
251	0xbe18cf95	-0.14922936
252	0xbe89058b	-0.2676204
253	0x3e352938	0.17691505
254	0x3d96ad12	0.07357229
255	0x3ca41837	0.020031078

encoder.encoder_g.conv2.bias f4 [32]
0	0x3c79c709	0.015245208
1	0xbb826e97	-0.0039804685
2	0xbc7f6765	-0.015588616
3	0x3c387b5c	0.01125988
4	0x3c18e74f	0.009332492
5	0x3b33f413	0.0027458712
6	0xbc24c72e	-0.010057254
7	0x3c3d924b	0.0115705235
8	0xbc82e7c9	-0.015979664
9	0x3cc0dee3	0.02354378
10	0x3b5969ba	0.003317459
11	0xbba6b873	-0.005087906
12	0xbb8b4d5d	-0.004251166
13	0x3c3fb373	0.011700499
14	0xbcbb905b	-0.022895982
15	0xbcb726b9	-0.022357332
16	0x3ce24954	0.027622856
17	0x3bf306f4	0.0074166004
18	0xbca377d5	-0.019954601
19	0x3b2ff3d2	0.002684821
20	0xbcb51487	-0.022104515
21	0x3c5dbc8e	0.0135337245
22	0xbcbb4ed2	-0.022864733
23	0xbcb59bef	-0.022169081
24	0xbc77a869	-0.015115836
25	0x3a274f19	0.0006382331
26	0x3cad7bfd	0.021177286
27	0xbc158709	-0.009126433
28	0x3b136949	0.0022493175
29	0x3b96ec37	0.0046057957
30	0xbbcf6f9a	-0.0063304426
31	0x3c17edc3	0.009272995

encoder.encoder_g.conv2.lin.weight f4 [32, 32]
0	0xbe802c8f	-0.25033996
1	0xbe2555c3	-0.16145997
2	0xbda96891	-0.082718976
3	0xbe887a54	-0.2665583
4	0xbdfca62d	-0.12336383
5	0xbd75ad35	-0.059979636
6	0xbe8b0817	-0.2715461
7	0xbe6e019c	-0.23242801
8	0x3ddb0d04	0.10695842
9	0x3ea2b607	0.317795
10	0x3d8dae66	0.069180295
11	0x3e9266ab	0.28593954
12	0x3ddca8e4	0.10774401
13	0xbe83e73d	-0.25762358
14	0xbe0638c1	-0.13107587
15	0x3e8758fb	0.26435074
16	0xbda71d99	-0.08159942
17	0x3d682135	0.056672294
18	0xbe8ec239	-0.27882555
19	0xbd582cef	-0.052777227
20	0x3d65564b	0.0559905
21	0x3e818589	0.25297192
22	0xbe86a329	-0.26296356
23	0x3e0ba616	0.13637576
24	0x3ed7f095	0.42175737
25	0xbde24011	-0.11047376
26	0x3e43af0e	0.19109747
27	0x3e7c89b6	0.24661908
28	0x3de31c59	0.11089391
29	0xbd4c7355	-0.049914677
30	0xbe4483c0	-0.19190884
31	0x3e1ee2f6	0.15516266
32	0xbd4b374e	-0.04961329
33	0xbea54748	-0.32280946
34	0xbe9cad56	-0.30600995
35	0x3c5a9e6c	0.013343435
36	0x3e8cc2ad	0.27492276
37	0x3c0fa2db	0.008766855
38	0xbd3ff4ed	-0.04686444
39	0x3d14ec7b	0.036358338
40	0xbe4cea7b	-0.20011322
41	0x3d307c68	0.043087393
42	0x3c9a46f9	0.01883267
43	0x3e2106e8	0.15725291
44	0x3e165faf	0.14684938
45	0xbe0c72f3	-0.13715725
46	0x3c3a2662	0.01136169
47	0xbe3cf087	-0.18451129
48	0xbe004589	-0.12526526
49	0x3d9a627c	0.07538316
50	0xbc3cf078	-0.011531942
51	0x3e7716e5	0.24129827
52	0x3d3b10b8	0.04567024
53	0xbe774241	-0.24146368
54	0xbe3efad5	-0.18650372
55	0x3e75908e	0.23980924
56	0xbe44c199	-0.19214477
57	0x3e6f39b8	0.23361862
58	0xbd0f3eba	-0.03497193
59	0xbd1bb556	-0.038014732
60	0xbd26464e	-0.04059439
61	0x3cb29584	0.02179981
62	0xbe2f68d5	-0.17129834
63	0xbe38f25b	-0.18061201
64	0x3d119bef	0.0355491
65	0xbdadcee2	-0.084867254
66	0x3e852caf	0.26010653
67	0x3d92bb73	0.07164659
68	0xbea30fad	-0.31847897
69	0xbe6989a5	-0.22806413
70	0x3e116e11	0.14202143
71	0xbd708cf7	-0.058728185
72	0xbd98592d	-0.07438884
73	0x3e08c81e	0.13357589
74	0x3e667f5b	0.2250952
75	0xbdcd91cd	-0.10037575
76	0x3e2cc0e9	0.16870464
77	0x3e19dc95	0.15025552
78	0xbe825ae4	-0.2545997
79	0x3e6873f3	0.22700481
80	0x3e85ec19	0.2615669
81	0xbcdb215f	-0.026749311
82	0x3e39dc0b	0.18150346
83	0xbd8d2514	-0.06891838
84	0x3e01388c	0.12619227
85	0xbdc8ca09	-0.0980416
86	0x3e08f07e	0.1337299
87	0xbe12fd09	-0.14354338
88	0x3e84619d	0.25855723
89	0xbe58b44b	-0.21162526
90	0xbe97a087	-0.2961466
91	0x3e8ddd8b	0.27708086
92	0x3e742f8c	0.23846263
93	0x3deb9ae5	0.11504153
94	0x3e0537d8	0.13009584
95	0x3e467024	0.19378716
96	0x3e41e7d3	0.1893609
97	0x3df645d2	0.12025036
98	0xbbc9c5bf	-0.0061576064
99	0x3d9b1736	0.075727865
100	0xbc543b7a	-0.012953633
101	0xbe7c2a21	-0.24625446
102	0xbdfe3821	-0.124130495
103	0xbcadd401	-0.021219255
104	0x3e7278bb	0.23678868
105	0x3d97d6e4	0.07414034
106	0xbd47150a	-0.04860405
107	0x3e202ce8	0.1564213
108	0xbd1e292f	-0.038613494
109	0xbe41df78	-0.18932903
110	0x3e556885	0.20840652
111	0xbe8211da	-0.25404245
112	0x3e8892a6	0.26674384
113	0x3e4f200e	0.20227072
114	0x3e32017b	0.17383377
115	0xbd962821	-0.07331873
116	0x3ea6516c	0.32483995
117	0xbde9ed9f	-0.11422276
118	0x3d9d45d2	0.07679333
119	0xbe8535e7	-0.26017687
120	0xbd7a9981	-0.06118155
121	0xbe9c80db	-0.3056706
122	0x3e4edacb	0.2020065
123	0xbe298c44	-0.16557413
124	0xbdcad5ef	-0.09904086
125	0xbe7855ac	-0.24251431
126	0xbde5094f	-0.11183416
127	0xbe2ecf0c	-0.1707117
128	0xbe197f8d	-0.14990063
129	0xbe195ae1	-0.14976074
130	0x3e87b06d	0.2650179
131	0x3d4796a5	0.04872765
132	0x3dd9374d	0.10606251
133	0xbd9cddeb	-0.07659515
134	0x3e86dc8b	0.26340136
135	0x3d67b5cb	0.056569856
136	0xbe0e7216	-0.13910708
137	0xbe7a963f	-0.24471377
138	0xbc74a053	-0.014930802
139	0xbe578ccf	-0.21049808
140	0x3eb6c6c9	0.35698536
141	0xbe2d84c7	-0.16945182
142	0xbd6702e4	-0.05639924
143	0x3d60c217	0.0548726
144	0x3e373ba3	0.17893843
145	0x3d7c700a	0.061630286
146	0xbddfe533	-0.10932388
147	0xbe8ad06f	-0.27112147
148	0x3e042bfc	0.12907404
149	0x3d954bb5	0.072898306
150	0x3e12d0e0	0.14337492
151	0xbdc980cf	-0.098390214
152	0xbe0c6a1b	-0.13712351
153	0xbc3ca467	-0.011513806
154	0x3e343496	0.17598185
155	0x3deebacc	0.116567224
156	0xbd2bd87c	-0.041954502
157	0xbe6628e7	-0.2247654
158	0x3d819ddb	0.06328937
159	0xbe09a8bd	-0.13443275
160	0x3e359774	0.17733556
161	0x3e55426d	0.2082612
162	0xbe754687	-0.23952685
163	0x3e925ca0	0.28586292
164	0x3e08f5d3	0.13375024
165	0xbd99c881	-0.07508946
166	0x3ceef11c	0.029167704
167	0x3db9adaf	0.09066331
168	0xbd7bfd52	-0.061520882
169	0x3b5426f5	0.0032371853
170	0xbe49303d	-0.19647308
171	0xbe5e2723	-0.21694617
172	0xbea4bbef	-0.32174632
173	0x3dbd1359	0.09232206
174	0x3e8464d3	0.25858173
175	0x3dc9c081	0.0985117
176	0x3c8f4471	0.01748869
177	0xbe3c770f	-0.18404792
178	0xbe799177	-0.24371897
179	0xbdd6ddfe	-0.104915604
180	0xbe0fff13	-0.14062147
181	0xbe26dec7	-0.1629592
182	0xbcfa3cb5	-0.030546525
183	0xbdbc0375	-0.09180347
184	0x3e3aabec	0.18229645
185	0x3d627542	0.055287607
186	0xbe57bbd6	-0.21067747
187	0x3a59d708	0.0008309935
188	0x3d950362	0.07276036
189	0x3e52f595	0.20601495
190	0x3ca7b617	0.02047257
191	0x3e38b513	0.18037824
192	0xbeb21556	-0.34781903
193	0x3da3a27f	0.07989978
194	0xbe5b8a0c	-0.2143938
195	0x3d1d7532	0.038441844
196	0x3e9125e6	0.28349227
197	0x3d6a7298	0.05723819
198	0x3e85784f	0.2606835
199	0xbe3e7a98	-0.18601453
200	0xbe73434c	-0.2375614
201	0x3e72dad8	0.23716295
202	0xbea81d57	-0.32834885
203	0xbe1bea3c	-0.15226072
204	0x3dacbcd4	0.084344536
205	0xbe5bfbe0	-0.21482801
206	0xbc867a8e	-0.01641586
207	0xbe8240c2	-0.2544003
208	0x3da8bb14	0.08238807
209	0x3b874c2a	0.0041289525
210	0xbdcafe13	-0.09911742
211	0xbe08a6d3	-0.13344888
212	0xbe8deda6	-0.27720374
213	0x3e62b78b	0.22140329
214	0x3e4186bd	0.18899055
215	0xbd8526c6	-0.06501536
216	0x3d91f30c	0.07126436
217	0x3cfeb074	0.031089999
218	0x3e1e4b76	0.15458474
219	0x3e2e291c	0.1700787
220	0xbde943ec	-0.11389908
221	0xbe0002e5	-0.12501104
222	0x3d0fb7ee	0.03508752
223	0xbe8d407b	-0.27588257
224	0x3deb2781	0.11482144
225	0x3d3fc47a	0.046818234
226	0x3d3ed201	0.046586994
227	0x3e6dfedc	0.23241752
228	0x3e1be2ec	0.15223283
229	0x3d58be1f	0.05291569
230	0xbc1acbd2	-0.009448009
231	0xbdf786b7	-0.12086242
232	0xbd2c888d	-0.042122412
233	0x3e7fb665	0.24971922
234	0x3cb737e7	0.022365524
235	0xbe0e0c81	-0.13871957
236	0xbd8afb19	-0.06786174
237	0x3d242d03	0.04008199
238	0x3c99c4b6	0.018770557
239	0x3c26664e	0.010156227
240	0xbdda28e8	-0.106523335
241	0x3e3aa97a	0.18228713
242	0x3d8b1052	0.06790222
243	0x3d475343	0.04866339
244	0x3e8713cf	0.263823
245	0x3e7d875e	0.2475867
246	0xbdad81e8	-0.08472043
247	0xbe80c1a9	-0.2514775
248	0xbe985e78	-0.29759574
249	0xbedf8fa7	-0.43664286
250	0xbe454282	-0.19263652
251	0x3e9646b4	0.29350817
252	0xbe4c1abd	-0.19932075
253	0xbdda850f	-0.1066991
254	0x3e5e8c58	0.21733224
255	0x3e839860	0.2570219

encoder.encoder_g.linear.weight f4 [32, 1440]
0	0x3d4556a6	0.048178338
1	0x3c7d040e	0.015442861
2	0x3c711322	0.014714034
3	0x3cbdf056	0.02318589
4	0xbcb69556	-0.022288006
5	0xbd227054	-0.039657906
6	0xbc1af6f1	-0.0094582895
7	0xba86f793	-0.0010297172
8	0xbcb2f49e	-0.021845158
9	0xbcdc394a	-0.026882786
10	0x3d5bcacc	0.0536602
11	0x3c74d44b	0.014943193
12	0xbd31ae4a	-0.043379106
13	0x3c112c05	0.008860593
14	0x3ce00ec2	0.027350787
15	0xbcbf1444	-0.023325093
16	0xbd84f69a	-0.06492348
17	0xbd5c4098	-0.05377254
18	0xbba092a7	-0.004900295
19	0x3a84395d	0.0010087896
20	0x3af3ad64	0.0018591103
21	0x3cdd460b	0.027010938
22	0xbca77584	-0.020441778
23	0xbc523894	-0.012830872
24	0xbcb26835	-0.021778205
25	0xbcfe900a	-0.031074543
26	0xbcce2ab8	-0.025166854
27	0xbc21b732	-0.009870337
28	0xbd12e185	-0.035859603
29	0xbbdd4727	-0.006752867
30	0x3c93c9a2	0.018040482
31	0xbca78133	-0.02044735
32	0x3c5e1e26	0.013556993
33	0x3d3df723	0.046378266
34	0xbbaf721d	-0.0053541795
35	0x3cb1259f	0.021624384
36	0xbaf0f37a	-0.0018383109
37	0xbd1922f9	-0.03738687
38	0xbd083fc5	-0.03326394
39	0x3c8fae11	0.017539056
40	0xbb0addf7	-0.002118943
41	0x3cd6c53e	0.0262171
42	0x3b207f29	0.0024489856
43	0x3cb6a5cd	0.022295857
44	0xbd3acd39	-0.04560587
45	0x3c4e91fa	0.012608046
46	0xba7b3b63	-0.00095837394
47	0x3adc0566	0.0016786277
48	0xbd71edf3	-0.059064817
49	0xbd621ef0	-0.055205286
50	0x3c5f6461	0.013634772
51	0x3cc58aec	0.024114095
52	0xbc9b190a	-0.018932838
53	0x3c98c4ac	0.018648468
54	0xbc19e9dc	-0.009394135
55	0x393e62b7	0.00018156586
56	0xbbd5c396	-0.00652356
57	0x3bd392fa	0.00645673
58	0x3c601e2e	0.01367907
59	0x3c1b34d4	0.009473044
60	0xbcab4aea	-0.020909745
61	0x3cefed12	0.029287849
62	0xbca352c4	-0.019936927
63	0x3c9bc9a1	0.019017043
64	0x3c38a0d6	0.011268815
65	0x3cbd7b0b	0.02312996
66	0x3b9ea147	0.004841003
67	0x3c43735d	0.01192936
68	0x3cba5d97	0.022749705
69	0xbceb9c4a	-0.028761048
70	0xbc1ba0b2	-0.009498762
71	0x3c4f2583	0.012643221
72	0xbd0cbc10	-0.034359038
73	0x3c25d56d	0.010121685
74	0x3d26a58a	0.040685214
75	0x3bae28d0	0.005314924
76	0xbcd9ce07	-0.0265875
77	0x3d1e2434	0.038608745
78	0x3d2add02	0.041714676
79	0xbcaa9b19	-0.02082591
80	0xbd722117	-0.05911359
81	0xbd4eafa2	-0.050460465
82	0xbc0464d5	-0.008080681
83	0xbc2d5cb1	-0.010581181
84	0xbcef4aef	-0.029210536
85	0xbaee23ce	-0.001816863
86	0xbbb9cead	-0.0056703896
87	0x3c3d2b0e	0.01154591
88	0xbbb3ebbd	-0.0054907487
89	0xbd119dcc	-0.035550877
90	0x3c174d49	0.009234735
91	0xbc73654e	-0.014855696
92	0xbd56df89	-0.052459273
93	0x3c3ffe5f	0.011718362
94	0xbc7d5bab	-0.01546375
95	0x3c845388	0.016153112
96	0x3cca7216	0.024712604
97	0x3cba4f9f	0.022743044
98	0x3b8c9672	0.0042903954
99	0xbb4f673d	-0.0031647228
100	0xbcc6aff0	-0.024253815
101	0xbcc0c758	-0.023532555
102	0xbd0b5ea6	-0.03402581
103	0xbc7c1fae	-0.015388412
104	0xbc9445f9	-0.018099772
105	0xbca5d133	-0.020241356
106	0xbb40c38e	-0.0029413435
107	0xbbe85b62	-0.007090972
108	0x3b22b62b	0.002482782
109	0x3d22a70c	0.03971009
110	0x3cf48562	0.029848758
111	0xbc7720c0	-0.015083492
112	0xbc253028	-0.010082282
113	0xbd781cc9	-0.060574327
114	0x3c22ac37	0.0099287545
115	0xbc8a61e2	-0.016892377
116	0x3cc1dcf5	0.02366493
117	0x3c646c9b	0.013941909
118	0x3c80a317	0.015702767
119	0x3b1f3ca6	0.0024297624
120	0x3c8043c1	0.015657308
121	0xbcb13e67	-0.021636201
122	0xbb80da92	-0.0039323056
123	0x3c20c5bb	0.009812768
124	0xbb8998c1	-0.004199118
125	0x3a82ebff	0.0009988545
126	0xbc420244	-0.0118413605
127	0xbc6e7dbf	-0.014556347
128	0x3d3bf25e	0.045885436
129	0x3b950a37	0.004548337
130	0xbcb098d4	-0.02155725
131	0x3bcd2888	0.006260935
132	0xbca4e395	-0.02012805
133	0x3a8e64e2	0.0010863806
134	0x3a5bd631	0.0008386104
135	0xbc963324	-0.018334933
136	0x3c469c3f	0.012122213
137	0x3c27ec84	0.010249261
138	0x3c0a9639	0.008458667
139	0xbcbb289d	-0.022846514
140	0x3b42684b	0.0029664214
141	0x3c754d35	0.014972021
142	0xbab6014f	-0.0013885888
143	0xbca02cfe	-0.019552704
144	0xbd6b61d5	-0.057466347
145	0xbd6e621d	-0.058199037
146	0x3a5e87f8	0.0008488889
147	0x3cb54a0b	0.022130033
148	0xbcdafa63	-0.026730722
149	0xbb4e496f	-0.0031476875
150	0x3cd4be04	0.025969513
151	0xba6cae34	-0.0009028644
152	0x3cd3296d	0.02577659
153	0xbc26cac3	-0.010180178
154	0xbc3a2423	-0.011361155
155	0x3d055c87	0.032558944
156	0xbc07c559	-0.008286797
157	0xbc3844d4	-0.011246879
158	0x3c656e51	0.014003352
159	0xbcb370e8	-0.021904424
160	0x3ce7a303	0.028275972
161	0xbc605df3	-0.013694274
162	0xbcbfd022	-0.023414675
163	0x3b99ccf0	0.00469362
164	0xbae9b564	-0.0017830548
165	0xba928d28	-0.0011180984
166	0xbc544f30	-0.012958333
167	0xbc084cfc	-0.008319136
168	0xbcc63c27	-0.024198605
169	0xbc937b99	-0.018003272
170	0x3c87878b	0.016544124
171	0xbd27132a	-0.04078976
172	0xbc981a99	-0.01856737
173	0x3c5ed467	0.013600445
174	0x3d17ac48	0.037029535
175	0xbd03e627	-0.032201912
176	0xbd34b4c4	-0.044117704
177	0xbc7ccd7e	-0.0154298525
178	0x3cb4e0b1	0.022079797
179	0x3cb1a3a3	0.021684473
180	0xbcebfe8f	-0.028807906
181	0x3cbd5467	0.023111535
182	0xba89f432	-0.0010525046
183	0x3b2a6843	0.0026002086
184	0xbc1636fd	-0.009168384
185	0xbae3b9f8	-0.0017374149
186	0xbcfd70f1	-0.030937644
187	0x3ca587b3	0.020206308
188	0xbd639f15	-0.055571634
189	0xbb875490	-0.0041299537
190	0x3a8bbd87	0.0010661342
191	0xbc9c575c	-0.019084625
192	0x3b99afab	0.0046901307
193	0xbc29d1db	-0.010364975
194	0x3cabf89f	0.020992575
195	0x3c8815e5	0.016612003
196	0x3bf52917	0.007481705
197	0xbcd5e551	-0.026110323
198	0xbcfca789	-0.030841606
199	0x3ca4ccdb	0.020117214
200	0xbd163020	-0.03666699
201	0xbc6d52a9	-0.01448504
202	0x3d2270c4	0.039658323
203	0xbcf042c1	-0.029328706
204	0xbc754551	-0.01497014
205	0x3cf980fa	0.030457009
206	0x3ce914a6	0.028452229
207	0xbd04ae52	-0.032392807
208	0x3c4ea54b	0.012612651
209	0xbcad585e	-0.0211603
210	0x3cc70d5f	0.024298368
211	0x3b8f64d0	0.0043760315
212	0xbc651965	-0.013983105
213	0x3c827583	0.015925175
214	0x3c31e66b	0.010858159
215	0x3b1c20ed	0.0023823336
216	0x3bbdf0ae	0.0057965135
217	0xbce1223e	-0.027482148
218	0xbb928cc1	-0.0044723456
219	0xbaff5c49	-0.0019482459
220	0xbd13cd2b	-0.036084335
221	0xbc38b578	-0.011273734
222	0x3c281e06	0.010261064
223	0x3c9b0b3d	0.018926257
224	0x3cd799b0	0.026318401
225	0x3b9685e0	0.004593596
226	0xbb97efd6	-0.004636745
227	0x3c60492e	0.013689322
228	0xbbf2b6c7	-0.0074070427
229	0xbc8859c8	-0.016644374
230	0x3d07e249	0.033174787
231	0xbb512986	-0.003191562
232	0xbd063854	-0.032768562
233	0xbc8f6cc2	-0.017507914
234	0x3c9fc94c	0.019505166
235	0xbc0ad107	-0.008472688
236	0xbd115636	-0.035482608
237	0x3d175927	0.036950257
238	0xbb1caab1	-0.002390545
239	0xbc843261	-0.016137304
240	0xbbc212cf	-0.0059226523
241	0xbb93cb65	-0.0045103305
242	0x3b6301c3	0.0034638501
243	0xbc931de6	-0.017958593
244	0x3c14c46b	0.009080033
245	0x3cf6f48c	0.030145906
246	0xbc24d33d	-0.010060129
247	0xbc74f4ab	-0.0149509115
248	0xbc811b3a	-0.015760053
249	0xbc6c91c3	-0.014439049
250	0x3c8b51e2	0.017006818
251	0x3c9cebb0	0.019155353
252	0xbd0af290	-0.033922732
253	0x3ca168a7	0.019703222
254	0x3cba3c61	0.022733869
255	0x3cfaeeae	0.03063139

encoder.encoder_g.linear.bias f4 [32]
0	0xbd0d46a4	-0.034491196
1	0xbc9ef0b2	-0.019401882
2	0xbd026e4f	-0.03184348
3	0xbd0201b5	-0.03173991
4	0xbce9eb8e	-0.028554704
5	0xbcc8981e	-0.024486598
6	0x3d3f51de	0.046708934
7	0x3d577722	0.05260385
8	0xbce45f72	-0.027877543
9	0xbce0f813	-0.027462041
10	0xbd8356e5	-0.06413058
11	0x3d01b0c1	0.031662706
12	0x3d63503f	0.05549645
13	0x3ca523db	0.020158699
14	0xbcb6f680	-0.022334337
15	0x3ca4929e	0.020089444
16	0x3d154e69	0.03645173
17	0xbd41f393	-0.04735143
18	0xbd45429e	-0.048159234
19	0x3d060b27	0.03272548
20	0xbd1bf420	-0.038074613
21	0xbcc0c1f6	-0.023529988
22	0x3ca8eb64	0.020620055
23	0x3d4b9a8b	0.04970793
24	0xbd206131	-0.03915519
25	0xbd7dd9a5	-0.06197514
26	0x3c496edf	0.0122945
27	0x3cfd172d	0.03089484
28	0x3c9c79e0	0.019101083
29	0x3c986c68	0.01860638
30	0xbc9fcfa8	-0.019508198
31	0x3d29bea8	0.04144159

encoder.encoder_c.conv1.bias f4 [32]
0	0x3df38574	0.118906885
1	0x3daa9bda	0.083305076
2	0x3df3e4dc	0.11908886
3	0x3dfb5aff	0.122732155
4	0x3d1b2ec8	0.03788641
5	0x3da4294f	0.080156915
6	0x3e0540d9	0.13013019
7	0x3d9a31ed	0.07529054
8	0x3d6dc31f	0.05804741
9	0x3d283733	0.041068267
10	0x3ddeec97	0.1088497
11	0x3dbcfb9f	0.092276804
12	0x3e1e8689	0.15481009
13	0x3dbbb747	0.09165817
14	0x3e0ca6e1	0.13735534
15	0x3de07aec	0.109609455
16	0x3d2f3adf	0.042780753
17	0x3dbed7d8	0.09318513
18	0x3ccf269c	0.025286965
19	0x3e353df7	0.17699419
20	0x3d7d3c34	0.061824992
21	0x3dbf5099	0.09341545
22	0x3e4a6d64	0.19768292
23	0x3de524c7	0.11188655
24	0x3dd587c8	0.10426289
25	0x3e0a88a1	0.13528682
26	0x3df4b803	0.1194916
27	0x3daa2ede	0.083097205
28	0x3dd7b15a	0.10531874
29	0x3e01f619	0.12691535
30	0x3dc457ea	0.09587081
31	0x3e09f471	0.13472153

encoder.encoder_c.conv1.lin.weight f4 [32, 125]
0	0x3ec82bfd	0.3909606
1	0xbe47171f	-0.19442414
2	0xbee7c43c	-0.45266902
3	0x3e1036d0	0.1408341
4	0x3c74b098	0.014934681
5	0xbe29356d	-0.16524287
6	0xbe4035c8	-0.18770516
7	0xbd61a6c4	-0.05509068
8	0x3ed31e2e	0.41233963
9	0x3e42259f	0.18959664
10	0xbe67e46b	-0.22645728
11	0xbea22168	-0.31666112
12	0x3e8525fc	0.26005542
13	0x3eb7bf3a	0.35888082
14	0xbd47067a	-0.04859016
15	0xbc209c81	-0.009802938
16	0x3e8246d5	0.25444666
17	0xbe381e05	-0.17980202
18	0x3ddd8c42	0.10817768
19	0x3e850df2	0.25987202
20	0xbef55984	-0.47919858
21	0x3e3f7dd7	0.18700348
22	0x3eb2bbdc	0.3490895
23	0x3ea97cff	0.33103177
24	0xbe85fb30	-0.26168203
25	0xbe4aa101	-0.1978798
26	0x3e86c26f	0.26320216
27	0x3e96d428	0.29458737
28	0x3e920bb5	0.28524557
29	0x3f2790eb	0.654555
30	0x3dcbd233	0.09952202
31	0x3ebf9909	0.37421444
32	0xbe046f5e	-0.12933108
33	0x3d0d0660	0.034429908
34	0x3f16ab0d	0.5885475
35	0xbefd1a2f	-0.4943404
36	0xbd405472	-0.046955533
37	0x3e5cf39a	0.21577302
38	0x3daa6fe2	0.08322121
39	0x3e454573	0.19264774
40	0x3f0e221d	0.555208
41	0xbdee2258	-0.11627644
42	0xbe3646c5	-0.17800434
43	0x3e38ca2a	0.1804587
44	0xbede8ebc	-0.43468273
45	0xbc73dcdf	-0.014884203
46	0xbdf32595	-0.118724026
47	0xbedd76e4	-0.4325477
48	0x3e383dd9	0.17992343
49	0xbdd58b26	-0.10426931
50	0xbd337794	-0.04381521
51	0xbd1d1510	-0.038350165
52	0xbe0b39d3	-0.13596277
53	0x3e832555	0.2561442
54	0x3edb36a4	0.42815125
55	0x3e092aa3	0.13395171
56	0xbf21883c	-0.630985
57	0xbe4a7fd7	-0.1977533
58	0x3dd91f52	0.10601677
59	0xbe373e90	-0.1789496
60	0x3ebfb6cf	0.3744416
61	0xbdb1f9b1	-0.08690203
62	0x3ebf6bb7	0.37386867
63	0xbd880cb3	-0.06643047
64	0x3e350cf6	0.17680725
65	0xbdc1c917	-0.09462183
66	0xbeb38d44	-0.35068715
67	0xbea34a7d	-0.31892768
68	0x3d2e9599	0.042623136
69	0xbe09a803	-0.13442998
70	0x3eff8b3d	0.49910918
71	0xbc79b40a	-0.015240679
72	0xbe4425bb	-0.19155018
73	0xbe71bebe	-0.23607919
74	0xbdca73b5	-0.098853506
75	0x3f1bc9a5	0.6085456
76	0x3dcbc117	0.09948938
77	0xbdb3d014	-0.08779922
78	0xbd147518	-0.03624448
79	0xbc034691	-0.00801243
80	0x3e4f5ddc	0.20250648
81	0xbb5f3727	-0.0034059973
82	0x3f03ac00	0.51434326
83	0xbe811507	-0.25211355
84	0xbebf7d4a	-0.37400275
85	0x3e6d78e1	0.23190643
86	0x3e5445db	0.20729773
87	0xbe94d82c	-0.29071176
88	0xbd53ad48	-0.051678926
89	0xbd3f1004	-0.046646133
90	0xbf3f6823	-0.74768275
91	0xbd548274	-0.051882222
92	0x3d1c4e94	0.038160875
93	0x3ec7c55e	0.39017767
94	0x3e4d7037	0.20062338
95	0xbdf92cbb	-0.12166735
96	0xbdc3a250	-0.09552443
97	0x3dac3c12	0.08409895
98	0x3e8ff9a6	0.28120154
99	0xbde844c9	-0.11341245
100	0x3eb6d7bc	0.35711467
101	0xbe917ea7	-0.2841694
102	0x3ead553a	0.33854085
103	0xbedea6fa	-0.43486768
104	0xbe2fc9be	-0.17166802
105	0xbc8d5917	-0.017254395
106	0xbdfd2e4b	-0.12362345
107	0x3e600c3c	0.21879667
108	0x3f0b303e	0.54370487
109	0xbe7ca33f	-0.24671648
110	0xbdbc4390	-0.09192574
111	0x3e7b513a	0.24542704
112	0xbd26af79	-0.040694688
113	0xbdba72f7	-0.09103959
114	0x3e3dfdc9	0.18553843
115	0x3d75f4fd	0.060048092
116	0x3e733a94	0.23752815
117	0x3e7eaeb4	0.24871331
118	0x3d9f55f8	0.07780069
119	0xbe5f2929	-0.21793045
120	0x3e64d3dc	0.22346443
121	0x3deb0b3e	0.11476754
122	0xbdc3f738	-0.095686376
123	0xbe15c1b1	-0.14624669
124	0xbe96adae	-0.29429382
125	0xbe3e5863	-0.18588404
126	0x3e52ce58	0.20586526
127	0x3e2424f7	0.16029726
128	0x3e104b8f	0.14091323
129	0xbe4cbdf6	-0.1999434
130	0xbd160bb8	-0.03663227
131	0x3e793d82	0.2433987
132	0xbda85b9e	-0.082205996
133	0x3e52164b	0.20516317
134	0x3e40264b	0.18764608
135	0x3d32f04d	0.0436862
136	0xbe2b9b61	-0.16758491
137	0xbdc0e2cc	-0.09418258
138	0x3d6a3e37	0.05718824
139	0x3dfeeda0	0.12447667
140	0xbe65650a	-0.22401825
141	0x3c8d4b0a	0.017247695
142	0xbe142dde	-0.14470622
143	0xbcf27586	-0.029597055
144	0x3e066d66	0.1312767
145	0x3e371f7a	0.17883101
146	0x3b99d701	0.00469482
147	0x3dbf6e28	0.093471825
148	0xbe451dda	-0.19249669
149	0x3ea65ffa	0.324951
150	0xbdca1911	-0.09868062
151	0xbde484c5	-0.11158136
152	0xbcc1db30	-0.023664087
153	0xbd4c831b	-0.04992972
154	0x3db310ae	0.08743416
155	0xbd1bd1af	-0.038041767
156	0xbe25a351	-0.16175582
157	0x3d379750	0.044822037
158	0xbb38d073	-0.0028200417
159	0xbe211045	-0.15728863
160	0xbeaf3dc4	-0.3422681
161	0x3e1edc42	0.15513709
162	0x3ccb0b12	0.024785552
163	0x3ea59694	0.32341444
164	0x3cdb7fa6	0.026794266
165	0x3e126cc0	0.14299297
166	0x3e7ceaa6	0.24698886
167	0xbc9c7fa7	-0.019103838
168	0xbd859eca	-0.06524427
169	0x3ec0e26f	0.37672755
170	0xbda86fe4	-0.082244664
171	0x3c3589cd	0.011080218
172	0x3a142e58	0.0005652658
173	0xbd942c3e	-0.07235001
174	0x3e730990	0.23734117
175	0xbe0c8ab0	-0.1372478
176	0xbe50ad11	-0.2037852
177	0xbec013db	-0.3751515
178	0x3e9befb2	0.3045631
179	0x3dd9144e	0.10599576
180	0x3e3f9cd1	0.18712164
181	0x3eca3bb0	0.39498663
182	0xbcb6f548	-0.022333756
183	0x3e49ea46	0.19718274
184	0x3b0a770c	0.0021128086
185	0x3d49e8fe	0.049294464
186	0xbed3744f	-0.41299674
187	0x3d806936	0.062700674
188	0xbe2a5794	-0.16634971
189	0xbd942ffd	-0.072357155
190	0x3edc5ad9	0.4303806
191	0xbe3b107a	-0.18268004
192	0xbe8924aa	-0.26785785
193	0x3e51e782	0.2049847
194	0x3d711632	0.058859058
195	0x3f02ff28	0.5117059
196	0xbed579b3	-0.41694412
197	0xbd3718b6	-0.0447013
198	0x3df07b4e	0.117422685
199	0xbe171bb3	-0.1475666
200	0x3f17d8a5	0.5931495
201	0xbe5fcef1	-0.21856286
202	0xbca48880	-0.02008462
203	0xbe0e97b7	-0.13925062
204	0x3dbcb0a9	0.09213383
205	0x3ebacf11	0.36486104
206	0xbe29a434	-0.16566545
207	0x3d01e1fb	0.031709652
208	0x3cf9b0c6	0.0304798
209	0x3ee63a37	0.4496629
210	0x3e065cda	0.13121358
211	0x3e07accb	0.13249509
212	0x3ead904d	0.33899155
213	0x3e225cd9	0.15855731
214	0xbec20717	-0.37896034
215	0xbe990474	-0.2988621
216	0xbe11c0c1	-0.14233686
217	0x3e2f7919	0.17136039
218	0x3eb71605	0.35758987
219	0x3f263d88	0.6493764
220	0x3ea3dde3	0.32005224
221	0xbe9bfee7	-0.30467913
222	0x3e211ef4	0.15734464
223	0x3e1feb1c	0.15617031
224	0x3ec95a0a	0.39326507
225	0x3c376673	0.011193859
226	0xbe82f66f	-0.2557864
227	0xbddd1d6a	-0.10796626
228	0xbdf00fc8	-0.1172176
229	0xbe3dc38c	-0.18531626
230	0x3e511e08	0.20421612
231	0xbec0e8c7	-0.37677595
232	0xbe6d8940	-0.23196888
233	0xbd71abfc	-0.059001908
234	0xbea842dc	-0.3286351
235	0xbb03287e	-0.002001315
236	0x3b7cc06f	0.0038566848
237	0xbd707a16	-0.05871018
238	0xbe4f1e23	-0.2022634
239	0xbecbbcc8	-0.39792466
240	0xbd9b4b36	-0.07582705
241	0x3e92ad2e	0.2864775
242	0x3d9cd2ba	0.076573804
243	0x3e021587	0.12703525
244	0xbea725e6	-0.32646102
245	0xbe31995c	-0.17343658
246	0xbe6fb62f	-0.23409341
247	0xbe8a7291	-0.27040532
248	0xbe4c49ca	-0.19950023
249	0xbf269f7c	-0.65087104
250	0xbc2ba56e	-0.010476453
251	0xbe21295f	-0.15738438
252	0x3e9af022	0.30261332
253	0xbe4825e1	-0.195457
254	0x3d8ea605	0.069652595
255	0xbe1ddb5c	-0.1541571

encoder.encoder_c.conv2.bias f4 [32]
0	0x3cc8feb8	0.024535522
1	0xbd88acb3	-0.06673565
2	0x3ce43f46	0.027862202
3	0x3c70a49d	0.014687684
4	0x3cd5f8c8	0.026119605
5	0xbb8241b3	-0.003975117
6	0x3b8d3afb	0.0043100095
7	0xbd86925e	-0.06570886
8	0x3d184578	0.037175626
9	0xbd41e78c	-0.04733996
10	0xbce79d66	-0.028273296
11	0x3c777b44	0.015105072
12	0xbd4749f3	-0.048654508
13	0x3d4ff550	0.050771058
14	0x3d34be56	0.04412683
15	0xbcb52670	-0.022113055
16	0xbd509d94	-0.05093153
17	0x3cffa9bb	0.031208863
18	0xbcb4460a	-0.022006053
19	0xbb4ea3b0	-0.003153067
20	0xbcec18f1	-0.028820487
21	0x3cd5d290	0.02610138
22	0x3d56ee44	0.05247332
23	0xbd911f8b	-0.070860945
24	0x3cdd8496	0.027040761
25	0xbcf67e25	-0.030089447
26	0xbd040a77	-0.032236543
27	0xbccd0ba8	-0.025029972
28	0x3c2e3f59	0.01063522
29	0x3bddc25c	0.006767554
30	0xbd08cf4c	-0.03340082
31	0x3c8b7ff3	0.017028784

encoder.encoder_c.conv2.lin.weight f4 [32, 32]
0	0x3e19dfe3	0.15026812
1	0x3ec05b8d	0.37569848
2	0x3e8dff77	0.27733967
3	0x3e2ca445	0.16859539
4	0xbeb705dc	-0.35746658
5	0xbec31b15	-0.381066
6	0x3e9b7eb2	0.30370098
7	0xbea5c2f8	-0.32375312
8	0xbe4aa566	-0.19789657
9	0x3cb3f611	0.02196792
10	0x3edbd529	0.42936066
11	0xbe8a06fd	-0.26958457
12	0xbd757fa3	-0.059936177
13	0xbd4768a6	-0.048683785
14	0x3e3b7871	0.18307664
15	0xbe34e5be	-0.17665765
16	0xbea12fa8	-0.3148167
17	0x3e813167	0.25233003
18	0xbd05fe92	-0.03271348
19	0xbd143077	-0.036179032
20	0x3ec3399b	0.38129887
21	0xbe952d08	-0.2913592
22	0x3e9a8fd4	0.30187857
23	0x3d0a2198	0.033723444
24	0xbeec881b	-0.4619759
25	0x3dc766c5	0.097363986
26	0xbcffc9ba	-0.03122412
27	0xbe6584cb	-0.22413938
28	0xbead9721	-0.33904365
29	0xbf081113	-0.53151053
30	0x3da91814	0.08256546
31	0x3eaa7253	0.33290347
32	0x3e330f65	0.17486341
33	0xbe328c76	-0.17436394
34	0xbdf45192	-0.11929621
35	0xbf03ae87	-0.5143818
36	0xbcece2f8	-0.02891682
37	0xbe9729ab	-0.29523978
38	0xbce2df40	-0.027694345
39	0x3ec6aeb7	0.38805172
40	0x3e8791a3	0.264783
41	0xbd9c88ac	-0.076432556
42	0xbbb1db7d	-0.0054277764
43	0xbec8a735	-0.3919007
44	0x3d2f8bdc	0.04285799
45	0x3ba242c2	0.004951806
46	0x3e975629	0.29557922
47	0xbd81a4de	-0.06330274
48	0xbeb20dde	-0.34776205
49	0xbeac83ce	-0.3369431
50	0x3e834b03	0.25643167
51	0xbdf9d2d0	-0.121984124
52	0x3e0aafd5	0.13543637
53	0xbdfdf50f	-0.12400257
54	0x3e41b0f1	0.18915154
55	0x3e80d7de	0.25164694
56	0x3d01e251	0.031709973
57	0x3e18d79e	0.14926001
58	0x3e5500c6	0.20801076
59	0x3e199ce2	0.15001252
60	0x3e07454c	0.13210028
61	0xbe325ac9	-0.17417444
62	0x3d460658	0.048345894
63	0x3e7cb70a	0.24679199
64	0xbf1409fb	-0.5782773
65	0xbd66e641	-0.05637193
66	0x3ea3505b	0.31897244
67	0xbe3c9e40	-0.18419743
68	0x3e37490b	0.17898957
69	0x3e2fc04c	0.17163199
70	0x3ec49bad	0.3840002
71	0xbe37444d	-0.17897148
72	0xbe312661	-0.17299797
73	0x3ca9391a	0.020657111
74	0xbeed77d2	-0.46380478
75	0xbee000ac	-0.43750513
76	0x3a1fb14f	0.00060917897
77	0x3ebd102d	0.36926404
78	0xbe8e8588	-0.2783625
79	0xbe581d33	-0.21104889
80	0xbe9e74c9	-0.30948475
81	0x3c18824b	0.009308408
82	0x3e908576	0.28226823
83	0xbe3989b3	-0.18118934
84	0xbed8759e	-0.42277235
85	0x3d90fe12	0.0707971
86	0xbba014fe	-0.004885315
87	0x3ef38691	0.47563604
88	0xbabe4b0a	-0.0014518213
89	0x3ebefa07	0.3730013
90	0x3cbe371e	0.023219641
91	0xbe9e2e3d	-0.30894652
92	0xbda7ab3c	-0.08186957
93	0x3f028bed	0.5099476
94	0x3e1bef78	0.15228069
95	0x3eaa7300	0.33290863
96	0x3e03c3ca	0.12867656
97	0xbd37e1a1	-0.04489291
98	0x3e21eb99	0.1581253
99	0x3e7492c4	0.23884112
100	0xbeb163f1	-0.34646562
101	0xbb31335d	-0.0027038672
102	0x3e84b477	0.25918934
103	0x3e2ad19c	0.16681522
104	0xbd03ff4d	-0.032225896
105	0x3e7607c2	0.24026397
106	0x3d0a23b7	0.033725467
107	0x3e766ef1	0.24065758
108	0x3e515ad3	0.20444803
109	0x3cfcc1cc	0.030854128
110	0xbe179f96	-0.14806971
111	0xbea77b3c	-0.32711208
112	0x3e6fcefe	0.23418805
113	0x3e87c531	0.26517633
114	0xbec9db58	-0.39425159
115	0x3ec84b3d	0.39119902
116	0x3d4c8701	0.049933437
117	0xbd33017c	-0.043702587
118	0xbec9db27	-0.39425012
119	0x3da38107	0.079835944
120	0xbe0bd4dc	-0.13655418
121	0xbe913f81	-0.28368762
122	0xbea2afbb	-0.31774697
123	0xbe8446bf	-0.25835225
124	0x3ebf8784	0.37408078
125	0xbebcb92d	-0.36860028
126	0x3eb9786f	0.36224696
127	0xbec75160	-0.38929272
128	0xbd3ca987	-0.04606011
129	0x3e28b58a	0.16475502
130	0xbf03b2ed	-0.51444894
131	0x3e9a2f6a	0.301143
132	0x3d23baae	0.039972953
133	0xbe9c3374	-0.30508006
134	0x3e5fc61d	0.21852918
135	0x3ec92704	0.3928758
136	0xbdd39a14	-0.103321224
137	0x3e499d2d	0.19688864
138	0xbecc2175	-0.39869276
139	0xbe618f32	-0.22027281
140	0x3eb35d5e	0.3503217
141	0xbe44e9ca	-0.19229808
142	0xbe8202d0	-0.2539277
143	0x3e43421c	0.19068187
144	0xbecb801d	-0.3974618
145	0x3e8c5cf4	0.27414668
146	0xbe2d6ecc	-0.16936797
147	0xbe7c3044	-0.24627787
148	0x3c0d6e1c	0.008632209
149	0x3e9a2bc2	0.3011151
150	0x3bcb4620	0.006203428
151	0x3dc3f546	0.095682666
152	0x3e15a476	0.14613518
153	0x3ef126d0	0.47099924
154	0x3d342b36	0.04398652
155	0xbe8bce06	-0.2730562
156	0xbcee7d78	-0.029112563
157	0xbecfbdbe	-0.4057445
158	0x3edea343	0.43483934
159	0xbee426f3	-0.44560966
160	0x3eb335ea	0.3500207
161	0x3e91e444	0.28494465
162	0x3e52086e	0.20511028
163	0xbf06791b	-0.5252854
164	0xbda35c42	-0.07976581
165	0xbe8c00ae	-0.2734427
166	0x3e548242	0.20752814
167	0xbe63c640	-0.22243595
168	0x3e4efee6	0.20214424
169	0xbe01a4be	-0.126605
170	0x3cb72598	0.022356793
171	0xbe9bdc80	-0.30441666
172	0x3eeabbe5	0.45846477
173	0xbe895f09	-0.2683032
174	0xbeec1281	-0.46107867
175	0xbe929957	-0.28632614
176	0x3f17bb54	0.59270215
177	0x3e3e3a8c	0.18577021
178	0x3dd545dd	0.10413716
179	0xbebd5829	-0.36981323
180	0xbe0619ec	-0.13095826
181	0x3eb7ab9f	0.35873124
182	0xbe7bffe7	-0.24609338
183	0x3de6d706	0.11271481
184	0x3d8fbd27	0.070185
185	0xbec66e7b	-0.38756165
186	0xbde279f0	-0.11058414
187	0x3e6c714a	0.23090091
188	0x3e59712c	0.21234578
189	0xbe62b7ec	-0.22140473
190	0x3ef9f6b8	0.48821044
191	0x3ee6df67	0.45092317
192	0x3ea8504d	0.32873765
193	0xbee2a8a3	-0.44269285
194	0x3edf6b68	0.43636632
195	0x3e69902b	0.22808902
196	0x3ee40a24	0.44538987
197	0x3e1c3d94	0.15257865
198	0x3b3c7eba	0.0028762058
199	0x3e9dd392	0.30825478
200	0xbe07563f	-0.13216494
201	0xbe406af4	-0.187908
202	0xbe2b6ccf	-0.16740726
203	0xbeaa85b3	-0.3330513
204	0x3eb1e69c	0.34746253
205	0xbeb1d49b	-0.34732518
206	0xbec36ccb	-0.3816894
207	0x3ead8cda	0.33896524
208	0xbd8d716a	-0.06906398
209	0xbec4a593	-0.38407573
210	0x3d0621af	0.032746967
211	0xbdb2daa5	-0.087331094
212	0x3ccda58c	0.025103353
213	0xbd44f351	-0.048083607
214	0xbf03ed04	-0.5153353
215	0xbef7ae04	-0.4837495
216	0xbdeebb75	-0.11656848
217	0xbe27b74a	-0.16378513
218	0x3e0484e4	0.12941319
219	0x3ec99b30	0.3937621
220	0x3ea99e39	0.33128527
221	0x3ef37bfe	0.47555536
222	0xbe6dc355	-0.23219045
223	0x3e71e63d	0.23622985
224	0xbe97d880	-0.29657364
225	0x3e3d4684	0.18483931
226	0xbe7c5332	-0.24641111
227	0xbe892a19	-0.2678993
228	0xbe0c3601	-0.13692476
229	0xbdbd5c6a	-0.09246142
230	0xbe497e2f	-0.19677041
231	0xbe2e71da	-0.17035618
232	0x3d4a560f	0.049398478
233	0x3df1e55e	0.118113264
234	0x3cb90e72	0.022589896
235	0xbe1e178f	-0.15438674
236	0xbea2bdfc	-0.31785572
237	0x3dce50a3	0.10073974
238	0x3efb1899	0.49042204
239	0xbded4aa0	-0.11586499
240	0x3e917250	0.28407526
241	0x3ea8b8f3	0.32953605
242	0x3e82bda6	0.25535315
243	0xbe897960	-0.26850414
244	0xbdd6489e	-0.104630694
245	0xbd81c7bf	-0.06336927
246	0xbe2fc4f0	-0.1716497
247	0x3ed3a7ce	0.41338962
248	0x3e9817bd	0.2970561
249	0x3ebb23e9	0.36550835
250	0x3ec1e801	0.37872317
251	0x3d2ef858	0.042717308
252	0x3e81019c	0.2519654
253	0x3e38ceca	0.18047634
254	0x3de81ee3	0.11334016
255	0xbf009574	-0.5022805
