output/seqfish/model_pth/SOTA_train_test_0.1.pth (torch, 221627 bytes, 10 tensors)

encoder.encoder_g.conv1.bias f4 [32]
0	0xbd61821c	-0.055055723
1	0xbd37ebbe	-0.044902556
2	0xbd3b9233	-0.045793723
3	0xbd3c75d1	-0.046010796
4	0xbd6a31b8	-0.05717632
5	0xbd64f52b	-0.055897873
6	0xbd1113a0	-0.035419106
7	0xbd52f001	-0.051498417
8	0xbcef7d06	-0.02923442
9	0xbd9c0827	-0.076187424
10	0xbcf06096	-0.02934293
11	0xbdb2f705	-0.087385215
12	0xbdaf56f6	-0.08561508
13	0xbd555137	-0.052079406
14	0xbde3ea43	-0.11128666
15	0xbd6965c7	-0.056981828
16	0xbd41ce61	-0.04731596
17	0xbd99b261	-0.07504726
18	0xbd75a0e8	-0.059967905
19	0xbd8a9b4d	-0.067679025
20	0xbd009dd9	-0.031400535
21	0xbd4d30f4	-0.050095513
22	0xbd3eaec0	-0.046553373
23	0xbd3d58eb	-0.046227377
24	0xbd17aefe	-0.03703212
25	0xbcd9dd10	-0.026594669
26	0xbd65ab47	-0.056071546
27	0xbce01595	-0.027354041
28	0xbd63afb7	-0.055587497
29	0xbd28f963	-0.04125346
30	0xbd455c30	-0.04818362
31	0xbda3fa01	-0.08006669

encoder.encoder_g.conv1.lin.weight f4 [32, 64]
0	0x3d4e7ab4	0.050409988
1	0x3e12e8e8	0.14346659
2	0xbd4e55c2	-0.050374754
3	0xbe2ba806	-0.16763315
4	0x3e356c25	0.17717035
5	0x3c5d8e0d	0.013522637
6	0x3dd28f42	0.102812305
7	0xbe126766	-0.14297256
8	0xbddd4ac7	-0.10805278
9	0xbc7c6035	-0.015403797
10	0x3c8db8f5	0.017300108
11	0x3dd854ac	0.10563025
12	0xbe4cb5b4	-0.19991189
13	0xbb1303ee	-0.0022432762
14	0x3d06ac4d	0.032879163
15	0x3d0a6add	0.03379332
16	0xbe00592c	-0.12534016
17	0x3c3677b5	0.011136939
18	0xbe009d09	-0.12559904
19	0x3dec2bd8	0.115318
20	0x3e2e04dd	0.16994043
21	0x3e587362	0.21137765
22	0x3d5a2b5f	0.05326402
23	0x3c652a3e	0.013987122
24	0x3e763987	0.24045382
25	0x3e0a5c93	0.13511877
26	0xbdebc4d7	-0.115121536
27	0x3d0485e1	0.03235424
28	0xbe3ff040	-0.18743992
29	0xbe144900	-0.14480972
30	0x3e4d1757	0.20028435
31	0x3d8ed653	0.06974473
32	0xbd89ea28	-0.06734115
33	0xbce24675	-0.027621487
34	0xbe764829	-0.24050964
35	0xbe3ba556	-0.1832479
36	0x3d68e29e	0.056856744
37	0x3e324f2c	0.17413014
38	0x3c9f60cc	0.019455336
39	0x3dea1bb3	0.114310645
40	0xbdd3216d	-0.1030911
41	0xbe46b808	-0.1940614
42	0xbbf19005	-0.007371905
43	0xba537814	-0.0008066904
44	0xbe1f4f84	-0.15557677
45	0x3df7a5af	0.120921485
46	0x3e2dce56	0.16973242
47	0x3df60b85	0.12013916
48	0x3d884c00	0.06655121
49	0x3e829b05	0.25508896
50	0xbdc05719	-0.093916126
51	0x3e83ecf1	0.2576671
52	0xbd754621	-0.059881333
53	0x3e3d9b77	0.18516336
54	0x3e0f7390	0.14008927
55	0x3e5c1ec6	0.21496114
56	0xbdad3e8c	-0.084591955
57	0x3df2ffe6	0.11865215
58	0x3e6a8299	0.22901382
59	0xbdc32b52	-0.09529747
60	0xbdf408ce	-0.11915742
61	0xbe21651e	-0.1576123
62	0xbe82dd75	-0.25559583
63	0xbe780901	-0.24222185
64	0xbe0d9fe8	-0.1383053
65	0x3e7b6aee	0.24552509
66	0x3e785426	0.2425085
67	0x3ccb26ce	0.024798777
68	0x3e0627d1	0.13101126
69	0xbe60594f	-0.21909069
70	0x3e8af773	0.27141914
71	0x3e82ddc9	0.25559834
72	0xbd1a5ec8	-0.037688047
73	0xba62531d	-0.00086336007
74	0x3d93f17c	0.07223794
75	0x3e06ddc9	0.13170542
76	0xbd37751b	-0.044789415
77	0xbe1c727f	-0.15278052
78	0x3e04512e	0.12921593
79	0xbe06487f	-0.13113593
80	0xbda1ea71	-0.07906044
81	0xbe263012	-0.16229275
82	0x3a86ae42	0.0010275322
83	0xba31b212	-0.00067785487
84	0x3e06755b	0.13130705
85	0xbdbd40c9	-0.092408724
86	0x3d233fef	0.039855894
87	0x3e486280	0.19568825
88	0x3e5a09d9	0.21292819
89	0xbdbafea0	-0.09130597
90	0x3e84e648	0.2595694
91	0xbe6afb03	-0.22947316
92	0x3df0befa	0.11755176
93	0xbe73a7b8	-0.23794448
94	0x3b5a088c	0.0033269254
95	0x3d1619a5	0.03664555
96	0xbd80e956	-0.06294505
97	0xbe374b2a	-0.17899767
98	0xbd8026dc	-0.06257412
99	0xbd982129	-0.074282
100	0xbe031437	-0.1280068
101	0x3e9e8e37	0.30967876
102	0xbe338c71	-0.17534043
103	0x3e57746d	0.21040507
104	0xbe6289f3	-0.22122936
105	0xbe106e0c	-0.1410448
106	0x3d328672	0.04358525
107	0x3d4325e1	0.047643546
108	0x3e7552af	0.23957323
109	0xbd6a5479	-0.057209466
110	0xbe00c24d	-0.1257412
111	0x3b1603c1	0.002289042
112	0xba2f8d92	-0.0006696816
113	0x3e372cb8	0.17888153
114	0xbe811882	-0.2521401
115	0xbde6d291	-0.11270631
116	0x3d9d5c71	0.076836474
117	0x3d5bf815	0.053703386
118	0x3e4ec781	0.20193292
119	0x3dc6dbc3	0.09709885
120	0xbe16deec	-0.14733475
121	0x3d51c7b5	0.051215846
122	0x3cd03006	0.025413524
123	0xbe18ad0a	-0.14909759
124	0x3dc978a6	0.09837465
125	0xbe20a7cc	-0.1568901
126	0xbea23778	-0.31682944
127	0x3e25441b	0.16139261
128	0x3e379663	0.17928462
129	0xbe1894bf	-0.14900492
130	0x3e2461db	0.16052954
131	0x3dadbc2a	0.08483155
132	0x3d406da0	0.046979547
133	0xbe3d47a8	-0.18484366
134	0xbe2c0be4	-0.16801411
135	0xbdd75abd	-0.10515354
136	0x3da93b10	0.082632184
137	0x3e106cd7	0.14104019
138	0x3deee0e5	0.11663989
139	0xbe026381	-0.1273327
140	0x3e3a678a	0.1820356
141	0x3e409774	0.18807775
142	0x3dcc66b1	0.09980524
143	0xbe29d204	-0.16584021
144	0x3dcfca01	0.10145951
145	0xbdc75aa3	-0.097340845
146	0x3e8ce605	0.2751924
147	0xbe8010df	-0.25012872
148	0xbd418704	-0.0472479
149	0x3e89661c	0.26835716
150	0x3d60a11f	0.054841157
151	0x3e96e642	0.29472548
152	0x3e84e6d1	0.2595735
153	0xbd910af7	-0.070821695
154	0xbbfb7e0b	-0.0076749376
155	0x3e0d1c34	0.1378029
156	0x3e6fd2de	0.23420283
157	0x3cc54244	0.02407945
158	0xbdd1b5aa	-0.10239728
159	0xbe1d4b82	-0.15360835
160	0x3db011c9	0.08597142
161	0x3dec2fef	0.1153258
162	0x3d8ad902	0.06779672
163	0x3e78a96d	0.24283381
164	0x3d8e0bc0	0.06935835
165	0x3e73df05	0.23815544
166	0x3c662f26	0.014049327
167	0x3d4033c5	0.04692437
168	0xbd3294fc	-0.043599114
169	0xbdb63ea6	-0.08898668
170	0x3ca1530c	0.01969292
171	0x3e976410	0.2956853
172	0x3e3111ef	0.17291997
173	0x3cf1dc29	0.029523926
174	0xbe4fbbb7	-0.20286451
175	0x3dadbd7c	0.08483407
176	0xbd9963f4	-0.07489768
177	0xbe25ec76	-0.16203484
178	0x3dc1dd22	0.09466006
179	0x3de5b453	0.11216035
180	0xbe0b8c0a	-0.1362764
181	0x3e32e6fc	0.17470926
182	0x3d9fa586	0.07795243
183	0xbe26aeba	-0.1627759
184	0xbdf6202b	-0.12017854
185	0xbdacb905	-0.08433727
186	0x3e24eb37	0.16105352
187	0xbe5402eb	-0.20704238
188	0x3e0fa4d9	0.14027728
189	0x3d893c05	0.06700901
190	0xbe90dd8f	-0.28294036
191	0xbe1a31af	-0.15058015
192	0xbe62b78c	-0.2214033
193	0x3e1f7923	0.15573554
194	0x3e0c8b6f	0.13725065
195	0xbe3c367a	-0.18380156
196	0x3c1bef54	0.0095175095
197	0xbc9b8196	-0.01898269
198	0xbe085d3a	-0.13316813
199	0x3cdc2a1c	0.026875548
200	0xbe49a9fb	-0.19693749
201	0xbc8c6dfc	-0.017142288
202	0xbe631fcf	-0.22180103
203	0xbdaafec1	-0.08349372
204	0xbce680e3	-0.02813763
205	0xbd41eb9b	-0.04734383
206	0x3e421f73	0.1895731
207	0x3b408561	0.0029376375
208	0x3dfdfd72	0.124018565
209	0x3dc418d3	0.09575047
210	0x3e18833f	0.14893816
211	0x3de069cb	0.109576784
212	0x3d98e5ef	0.07465731
213	0x3e180de8	0.14849055
214	0xbd89a36a	-0.06720622
215	0x3d30b3ef	0.043140348
216	0xbe09272d	-0.1339385
217	0x3d82d447	0.06388145
218	0x3e67625e	0.22596118
219	0xba2d9f2a	-0.00066231436
220	0xbe638c64	-0.22221524
221	0xbe67dd06	-0.22642908
222	0xbb0f1a5c	-0.002183578
223	0x3e5b06a7	0.21389256
224	0xbe8e4bb7	-0.2779214
225	0xbdb94c5b	-0.09047767
226	0x3e215ec9	0.15758814
227	0x3e09bae0	0.13450193
228	0x3e8af711	0.27141622
229	0xbca6eabf	-0.020375608
230	0x3e0da526	0.1383253
231	0x3e88e6bd	0.2673854
232	0x3e821964	0.25409997
233	0xbd4d5004	-0.050125137
234	0xbde868ce	-0.11348115
235	0x3d84d424	0.06485775
236	0x3e89447a	0.26810056
237	0x3d7a7eb6	0.061155997
238	0x3b6c2f72	0.0036039022
239	0xbda67a51	-0.08128799
240	0x3d2c9e38	0.042143077
241	0x3d836186	0.064150855
242	0x3dedf6a8	0.116193116
243	0x3c9d3448	0.019189969
244	0xbe71edfb	-0.23625939
245	0x3e820e66	0.2540161
246	0x3e76fc1f	0.24119614
247	0x3e2d9d16	0.16954455
248	0x3e519c57	0.20469795
249	0xbcfdb92d	-0.030972088
250	0xbd9b0587	-0.07569414
251	0x3d5b2426	0.05350127
252	0x3e4ddf03	0.20104603
253	0x3dcff037	0.10153239
254	0x3e40a13d	0.18811508
255	0x3e0cc1a0	0.13745737

encoder.encoder_g.conv2.bias f4 [32]
0	0x3d2fb242	0.04289461
1	0x3d0a43bf	0.033756014
2	0xbc83c2ed	-0.016084159
3	0x3d07d862	0.033165343
4	0xbb109c69	-0.0022065884
5	0xbbc775f2	-0.006087058
6	0x3c2a99c6	0.010412639
7	0x3b8bd4e2	0.004267321
8	0x3bb2de8e	0.0054586595
9	0x3caa1e97	0.02076654
10	0x3baff735	0.0053700455
11	0x3c8855e9	0.016642528
12	0xbb783c92	-0.00378779
13	0xbbc99193	-0.006151387
14	0xbb2310a9	-0.0024881756
15	0xbbf7c38b	-0.0075611523
16	0xbc10f4a1	-0.008847387
17	0x3bc90e35	0.006135727
18	0x3bde747e	0.0067887893
19	0xbc1ce351	-0.009575681
20	0x3c42d398	0.011891268
21	0xbd3fb8d7	-0.046807136
22	0xbcf4b253	-0.029870188
23	0x3b219a61	0.0024658667
24	0xbc6c64a1	-0.014428289
25	0xbd0ddb43	-0.034632932
26	0x3bfddd13	0.0077473014
27	0x3c78d242	0.015186848
28	0x3cac2961	0.021015825
29	0xbd10cb53	-0.035350155
30	0x3caa2d1d	0.020773465
31	0xbc4c64fb	-0.0124752475

encoder.encoder_g.conv2.lin.weight f4 [32, 32]
0	0xbe25691b	-0.16153376
1	0xbe0b68d6	-0.1361421
2	0x3dc28c1d	0.09499381
3	0x3e578e1f	0.21050309
4	0x3e81f952	0.2538553
5	0xbc12e7ba	-0.008966381
6	0xbe6303a5	-0.22169359
7	0x3e37a1e7	0.17932855
8	0x3cf9da9e	0.030499753
9	0x3e84c6c3	0.25932893
10	0xbd1d421d	-0.03839313
11	0xbe11081c	-0.1416325
12	0xbe3bd4fa	-0.18342963
13	0x3e9f2fd2	0.31091172
14	0x3e9167b2	0.28399426
15	0xbe774c23	-0.24150138
16	0x3e188c9a	0.14897385
17	0xbdc0fd95	-0.09423367
18	0xbe621f5a	-0.22082272
19	0xbe094142	-0.134038
20	0xbd95c53b	-0.07313009
21	0x3dd9a356	0.10626857
22	0x3a97f96a	0.0011594717
23	0xbb9cd869	-0.0047865403
24	0x3e3ab887	0.18234454
25	0x3ea1428c	0.31496084
26	0x3ce1651a	0.02751403
27	0xbda09faf	-0.07842957
28	0x3e9bf76a	0.304622
29	0x3ea94556	0.33060712
30	0x3ea18672	0.31547886
31	0xbda9cb47	-0.08290725
32	0x3dc95308	0.0983029
33	0xbd8dca11	-0.06923307
34	0x3cf21f54	0.029555954
35	0x3e62e97c	0.2215938
36	0xbe35cb5b	-0.17753355
37	0xbd966f32	-0.073454276
38	0xbd367866	-0.044548415
39	0x3e954960	0.29157543
40	0xbe295fed	-0.16540499
41	0x3de764b4	0.112985045
42	0xbe11f068	-0.14251864
43	0x3ebb1ba0	0.36544514
44	0xbd15271a	-0.036414243
45	0x3d2814fc	0.041035637
46	0xbe441a04	-0.19150549
47	0xbd4d3d12	-0.05010707
48	0xbe7b1d7c	-0.24522966
49	0xbe17bc4b	-0.14817922
50	0x3e08c3e1	0.13355972
51	0xbc444377	-0.0119789755
52	0x3e1d5d5a	0.15367642
53	0xbe049dc9	-0.12950815
54	0x3e59dcbe	0.21275613
55	0x3dc50122	0.09619357
56	0x3d13f440	0.036121607
57	0xbdee9833	-0.116501234
58	0x3ea1fe54	0.3163935
59	0x3e2cd975	0.16879828
60	0x3de4a0c2	0.111634746
61	0x3e6c8a0b	0.23099534
62	0x3e75d64c	0.24007529
63	0xbddf4383	-0.10901549
64	0x3e506dec	0.20354432
65	0xbd80da9f	-0.06291699
66	0x3e3d845f	0.18507527
67	0xbc21f0af	-0.009884044
68	0x3e24c119	0.16089286
69	0x3e4ba374	0.19886571
70	0xbea0c155	-0.313975
71	0x3e14e1cd	0.14539261
72	0xbe12fa56	-0.14353308
73	0xbdff6575	-0.12470523
74	0xbe539d07	-0.2066537
75	0xbdadf0d7	-0.08493202
76	0xbe002dcd	-0.12517472
77	0x3d5479bb	0.051873904
78	0xbda5bd78	-0.08092779
79	0xbd520ebe	-0.05128359
80	0xbc99a16c	-0.01875373
81	0x3e1cafcb	0.15301435
82	0x3e15d104	0.14630514
83	0x3e386e51	0.18010832
84	0xbe8e7a49	-0.2782767
85	0xbe27c920	-0.16385317
86	0x3dd24c2a	0.102684334
87	0xbe59beb3	-0.21264152
88	0x3e7cd2bb	0.24689762
89	0x3e423922	0.18967107
90	0xbe4b4704	-0.19851309
91	0x3da95497	0.08268087
92	0x3e0bbda7	0.13646565
93	0x3e64ff75	0.22363074
94	0x3db2890b	0.08717545
95	0x3e7e1371	0.24812104
96	0x3ea0ebc7	0.31429884
97	0x3cfc55e0	0.030802667
98	0xbdbebd5d	-0.09313462
99	0xbe2026f8	-0.15639865
100	0xbe1fb64e	-0.15596887
101	0x3e1d1f55	0.15343983
102	0x3cc2b080	0.023765802
103	0x3d91e319	0.071233936
104	0x3ddbb465	0.10727767
105	0xbca6963e	-0.020335313
106	0x3db4a855	0.08821169
107	0x3d73d320	0.059527516
108	0xbe311b35	-0.17295535
109	0xbda54e8a	-0.08071621
110	0xbe49b495	-0.19697793
111	0xbe74a613	-0.23891477
112	0xbde89107	-0.11355787
113	0x3e50e36b	0.20399253
114	0xbe435893	-0.19076757
115	0x3e7aa3c6	0.24476537
116	0x3e3fc6ab	0.1872813
117	0xbd8beb73	-0.06832018
118	0xbe9e021a	-0.30860978
119	0x3d968a7e	0.07350634
120	0xbddcdfda	-0.10784884
121	0xbe3557d6	-0.17709288
122	0x3e8f6ad2	0.28011185
123	0xbe7cfd2a	-0.2470595
124	0x3e90016b	0.28126082
125	0xbdbe0d5c	-0.09279892
126	0x3e8f152f	0.2794585
127	0xbdea5212	-0.11441435
128	0x3decb44e	0.11557828
129	0xbe5cf6b3	-0.21578483
130	0x3e126695	0.14296944
131	0xbe265b11	-0.16245677
132	0x3dcd8e42	0.10036899
133	0x3e12a940	0.14322376
134	0xbdfd8d32	-0.123804465
135	0x3e81d4e3	0.25357732
136	0x3e8dd0d4	0.27698386
137	0x3dd83e08	0.105587065
138	0xbea8334e	-0.32851642
139	0xbe713471	-0.23555161
140	0x3e02ac96	0.12761149
141	0x3cf99a7c	0.030469172
142	0xbd9c1c1a	-0.076225474
143	0x3d145491	0.03621346
144	0xbe946cc5	-0.28989235
145	0xb9ce61aa	-0.00039364147
146	0x3e2e8098	0.17041242
147	0x3de99e51	0.114071496
148	0xbe69d533	-0.22835235
149	0x3d8208ac	0.0634931
150	0x3e6f1a32	0.23349836
151	0x3d976900	0.07393074
152	0xbe406778	-0.1878947
153	0x3e6b8f87	0.2300397
154	0xbe33452a	-0.17506853
155	0xbe9d7a7d	-0.30757514
156	0xbd9cb140	-0.07650995
157	0x3c7554d8	0.014973842
158	0x3c6a8b7a	0.01431548
159	0xbc9c4bdd	-0.019079143
160	0xbe85f0a3	-0.26160154
161	0x3e5373ff	0.20649718
162	0x3dc4c430	0.09607732
163	0x3ea97942	0.33100325
164	0xbe361612	-0.17781857
165	0xbd26ccff	-0.040722843
166	0xbd5c8273	-0.053835344
167	0xbe6fe722	-0.23428014
168	0xbe2cff80	-0.1689434
169	0x3dc57b58	0.096426666
170	0xbd7b9130	-0.06141776
171	0xbc63fffb	-0.013916011
172	0x3d092d65	0.033490557
173	0xbe3462f5	-0.17615874
174	0xbdbb4fcb	-0.09146079
175	0x3e95c3b8	0.29250884
176	0xbe3f0309	-0.18653502
177	0x3e1563ed	0.145889
178	0x3d2c4dee	0.042066507
179	0xbdec2532	-0.11530532
180	0x3d95f25a	0.073216155
181	0x3e8c3b0c	0.273888
182	0x3daff12f	0.08590924
183	0x3e6e7fff	0.23291014
184	0xbe6ce830	-0.23135448
185	0xbe0c9fd0	-0.13732839
186	0xbdb5975e	-0.088667616
187	0xbe450d81	-0.19243433
188	0x3e33ef84	0.17571837
189	0x3e9398b8	0.28827453
190	0xbe739898	-0.23788679
191	0x3e4521f5	0.19251235
192	0xbd7fbb9b	-0.062434774
193	0xbdff731d	-0.12473128
194	0xbe7e709f	-0.24847649
195	0x3e405959	0.18784083
196	0x3c6fee07	0.0146441525
197	0x3d2c6379	0.042087052
198	0x3c1386b7	0.0090042865
199	0x3d96cbcf	0.07363092
200	0x3e59aa16	0.21256289
201	0x3e9c4911	0.30524495
202	0xbe6b786c	-0.22995156
203	0xbddde83b	-0.1083531
204	0x3e826686	0.25468844
205	0xbe1e12ac	-0.1543681
206	0xbe1a4c6b	-0.15068214
207	0x3e0e6a52	0.13907745
208	0xbe98b68a	-0.29826766
209	0x3e8e511e	0.27796263
210	0x3dbeed3d	0.09322593
211	0xbdf43284	-0.119236976
212	0x3e5df97e	0.21677205
213	0xbe172e77	-0.14763819
214	0xbdcb41c9	-0.09924657
215	0xbcb09d57	-0.0215594
216	0x3e423f57	0.18969475
217	0x3e6f18c4	0.23349291
218	0x3eaab3de	0.33340353
219	0xbd9838f3	-0.07432737
220	0x3d85dce4	0.06536272
221	0xbe607b96	-0.21922144
222	0x3e36e1de	0.17859599
223	0x3e1501e7	0.14551507
224	0x3e0234b8	0.12715423
225	0xbe261ea7	-0.1622263
226	0x3db88bf8	0.09011072
227	0x3e30b21b	0.17255442
228	0xbcc91bb6	-0.024549346
229	0xbb8ce158	-0.004299324
230	0xbde5024e	-0.1118208
231	0xbe3b1d1c	-0.18272823
232	0xbe1541f6	-0.14575943
233	0x3e6e5d2f	0.23277734
234	0xbe4e4359	-0.20142879
235	0xbd7916e2	-0.06081284
236	0xbe206121	-0.15662052
237	0xbd8dedb1	-0.06930102
238	0x3e73e34a	0.23817173
239	0xbe46d93e	-0.19418809
240	0xbe8ef8b8	-0.27924132
241	0x3e9baf90	0.3040738
242	0xbe305f7d	-0.17223926
243	0xbd1e6126	-0.038666867
244	0x3e3476c0	0.17623425
245	0x3da61db6	0.08111136
246	0x3dc508f8	0.09620851
247	0x3e18e1aa	0.14929834
248	0x3df36ee8	0.11886388
249	0x3de06b70	0.10957992
250	0x3e14264e	0.14467737
251	0xbdeda528	-0.11603767
252	0xbe739a57	-0.23789345
253	0xbe476f6a	-0.19476095
254	0xbdf984d3	-0.12183537
255	0x3e98a32a	0.29811984

encoder.encoder_g.linear.weight f4 [32, 1440]
0	0xbc9e07e0	-0.019290864
1	0x3be46cfd	0.006971
2	0x3be0e2f2	0.0068629915
3	0x3d00bc92	0.031429835
4	0x3d15ef6a	0.036605276
5	0x3d377fb2	0.044799514
6	0xbcffa1ca	-0.031205077
7	0xbd191273	-0.03737111
8	0xbcea572e	-0.028606024
9	0xbd38625b	-0.045015674
10	0x3c86d76a	0.01646014
11	0x3d1d0279	0.038332436
12	0x3d44aab8	0.048014373
13	0xbd1cc2c1	-0.03827167
14	0x3d96b069	0.07357866
15	0x3cb68b7c	0.022283308
16	0xb9f9f6f5	-0.00047676978
17	0xbd4f8afe	-0.050669663
18	0xbdaaf469	-0.08347399
19	0x3cbf6ec1	0.023368241
20	0x3c8026a7	0.01564343
21	0xbd2d3b99	-0.042293165
22	0x3c9ea8dc	0.019367628
23	0xbd820c3a	-0.06349988
24	0x3c94b4c5	0.018152604
25	0xbcf012d9	-0.029305862
26	0x3c7efdb8	0.015563421
27	0xbb9549b0	-0.0045559034
28	0x3d031023	0.03199781
29	0xbc3a6ade	-0.011378018
30	0xbda5ae7a	-0.080899194
31	0x3b3c6a0c	0.0028749732
32	0xbc199e66	-0.009376144
33	0xbcd18898	-0.025577828
34	0x3cc4186b	0.023937425
35	0x3d252d25	0.040326256
36	0x3d2754fa	0.040852524
37	0x3b83d53a	0.0040232213
38	0xbd8a5581	-0.0675459
39	0xbd3aeb63	-0.04563464
40	0xbd0e7592	-0.034780093
41	0xbd410c35	-0.047130782
42	0x3c8ef3e0	0.017450273
43	0x3cd0dabb	0.025494924
44	0x3d8e15c9	0.06937749
45	0xbd3c3e14	-0.04595764
46	0x3da17050	0.0788275
47	0x3c85b5f2	0.01632211
48	0x3c09fe32	0.008422421
49	0xbd5efb19	-0.054438684
50	0xbd85c02c	-0.065307945
51	0x3cf6eb11	0.030141385
52	0xbd05fc19	-0.032711122
53	0xbd4e1257	-0.05031046
54	0x3cb93aa9	0.02261098
55	0xbd6d7098	-0.057968706
56	0xbc256cf6	-0.010096779
57	0xbcb35811	-0.02189258
58	0x38fb4d36	0.00011982994
59	0xbcd11421	-0.025522294
60	0x3b1cbb28	0.0023915265
61	0x39d66a64	0.00040896528
62	0xbd7d0942	-0.061776407
63	0x3d2493ba	0.040179946
64	0x3cea916f	0.028633801
65	0x3bd79a18	0.0065796487
66	0x3c55354d	0.013013196
67	0x3ca50a14	0.020146407
68	0x3d615529	0.055012856
69	0x3d19aae0	0.037516475
70	0xbd938038	-0.0720219
71	0xbcd44631	-0.025912376
72	0xbce35570	-0.0277507
73	0xbce549d2	-0.027989302
74	0x3b747ac0	0.003730461
75	0xbb730b92	-0.0037085754
76	0x3b365dc5	0.0027826887
77	0xbd7969c7	-0.060891893
78	0x3dba78e5	0.0910509
79	0x3d611c6d	0.05495875
80	0xb98c0865	-0.00026709135
81	0xbd2de819	-0.042457674
82	0xbc78c354	-0.015183289
83	0x3cd57c11	0.026060136
84	0x3b1eefcf	0.0024251824
85	0xbc9a4680	-0.018832445
86	0x3d15b3a1	0.03654826
87	0xbd3b07e8	-0.045661837
88	0x3c93b2e2	0.018029634
89	0xbc01b861	-0.0079174945
90	0x3b3d1ec5	0.0028857451
91	0xbcdcaa4d	-0.026936674
92	0x3b7279e7	0.003699893
93	0xbc0ea200	-0.008705616
94	0xbc606638	-0.013696246
95	0x3d46c3d4	0.0485266
96	0x3c377662	0.011197658
97	0xbcfb7a53	-0.030697977
98	0x3baab7ba	0.00520989
99	0x3bbaa050	0.0056953803
100	0x3d46e309	0.04855636
101	0x3d223ab1	0.039606754
102	0xbcf47a50	-0.02984348
103	0xbd138b7e	-0.036021702
104	0xbd54247e	-0.051792614
105	0xbd5eedf1	-0.054426137
106	0xbca47879	-0.020076977
107	0x3cc14b3e	0.023595449
108	0x3ca516c7	0.020152463
109	0xbd53b20f	-0.05168348
110	0x3d5b3486	0.053516887
111	0x3d250570	0.04028839
112	0xbced94e5	-0.029001663
113	0xbcd30db6	-0.025763374
114	0xbd811b41	-0.063040264
115	0x3cc186ba	0.023623813
116	0xbc4480b7	-0.011993579
117	0xbcca2818	-0.024677321
118	0x3c7db439	0.015484863
119	0xbd2cf94a	-0.042229928
120	0x3bbc2ab2	0.0057423944
121	0xbc698c6a	-0.014254669
122	0x3d1497d0	0.036277592
123	0x3c03ee52	0.008052425
124	0x3cd5e01f	0.026107846
125	0xbcd1c715	-0.025607625
126	0xbd18a737	-0.037268844
127	0x3d1683c0	0.03674674
128	0xbaafa8d6	-0.0013401757
129	0x3b1b469b	0.0023693207
130	0xbbab3997	-0.005225371
131	0x3d3b7975	0.045770127
132	0x3cfb3964	0.030667014
133	0x3c781fb2	0.0151442755
134	0xbd08d6f3	-0.033408117
135	0xbd00cbd2	-0.03144438
136	0xbd39a993	-0.045327734
137	0xbd4d1d91	-0.050077025
138	0x3c2caeda	0.010539735
139	0xb87f8166	-6.091725e-05
140	0x3cb49e9b	0.022048285
141	0xbcece0f2	-0.028915856
142	0x3d0b72ea	0.034045137
143	0x3d01d793	0.03169973
144	0xbcc570b0	-0.024101585
145	0xbd085771	-0.033286516
146	0xbd92b44f	-0.071632974
147	0x3c0ffbb8	0.008788042
148	0xbbef4afb	-0.0073026395
149	0xbcab301b	-0.020896962
150	0x3c7b0ddf	0.015323131
151	0xbd93afa2	-0.07211234
152	0xbb3c8f2e	-0.0028771865
153	0xbcedac47	-0.029012812
154	0x3d2595cb	0.040426057
155	0x3c93fce8	0.018064931
156	0x3c7193a7	0.014744676
157	0x3c45a503	0.012063268
158	0xbd8cd8c9	-0.06877286
159	0x3d077967	0.033074763
160	0x3b5ac3d9	0.0033380894
161	0xbc960f68	-0.018317893
162	0x3c7d468c	0.015458714
163	0x3cdab4c6	0.026697528
164	0x3d14b93e	0.036309473
165	0x3cab628e	0.020921018
166	0xbd158e45	-0.036512632
167	0xbd4c8416	-0.049930654
168	0xbd0d990d	-0.03456979
169	0xbc91f00c	-0.017814659
170	0xbc5f7a95	-0.013640066
171	0x3b8c19cf	0.0042755376
172	0x3d02a012	0.031890936
173	0xbd3cc254	-0.046083763
174	0x3bce4aa3	0.0062955185
175	0x3c6abca2	0.0143272
176	0xbc48f57f	-0.012265562
177	0xbd0ad434	-0.03389378
178	0xbd7ed430	-0.062214077
179	0x392aa89e	0.00016275278
180	0x3d1250ef	0.035721716
181	0xbc64b718	-0.013959669
182	0xbcfb051c	-0.030642085
183	0xbd9877e6	-0.07444744
184	0xb9916e06	-0.0002773853
185	0xbcc563f1	-0.024095507
186	0x3d47abc4	0.048747793
187	0xbca234c7	-0.019800557
188	0x3b0d4ea8	0.0021561775
189	0x3c9fbcae	0.01949915
190	0xbd430150	-0.047608674
191	0x3cc997ce	0.024608519
192	0x3b0fbd2f	0.002193283
193	0x3c96aeb0	0.018393844
194	0xbbc06c2d	-0.0058722706
195	0x3c304937	0.010759643
196	0x3d718a0f	0.058969554
197	0x3be036c4	0.006842466
198	0xbd3b1d8a	-0.045682468
199	0xbcbdcf1f	-0.023170052
200	0xbd99e225	-0.07513837
201	0xbd8495b7	-0.06473868
202	0x3c37f8ae	0.011228723
203	0x3b8d8e83	0.0043199672
204	0xbb1f85cd	-0.0024341226
205	0xbc67fb6d	-0.014159066
206	0x3d78a591	0.06070477
207	0x3d419212	0.047258444
208	0x3b946f7b	0.004529891
209	0xbd2c5d26	-0.04208102
210	0xbd3ea8ec	-0.046547815
211	0xbc8aea86	-0.016957533
212	0x3c996703	0.018725878
213	0xbc9ad4b1	-0.018900247
214	0x3a31bf60	0.0006780531
215	0xbd274cb4	-0.040844634
216	0x3bedb28d	0.007253951
217	0xbd47bca6	-0.048763894
218	0x3bbc24ae	0.0057416772
219	0x3aa7015d	0.0012741495
220	0x3c57b8ed	0.013166648
221	0xbc1b4437	-0.009476713
222	0xbd842d14	-0.064539105
223	0x3d00aa7b	0.031412583
224	0xbb14bda3	-0.002269604
225	0x3b3a1c3a	0.0028398172
226	0x3cace091	0.021103175
227	0x3d23eca2	0.040020593
228	0x3d31e90f	0.043435153
229	0xbc1fa6b9	-0.00974434
230	0xbcbb2e4c	-0.022849225
231	0xbbb72585	-0.0055891895
232	0xbc827477	-0.015924675
233	0xbd0ff972	-0.03515
234	0xbdd1f4d1	-0.10251773
235	0x3c880da5	0.016608069
236	0xbdb597de	-0.08866857
237	0x3acc2e38	0.0015577739
238	0xbc605f4c	-0.013694596
239	0x3d399f10	0.04531771
240	0x3d148670	0.036261022
241	0xbca247a9	-0.01980956
242	0xbc0e80f2	-0.008697735
243	0xbcff61f2	-0.031174634
244	0x3c36e519	0.01116302
245	0xbd830d58	-0.063990295
246	0xbcae246a	-0.021257598
247	0xbcc5d03a	-0.024147142
248	0xbd144cb9	-0.03620598
249	0xbc22eccf	-0.009944155
250	0x3dd77eb4	0.105222136
251	0xbce6e311	-0.028184446
252	0x3cbcd988	0.023052946
253	0xbd20d2ed	-0.039263655
254	0xbd472e42	-0.0486281
255	0x3bb54cb7	0.0055328268

encoder.encoder_g.linear.bias f4 [32]
0	0xbd96af83	-0.07357695
1	0x3c371373	0.011174071
2	0x3c7eb2a9	0.015545526
3	0xbd078c91	-0.03309304
4	0x3d04c0f3	0.032410573
5	0x3cdfe399	0.027330207
6	0xbd06dd35	-0.032925803
7	0xbd690dab	-0.0568978
8	0x3cfdeb93	0.03099612
9	0x3c6fb08d	0.014629495
10	0xbce97e36	-0.028502565
11	0xbb383e9b	-0.0028113488
12	0x3d33f58d	0.043935347
13	0x3d4c8cfb	0.049939137
14	0xbd19ceaa	-0.037550606
15	0x3ca34399	0.019929694
16	0xbd087218	-0.033311933
17	0xbcf3ab7e	-0.02974486
18	0xbc792031	-0.015205429
19	0xbc7fd35b	-0.015614356
20	0xbc92a690	-0.017901689
21	0x3cf5f709	0.030025022
22	0x3bdc3e63	0.0067213043
23	0x3cfe4a57	0.031041307
24	0x3c3540fb	0.011062856
25	0xbcc3797b	-0.023861637
26	0x3c40a46a	0.011757949
27	0x3d0902fe	0.03345012
28	0xbcb0c86c	-0.021579944
29	0x3d148a49	0.03626469
30	0x3cd0611c	0.02543693
31	0xbd039be7	-0.032131102

encoder.encoder_c.conv1.bias f4 [32]
0	0x3df2ee2c	0.11861834
1	0x3df37123	0.118868135
2	0x3d87a01e	0.06622337
3	0x3dc67ed0	0.09692156
4	0x3daba42e	0.08380924
5	0x3dd8912c	0.10574564
6	0x3e135dd9	0.14391269
7	0x3db3ba1f	0.08775734
8	0x3d9ebfb3	0.077514075
9	0x3db92468	0.09040147
10	0x3d8cb0d8	0.06869668
11	0x3e218b85	0.15775879
12	0x3c953777	0.018214924
13	0x3de9bc53	0.11412873
14	0x3da96532	0.082712546
15	0x3e1edb09	0.15513243
16	0x3df17dab	0.117915474
17	0x3dea7110	0.11447346
18	0x3cb75483	0.022379166
19	0x3e0d6684	0.13808638
20	0x3e1cd24e	0.153146
21	0x3dc9a27f	0.09845447
22	0x3df20b33	0.11818542
23	0x3e05a086	0.13049516
24	0x3d9efe75	0.077633776
25	0x3e1af058	0.15130746
26	0x3d9f86d2	0.07789387
27	0x3da98fc2	0.08279373
28	0x3e10e7e6	0.14150962
29	0x3db98575	0.09058658
30	0x3dc7806a	0.0974129
31	0x3d04c8c6	0.032418035

encoder.encoder_c.conv1.lin.weight f4 [32, 125]
0	0x3ea226ec	0.3167032
1	0xbdc64b34	-0.096823126
2	0x3a8f51f1	0.0010934455
3	0x3e6f5e98	0.23375928
4	0x3e9a329d	0.3011674
5	0x3eb06deb	0.3445886
6	0xbe0413a2	-0.12898114
7	0x3e617b83	0.22019772
8	0x3f09e276	0.53861177
9	0x3dbcf4e6	0.09226398
10	0xbe67db2b	-0.226422
11	0xbe911edf	-0.28343865
12	0x3e98bf07	0.29833242
13	0x3e3d9114	0.18512374
14	0xbe2ffea9	-0.17186989
15	0xbdd18ea5	-0.102322854
16	0xbdee46d8	-0.11634606
17	0x3e8b5670	0.27214384
18	0xbe8bd8f3	-0.27313957
19	0xbe070f34	-0.13189393
20	0x3e9ed7ed	0.31024113
21	0xbeda70eb	-0.42664275
22	0xbe52cb2a	-0.20585313
23	0xbe9710c8	-0.2950499
24	0xbe2f8a89	-0.1714269
25	0x3d96c8ca	0.07362516
26	0xbdfe5083	-0.124177
27	0x3e030a89	0.12796988
28	0x3e7caf39	0.24676217
29	0xbe8b6705	-0.27227035
30	0x3eb2e3c8	0.34939408
31	0x3e52cc78	0.20585811
32	0xbeafa760	-0.34307384
33	0xbcbac6b7	-0.022799833
34	0xbca63869	-0.02029057
35	0x3e811bcc	0.2521652
36	0x3ccc7013	0.024955785
37	0xbef0a004	-0.46997082
38	0x3e9eb64c	0.30998456
39	0x3ddadd1b	0.10686704
40	0xbdae3a6b	-0.08507236
41	0xbe4c3991	-0.19943835
42	0xbda0345c	-0.07822487
43	0xbdd85362	-0.10562779
44	0xbe2792e9	-0.16364636
45	0xbec52d97	-0.38511345
46	0xbccf7f0b	-0.025329133
47	0xbcdffb27	-0.027341438
48	0x3e7589c3	0.23978333
49	0xbeecd264	-0.46254265
50	0x3d578b3f	0.05262303
51	0x3e08aab5	0.1334637
52	0x3e27a27a	0.16370574
53	0xbed60b92	-0.41805702
54	0xbedb5bac	-0.42843378
55	0xbef6561b	-0.48112568
56	0x3d890f04	0.06692317
57	0xbf000080	-0.5000076
58	0xbda4a8f8	-0.08040041
59	0x3e8542c1	0.26027492
60	0xbe5836ae	-0.21114609
61	0x3ea22043	0.3166524
62	0xbe865a1a	-0.26240617
63	0x3d987e51	0.07445968
64	0x3e786d87	0.24260531
65	0x3e821633	0.25407562
66	0x3e85a446	0.26101893
67	0xbe41e18b	-0.18933694
68	0x3ec667e0	0.38751125
69	0x3ef0705b	0.4696072
70	0x3dba38c4	0.090928584
71	0x3e824a19	0.25447157
72	0x3dd00cfe	0.10158728
73	0x3e88ef52	0.26745087
74	0x3ec545f3	0.3852993
75	0xbde5b1ff	-0.11215591
76	0x3c970b24	0.01843793
77	0xbe2a396c	-0.16623467
78	0xbdfa79ce	-0.12230264
79	0x3c2ebff6	0.010665884
80	0xbf257b09	-0.6464086
81	0x3e85a4fc	0.26102436
82	0xbe8ff57c	-0.28116977
83	0xbeac7339	-0.33681658
84	0x3dddf88e	0.10838424
85	0xbdc53b6f	-0.09630477
86	0x3f04330b	0.51640385
87	0x3c9a5716	0.018840354
88	0xbce27c94	-0.027647294
89	0x3eb1354a	0.3461097
90	0x3e0f6458	0.14003122
91	0xbd6ad09b	-0.057327848
92	0xbe4295a3	-0.19002394
93	0xbe29f969	-0.16599049
94	0x3eb197ad	0.34686032
95	0xbf010bc0	-0.50408554
96	0x3d87fced	0.06640039
97	0xbeb77d86	-0.35837954
98	0xbd43d185	-0.047807235
99	0xbee81061	-0.45324996
100	0x3e8e2a78	0.27766776
101	0x3e6cbb9d	0.23118444
102	0x3e94fc84	0.29098904
103	0x3c5d5430	0.013508841
104	0x3dc0244d	0.09381924
105	0x3db32b2a	0.08748467
106	0xbe95672e	-0.29180282
107	0xbe33e6c1	-0.17568494
108	0x3ea72e7b	0.3265265
109	0xbdb27490	-0.08713639
110	0x3e070ffc	0.13189691
111	0xbed7345f	-0.42032143
112	0xbd061dca	-0.032743253
113	0x3e97d97b	0.29658112
114	0xbeaf36d7	-0.34221527
115	0x3e89c34b	0.2690681
116	0x3d7735d3	0.060354065
117	0xbeebd657	-0.46061966
118	0x3d81bc58	0.06334752
119	0x3ea71b88	0.32638192
120	0xbceb1aba	-0.028699268
121	0x3e1698ca	0.14706722
122	0x3eb69a7d	0.3566474
123	0x3db69e41	0.08916903
124	0x3e5047e5	0.20339926
125	0xbdf1ce81	-0.118069656
126	0x3f53ba29	0.8270593
127	0x3edba029	0.4289563
128	0x3b9f3418	0.004858505
129	0x3e7eddc9	0.24889292
130	0x3f10fa53	0.56631964
131	0x3cda3e6c	0.026641093
132	0x3ea97efa	0.33104688
133	0xbd1d1a79	-0.038355324
134	0xbe400b45	-0.18754299
135	0xbde62701	-0.11237908
136	0xbe97e567	-0.29667208
137	0x3ec7c9de	0.390212
138	0xbea882b9	-0.32912233
139	0xbe94988e	-0.2902264
140	0xbe482773	-0.19546299
141	0x3e793c20	0.24339342
142	0xbd2f1260	-0.042742133
143	0xbe1cc9d5	-0.15311368
144	0xbe9ccffc	-0.3062743
145	0x3e9df729	0.3085263
146	0x3e8659d8	0.2624042
147	0x3f1e2a0c	0.6178291
148	0x3d2d0edf	0.04225051
149	0xbf0b12e1	-0.5432568
150	0xbea4162a	-0.3204816
151	0xbda3c0a0	-0.07995725
152	0x3e2655d3	0.16243677
153	0xbeab7113	-0.33484706
154	0x3eaafc9f	0.3339586
155	0xbf02ff16	-0.5117048
156	0x3d9469a5	0.072467126
157	0xbefa2b0b	-0.48860964
158	0x3ef4b2a0	0.4779253
159	0xbc99ace7	-0.018759204
160	0xbe3650d1	-0.17804267
161	0xbefd6cd6	-0.49497098
162	0x3f2d9701	0.6780854
163	0x3ed5d5f6	0.41764802
164	0x3ea9f869	0.33197334
165	0xbe810795	-0.25201097
166	0xbd72c465	-0.059269328
167	0xbe2db9f6	-0.1696547
168	0x3dadd899	0.08488578
169	0x3df76c7b	0.12081238
170	0xbdc4cc11	-0.09609235
171	0xbdc2079e	-0.09474109
172	0x3ebffb39	0.37496355
173	0xbe821c17	-0.25412056
174	0xbf2992e5	-0.6623977
175	0x3f23205b	0.63721246
176	0x3eca43a9	0.39504746
177	0x3daf6634	0.085644156
178	0xbeb58176	-0.35450333
179	0x3ed62afa	0.41829664
180	0xbce4c34f	-0.027925162
181	0xbf030340	-0.51176834
182	0x3b132c63	0.0022456876
183	0x3d00fad2	0.0314892
184	0xbeb56197	-0.35426018
185	0x3d94231a	0.072332576
186	0x3e935eab	0.28783163
187	0x3e2feb5f	0.1717963
188	0xbe2a46a9	-0.16628517
189	0x3d733728	0.059378773
190	0x3ef3980c	0.4757694
191	0x3e2a6d23	0.16643195
192	0xbe077bdc	-0.13230842
193	0x3f41bb00	0.75675964
194	0x3f24d119	0.6438156
195	0x3e3519d8	0.1768564
196	0x3dedfaa0	0.116200686
197	0x3e6cd57c	0.23128313
198	0xbe07a674	-0.1324709
199	0xbd9d1d6d	-0.07671628
200	0x3d9274dc	0.071511954
201	0xbe9ca617	-0.30595466
202	0xbd11a2f3	-0.03555579
203	0x3d8276b2	0.063702956
204	0xbe79c6bb	-0.24392216
205	0xbe4e2b9c	-0.20133823
206	0xbe499912	-0.19687298
207	0x3e9077db	0.28216442
208	0xbdb00dd1	-0.08596385
209	0xbc85d2d4	-0.016335882
210	0x3ddae31b	0.10687848
211	0xbe758691	-0.23977114
212	0xbd842d39	-0.06453938
213	0xbedd8bec	-0.43270814
214	0x3e8331e1	0.25623992
215	0xbd9e41f3	-0.077274226
216	0xbebd24ed	-0.36942235
217	0x3eb67e06	0.35643023
218	0xbee97e8d	-0.45604363
219	0x3d306d22	0.043072827
220	0x3ea18973	0.31550178
221	0xbe1023b7	-0.14076124
222	0x3e1a45f9	0.15065755
223	0x3e969e9a	0.29417878
224	0x3dd18fde	0.102325186
225	0xbf0106a5	-0.50400764
226	0xbe8682ff	-0.26271817
227	0x3d511321	0.051043633
228	0xbc2096d8	-0.009801589
229	0xbd45aa6f	-0.04825824
230	0xbe3b6c18	-0.18302953
231	0xbed5653c	-0.41678798
232	0xbd6491f4	-0.055803254
233	0x3dc08162	0.09399678
234	0x3d8b3ea9	0.06799061
235	0xbadf36ad	-0.0017029844
236	0x3ee91bfe	0.4552917
237	0xbcba3646	-0.022730958
238	0xbbf60847	-0.007508311
239	0x3f10c654	0.56552625
240	0xbe2af3ba	-0.16694537
241	0x3dcee8df	0.101030104
242	0xbdeacb72	-0.11464585
243	0x3e29ec9f	0.1659417
244	0x3e97a880	0.29620743
245	0xbe16d6e1	-0.14730407
246	0x3d22f093	0.03978021
247	0xbdf9f3f2	-0.12204732
248	0xbf139bea	-0.5765978
249	0xbee08157	-0.43848678
250	0x3e38f500	0.1806221
251	0xbe0c2a63	-0.13688044
252	0xbca79072	-0.02045462
253	0x3e5a08b3	0.21292381
254	0xbf027b61	-0.5096951
255	0x3e68c5da	0.22731724

encoder.encoder_c.conv2.bias f4 [32]
0	0xbc8984c7	-0.016786946
1	0xbd95b497	-0.073098354
2	0xbd8be956	-0.06831615
3	0xbc644886	-0.013933307
4	0x3c758459	0.014985167
5	0x3d8df234	0.06930962
6	0x3d1826f2	0.037146516
7	0xbcbbbb01	-0.022916319
8	0x3d0670be	0.032822363
9	0xbcebca7c	-0.028783076
10	0xbcd22196	-0.02565078
11	0xbd0fb6eb	-0.035086554
12	0xbd031c8b	-0.032009643
13	0xbc994506	-0.01870967
14	0xbc1f0cad	-0.009707612
15	0x3d43e8db	0.04782949
16	0x3ca05a60	0.019574344
17	0xbd27a481	-0.040928368
18	0xbc5ed9cc	-0.0136017315
19	0xbd5a4882	-0.053291805
20	0xbd24e0bf	-0.040253397
21	0x3c075a3b	0.008261259
22	0x3cba85b2	0.022768829
23	0x3d710375	0.058841188
24	0x3beb6322	0.0071834484
25	0xbd231f7b	-0.039824944
26	0x3d451730	0.048117816
27	0xbda68e08	-0.08132559
28	0xbcd03268	-0.02541466
29	0xbc08bb4b	-0.008345435
30	0x3baa2878	0.0051928125
31	0xbd8200f6	-0.063478395

encoder.encoder_c.conv2.lin.weight f4 [32, 32]
0	0x3d9bead1	0.07613147
1	0xbe727254	-0.23676425
2	0x3e39988c	0.18124598
3	0x3d9f44c1	0.07776786
4	0xbed9ab78	-0.42513633
5	0xbe13c22f	-0.14429544
6	0x3db48922	0.088152185
7	0x3e5e9187	0.21735202
8	0x3e57f6f0	0.21090293
9	0x3e76b0ef	0.24090932
10	0x3bda6574	0.006664926
11	0xbe927034	-0.2860123
12	0xbea683fa	-0.32522565
13	0xbe1df923	-0.1542707
14	0x3d8bc141	0.0682397
15	0xbef58bb1	-0.4795814
16	0xbeb930c0	-0.36170006
17	0x3dd2160f	0.102581136
18	0x3e76e4dd	0.24110742
19	0x3ea85f89	0.32885388
20	0x3dbd8c31	0.09255255
21	0x3eb1dc1f	0.34738252
22	0x3ec57a3a	0.38569814
23	0x3cc5eb2e	0.024159994
24	0xbe6b9d4b	-0.23009221
25	0x3eef5581	0.46744922
26	0xbe1e2f20	-0.15447664
27	0x3e805ff4	0.25073206
28	0xbea678ec	-0.3251413
29	0x3db3d3fb	0.087806664
30	0xbd2ced87	-0.04221871
31	0xbe8af47b	-0.2713965
32	0x3e118ba7	0.1421343
33	0x3df64d62	0.12026478
34	0x3cd58fd0	0.026069552
35	0x3e10b397	0.14131008
36	0xbd019e09	-0.031644855
37	0x3e4cacfd	0.19987865
38	0xbd5b0284	-0.053469196
39	0xbdb373cc	-0.08762321
40	0xbe003980	-0.12521935
41	0x3ed8cff4	0.42346156
42	0x3e9c652c	0.30545938
43	0x3e08afff	0.13348387
44	0xbe1446f6	-0.14480194
45	0xbd7a07ea	-0.061042704
46	0xbe747232	-0.23871687
47	0xbe3514e4	-0.1768375
48	0xbeb87cbb	-0.36032662
49	0xbe0dbf3c	-0.13842481
50	0x3e006f3e	0.12542436
51	0xbe1898f1	-0.14902093
52	0xbe3e3fe2	-0.18579057
53	0xbe4278fd	-0.18991466
54	0xbe79d787	-0.24398623
55	0x3e930442	0.28714186
56	0x3e0eea19	0.13956489
57	0x3ea06db7	0.31333706
58	0xbe8a0b70	-0.2696185
59	0x3e8f0721	0.27935126
60	0x3ef74b8f	0.48299834
61	0xbea443cd	-0.32082978
62	0xbe6a100c	-0.22857684
63	0x3e3d07be	0.18459985
64	0x3dca7461	0.09885479
65	0xbed834c4	-0.42227757
66	0x3ea40ebe	0.32042497
67	0xbe855108	-0.26038384
68	0x3f09b231	0.53787524
69	0x3db0c8eb	0.08632072
70	0x3ebf3936	0.37348336
71	0x3ea06d9d	0.31333628
72	0x3ea02133	0.3127533
73	0x3d7a5f6d	0.06112616
74	0x3e88d099	0.26721647
75	0xbdf68aa7	-0.120381646
76	0xbe3045e0	-0.17214155
77	0xbe84746f	-0.25870082
78	0x3ec0e701	0.37676242
79	0x3e80f7ca	0.25189048
80	0x3de01f4e	0.10943471
81	0xbc46262c	-0.012094062
82	0x3efc17b1	0.49236825
83	0xbeef7bf8	-0.46774268
84	0xbc676555	-0.0141232805
85	0xbd372c81	-0.044720177
86	0x3e3beef7	0.18352877
87	0xbca015ff	-0.019541739
88	0x3e2d7415	0.16938813
89	0xbee16dac	-0.44028986
90	0x3c5f68d4	0.013635833
91	0xbc8e5d13	-0.017378366
92	0xbe97c532	-0.29642636
93	0xbf152333	-0.58256835
94	0xbeb2b13e	-0.3490085
95	0x3e9eabcf	0.30990455
96	0x3ef7be81	0.4838753
97	0xbeb1f696	-0.34758443
98	0x3e8fbd35	0.2807404
99	0xbeb0c975	-0.345287
100	0xbedb7e87	-0.4286997
101	0x3db8939c	0.09012529
102	0xbe55f7cd	-0.2089531
103	0xbe8a5723	-0.27019605
104	0x3e5b900a	0.21441665
105	0xbe946e5c	-0.28990448
106	0x3e9412b0	0.28920507
107	0x3e1ab720	0.15108919
108	0xbc0b0d45	-0.00848705
109	0x3d187ff3	0.037231397
110	0xbeb63b29	-0.3559201
111	0xbeca70b5	-0.39539114
112	0xbb3c0b09	-0.00286931
113	0x3e01ca88	0.12674916
114	0xbdcece31	-0.10097922
115	0xbb82f91d	-0.003996982
116	0xbdb86e6c	-0.09005436
117	0x3e245246	0.1604701
118	0x3edd69c8	0.43244767
119	0xbecd6ad0	-0.40120554
120	0x3d8622bd	0.065495946
121	0xbedc98f6	-0.4308545
122	0x3ec36ef5	0.3817059
123	0xbe5aecb5	-0.21379359
124	0x3e6aa047	0.22912703
125	0x3efc8921	0.4932337
126	0x3ec5d6d9	0.38640478
127	0x3e5f7086	0.21820268
128	0xbea3ef88	-0.32018685
129	0xbe621eb8	-0.22082031
130	0xbdec282e	-0.11531101
131	0x3e8330c6	0.2562315
132	0x3f06e1ae	0.5268811
133	0xbea5b1b0	-0.32362127
134	0x3ec89794	0.39178145
135	0x3f10fc93	0.566354
136	0x3e76b026	0.24090633
137	0xbdb30f63	-0.08743169
138	0x3c9a91b1	0.0188683
139	0x3ed7f702	0.4218064
140	0xbe552656	-0.20815405
141	0xbe891d5d	-0.26780215
142	0xbd343971	-0.044000093
143	0xbdac96cc	-0.084272
144	0x3e8df71d	0.27727595
145	0x3e6c01a8	0.23047507
146	0xbd333c53	-0.0437587
147	0x3d5a9150	0.053361237
148	0xbea470ec	-0.32117403
149	0xbe187566	-0.14888534
150	0x3da294fa	0.07938571
151	0xbed5f7fc	-0.4179076
152	0x3eac794c	0.33686292
153	0x3e423eee	0.18969318
154	0xbe60d87c	-0.21957582
155	0xbe96cc34	-0.2945267
156	0xbeca77cc	-0.39544523
157	0xbea5753c	-0.32316005
158	0xbe5aee33	-0.21379928
159	0x3eb46ac6	0.35237712
160	0x3f07047b	0.5274121
161	0xbe4ae873	-0.19815235
162	0xbecf50f2	-0.40491444
163	0x3dea9d20	0.114557505
164	0x3ecfd6f0	0.40593672
165	0xbe1f40bf	-0.15552042
166	0x3d7fa397	0.06241187
167	0xbf017e29	-0.5058313
168	0xbed8a3f5	-0.4231259
169	0xba1b861a	-0.00059327635
170	0x3e99799f	0.29975602
171	0x3ec937c6	0.39300364
172	0xbd79ee2e	-0.06101816
173	0x3ee71f14	0.45140898
174	0xbe3bd91f	-0.18344544
175	0x3eee1685	0.46501556
176	0x3d58365c	0.052786216
177	0x3dbaede7	0.091274075
178	0xbea8e921	-0.32990363
179	0xbd98967f	-0.0745058
180	0xbdd2b2e0	-0.10288024
181	0xbd16a9eb	-0.03678314
182	0x3c743fee	0.01490782
183	0xbd7e4f2f	-0.062087234
184	0x3df3a336	0.118963644
185	0xbea4178e	-0.3204922
186	0x3d856c5b	0.06514808
187	0xbeb339ce	-0.3500504
188	0xbe9353a4	-0.2877475
189	0xbeaef119	-0.34168318
190	0x3d7f8d1d	0.062390435
191	0x3d3b33b7	0.045703616
192	0xbe1eff69	-0.15527119
193	0xbe4a86dd	-0.19778009
194	0x3ea3186f	0.3185458
195	0xbb293183	-0.0025816865
196	0x3e6bd8f3	0.23031978
197	0xbd98bda2	-0.074580446
198	0xbeb8cbbb	-0.36092934
199	0x3e9d0fcb	0.30676112
200	0x3ed640c4	0.41846287
201	0x3e85a27b	0.26100525
202	0x3ea9c59d	0.3315858
203	0xbe4a114d	-0.19733162
204	0x3e6cdde8	0.23131526
205	0x3e24dcbc	0.16099828
206	0xbed6a731	-0.41924432
207	0xbe800583	-0.25004205
208	0xbef12f56	-0.47106427
209	0x3ed0b44e	0.40762562
210	0xbeee13ce	-0.46499485
211	0xbe977642	-0.2958241
212	0x3ead095a	0.33796197
213	0x3ef66ccc	0.4812988
214	0x3e9b6660	0.30351543
215	0xbe7f2a05	-0.24918373
216	0x3e98674e	0.29766315
217	0x3f048bef	0.5177602
218	0xbf04e2ed	-0.5190876
219	0xbde7f126	-0.11325292
220	0xbe5b6076	-0.21423516
221	0xbecb8541	-0.39750102
222	0xbf1ed258	-0.6203971
223	0xbcd0e3ed	-0.025499308
224	0x3f2998b0	0.6624861
225	0xbd6384a8	-0.055546433
226	0x3b38d080	0.0028200448
227	0x3e839bba	0.25704747
228	0xbe6c2cd9	-0.23063983
229	0x3d8780b6	0.066163465
230	0x3c15c4f2	0.009141194
231	0x3ef0044d	0.4687828
232	0xbeac6d59	-0.33677176
233	0xbeacb5ef	-0.33732554
234	0xbed20e26	-0.4102642
235	0xbcaf6934	-0.02141247
236	0xbf3c72ac	-0.73612475
237	0x3e3c7453	0.18403749
238	0x3e49216f	0.1964166
239	0xbe87ee35	-0.26548925
240	0x3f1130e4	0.56715226
241	0x3cff9abe	0.031201717
242	0xbdfd7ac6	-0.12376933
243	0x3e174c43	0.14775185
244	0x3dacc31e	0.08435653
245	0xbed188f8	-0.4092481
246	0x3eb6e0d9	0.3571842
247	0x3e53048d	0.20607205
248	0xbedc89a3	-0.43073758
249	0x3e547785	0.20748718
250	0xbe2d1a97	-0.16904674
251	0xbeabbedc	-0.33544052
252	0x3eb8d404	0.36099255
253	0xbf490a78	-0.785316
254	0x3e1f881f	0.1557927
255	0x3e45dfd1	0.1932366
