output/seqfish/model_pth/SOTA_train_test_0.7.pth (torch, 221627 bytes, 10 tensors)

encoder.encoder_g.conv1.bias f4 [32]
0	0x3d87b765	0.066267766
1	0xbc2ba94a	-0.010477373
2	0xbd4de62e	-0.050268345
3	0x3c63b00e	0.013896955
4	0x3d67cbae	0.05659073
5	0x3d656b94	0.056010798
6	0x3cf95d6b	0.030440053
7	0x3c9c2882	0.019062284
8	0xbab23044	-0.0013594707
9	0xbd031eeb	-0.032011908
10	0x3cec6d89	0.028860824
11	0x3c0383c6	0.008027023
12	0x3c1c1df5	0.009528627
13	0x3ce8f084	0.028435
14	0x3d7f3dcf	0.062314805
15	0x3dafc89a	0.085831836
16	0x3d60288c	0.05472617
17	0xbc8d6875	-0.017261723
18	0x3c2508f3	0.010072934
19	0xbda1f607	-0.07908254
20	0xbaee38e3	-0.0018174913
21	0xbd0e142c	-0.034687206
22	0xbd3a597c	-0.045495495
23	0xbcb90078	-0.022583231
24	0x3dbacf19	0.09121532
25	0x3d5a6a67	0.05332413
26	0x3c8871b3	0.016655779
27	0xbb850ada	-0.0040601315
28	0x3d1071ab	0.035264652
29	0xbcca0a60	-0.02466315
30	0xbca79ca1	-0.020460429
31	0x3c768dab	0.015048425

encoder.encoder_g.conv1.lin.weight f4 [32, 64]
0	0x3e290131	0.1650436
1	0x3d589898	0.0528799
2	0x3e039c80	0.12852669
3	0xbe90dfec	-0.2829584
4	0x3e2df09b	0.16986315
5	0x3caab1c3	0.020836717
6	0x3dd87852	0.10569824
7	0xbd808a06	-0.06276326
8	0xbb37243c	-0.0027945181
9	0xbdc57573	-0.09641542
10	0xbe12b1bf	-0.14325617
11	0xbe36f9c2	-0.17868713
12	0xbec735c7	-0.38908216
13	0x3eb3cac3	0.35115632
14	0x3e5948aa	0.21219125
15	0xbd4b1a21	-0.049585465
16	0x3e82a856	0.25519055
17	0x3e8e8ee0	0.2784338
18	0x3dce4c7e	0.100731835
19	0x3dcf0867	0.101090245
20	0xbddb697e	-0.107134804
21	0x3e152799	0.14565887
22	0xbe6b0a7d	-0.2295322
23	0xbddbe76e	-0.10737501
24	0xbe1eb364	-0.1549812
25	0xbe730528	-0.23732436
26	0xbe1874aa	-0.14888254
27	0x3e22b207	0.15888225
28	0xbe2098d3	-0.15683298
29	0x3d93c4ef	0.072152965
30	0xbdd71500	-0.10502052
31	0x3e5b9ce7	0.21446572
32	0x3acff16a	0.0015864794
33	0x3e4fba78	0.20285976
34	0xbdd7e2ef	-0.10541331
35	0x3e8577f8	0.2606809
36	0x3d40820d	0.046999026
37	0xbcf3ff3c	-0.029784791
38	0x3e87e097	0.26538536
39	0x3d8681b2	0.06567706
40	0xbe51a72f	-0.20473932
41	0xbc5bb04e	-0.0134087335
42	0xbe48182c	-0.19540471
43	0xbdaa67e7	-0.08320599
44	0x3e636c55	0.22209294
45	0x3e97dcc1	0.2966061
46	0x3e3892d0	0.18024755
47	0x3e3b90e6	0.18316993
48	0x3d7aa3ea	0.061191477
49	0xbcd9e275	-0.026597241
50	0x3e42f207	0.19037639
51	0x3e0225e2	0.12709764
52	0xbdcb04cb	-0.099130236
53	0x3d6c1ee3	0.057646643
54	0x3eb095de	0.3448934
55	0x3c59242e	0.013253255
56	0xbe8fc4a6	-0.28079718
57	0x3dc5f763	0.09666326
58	0x3ebaff03	0.36522684
59	0x3e2574dd	0.16157861
60	0xbc7eb910	-0.015547052
61	0x3d97b73c	0.07407996
62	0xbe1a198f	-0.15048812
63	0x3e8541eb	0.26026854
64	0xbe0199ea	-0.1265637
65	0xbdcaa03e	-0.09893845
66	0x3dc783bf	0.097419254
67	0x3cd43d2e	0.025908079
68	0x3df3067f	0.118664734
69	0xbde2ab00	-0.11067772
70	0x3d205d0d	0.03915124
71	0xbd5797e3	-0.052635085
72	0xbdb38ccd	-0.0876709
73	0xbd007fd7	-0.031371918
74	0x3de604e1	0.11231399
75	0x3dbea1da	0.093082145
76	0xbe7e11d7	-0.24811493
77	0x3e0d8265	0.13819273
78	0xbe6dd810	-0.23226953
79	0xbe04756e	-0.12935421
80	0xbda92b94	-0.08260265
81	0x3ea1d929	0.31610993
82	0x3eaa0f2e	0.33214706
83	0x3d5df79d	0.05419122
84	0xbd47b0df	-0.04875266
85	0x3f18abc4	0.59637094
86	0xbdc17c35	-0.09447519
87	0x3e5d1950	0.21591687
88	0x3e6529ad	0.2237918
89	0x3e80ddbf	0.2516918
90	0xbcd9daec	-0.026593648
91	0xbe3f3acb	-0.18674771
92	0x3dfe4ae9	0.12416632
93	0xbe71624b	-0.23572652
94	0x3df05179	0.1173429
95	0x3d48f590	0.04906231
96	0xbe36860e	-0.17824575
97	0xbd23cf86	-0.03999283
98	0xbe0e067a	-0.13869658
99	0xbea2cbf5	-0.31796232
100	0xbdb3c291	-0.08777345
101	0xbce44e7d	-0.027869457
102	0xbe856490	-0.26053286
103	0xbebe1324	-0.37123978
104	0xbd63a35b	-0.05557571
105	0xbe6c9102	-0.23102191
106	0x3bf26bae	0.0073980903
107	0x3d17f988	0.037103206
108	0x3e42a8bf	0.19009684
109	0x3e0a6c22	0.13517812
110	0x3e13ca49	0.14432634
111	0x3edeb9c8	0.43501115
112	0x3dcad3af	0.09903657
113	0xbe9d5941	-0.30732158
114	0xbc9344f3	-0.017977213
115	0xbea74dda	-0.32676584
116	0xbe83d29f	-0.2574663
117	0xbdb2db08	-0.08733183
118	0x3dcf571f	0.10124039
119	0xbe17e209	-0.1483232
120	0xbe6121c5	-0.21985538
121	0x3eaf0991	0.34186986
122	0x3d68d72e	0.056845836
123	0x3edce3ee	0.43142647
124	0xbeb4eff3	-0.35339317
125	0x3da976d5	0.082746185
126	0xbed017bf	-0.40643117
127	0xbde01960	-0.1094234
128	0x3e25ae47	0.16179763
129	0x3dbfc00e	0.093628034
130	0x3dbf6a1b	0.0934641
131	0xbdb1bb07	-0.08678251
132	0x3daf4911	0.08558858
133	0xbd5d21f0	-0.053987443
134	0x3e82886c	0.25494707
135	0xbd97f4fc	-0.07419774
136	0x3e2a82d4	0.1665147
137	0xbe54cc32	-0.2078102
138	0x3e3754aa	0.1790339
139	0x3e0ab933	0.1354721
140	0xbe6a6a8c	-0.22892207
141	0x3e10af45	0.1412936
142	0xbe8712a3	-0.26381406
143	0x3e06b4e6	0.13154945
144	0xbe37cd57	-0.17949425
145	0x3e1b54fe	0.1516914
146	0x3e8aaa76	0.27083176
147	0xbea4926f	-0.3214297
148	0x3dd88ea0	0.105740786
149	0xbd06dd1e	-0.032925718
150	0x3d435832	0.04769153
151	0xbde41249	-0.111363
152	0x3ac7814c	0.0015221029
153	0xbc8df25c	-0.01732748
154	0x3e262bc3	0.16227631
155	0x3eaf3455	0.34219614
156	0x3e17f665	0.14840086
157	0xbe87221f	-0.2639322
158	0xbe451ea5	-0.19249971
159	0x3d8a2b6b	0.067465626
160	0x3e401505	0.18758018
161	0xbe8abe8c	-0.270985
162	0x3e9ded2e	0.30845016
163	0xbdde4fc4	-0.10855058
164	0x3e1c1b0f	0.15244697
165	0xbe0d708f	-0.13812469
166	0x3d0134ee	0.03154462
167	0xbd14df9d	-0.036346067
168	0x3e650a6c	0.22367257
169	0x3dd60440	0.104500294
170	0xbe534811	-0.2063296
171	0xbdd4329b	-0.10361215
172	0x3e4f4296	0.20240244
173	0xbc494369	-0.012284138
174	0x3cd39efa	0.025832642
175	0x3e976780	0.29571152
176	0x3df2cf26	0.11855917
177	0xbdbb9140	-0.091585636
178	0xbdc33767	-0.095320515
179	0xbd788a75	-0.060678918
180	0xbc83b2a8	-0.0160764
181	0xbda65175	-0.081210054
182	0xbea8c89c	-0.32965553
183	0x3d92735a	0.07150908
184	0xbe0fe663	-0.1405273
185	0x3e66de48	0.22545731
186	0x3ea16ea2	0.3152972
187	0xbde2a9dc	-0.11067554
188	0x3b75e364	0.0037519569
189	0x3e331b19	0.17490806
190	0xbd8c30cd	-0.068452455
191	0xbe101f52	-0.14074448
192	0x3bf5b335	0.00749817
193	0xbf0f8670	-0.5606451
194	0x3e003dc0	0.12523556
195	0x3e6d3c93	0.23167638
196	0x3e894f01	0.26818088
197	0xbe9d95b5	-0.3077828
198	0xbe2b9f26	-0.16759929
199	0xbd4d2289	-0.050081763
200	0xbe3c4576	-0.18385872
201	0x3daa3169	0.083102055
202	0xbe2aa289	-0.16663565
203	0x3dd4e451	0.103951104
204	0xbe316c09	-0.17326368
205	0x3e1bb888	0.15207112
206	0x3dcf2096	0.10113637
207	0xbd8fa074	-0.07013026
208	0xbe43d908	-0.1912576
209	0xbefdb0b8	-0.49548888
210	0xbe03fcdb	-0.12889425
211	0xbd063c15	-0.032772142
212	0xbe0dd377	-0.13850199
213	0x3eafe7f7	0.34356663
214	0x3eb7621b	0.35817036
215	0x3da3e851	0.08003295
216	0x3d104a22	0.03522695
217	0xbea84488	-0.32864785
218	0xbe9956f4	-0.29949152
219	0xbe3e532a	-0.18586412
220	0x3dc72a9c	0.09724924
221	0xbdf4fa9b	-0.11961862
222	0x3d87ce1a	0.06631108
223	0xbe1e9a47	-0.1548854
224	0xbe30d96e	-0.17270443
225	0x3d706a52	0.058695145
226	0xbe93141e	-0.28726286
227	0x3df487e3	0.11939981
228	0x3e2b4b57	0.16727959
229	0xbe01076e	-0.1260049
230	0xbd3cb26f	-0.046068605
231	0x3e7fa3c7	0.2496482
232	0x3e6abda8	0.2292391
233	0x3e6bcb4c	0.2302677
234	0xbeb45248	-0.35219026
235	0x3eaca300	0.3371811
236	0x3e18a852	0.14907959
237	0xbe08b506	-0.13350305
238	0xbe891293	-0.26771984
239	0x3eaf4612	0.34233147
240	0x3db99700	0.09062004
241	0xbdd5045c	-0.10401222
242	0xbe20a4c7	-0.15687858
243	0xbd04a2b2	-0.03238172
244	0xbc9eabf3	-0.019369101
245	0x3eaaec4c	0.33383405
246	0x3d6a5fc2	0.057220228
247	0xbdce61fb	-0.10077282
248	0x3e1d4508	0.15358365
249	0x3ec05127	0.37561914
250	0xbdbff6f5	-0.09373275
251	0xbe6c5b32	-0.23081663
252	0xbdd21ea5	-0.10259751
253	0xbe6e9db2	-0.23302343
254	0x3d9d5590	0.076823354
255	0x3e13772c	0.14400929

encoder.encoder_g.conv2.bias f4 [32]
0	0x3dd5c996	0.1043884
1	0x3ead4dfd	0.33848563
2	0x3c6807f0	0.014162049
3	0x3e2fcf5e	0.17168948
4	0xbe42e95e	-0.19034335
5	0x3ebbd1fb	0.3668364
6	0x3e3698dc	0.17831749
7	0x3dfaa23b	0.12237974
8	0x3d66d762	0.05635775
9	0xbd0151f4	-0.031572297
10	0x3d05e37b	0.032687645
11	0xbcca71d7	-0.024712486
12	0x3eb8e67a	0.3611334
13	0x3e50bc5c	0.20384353
14	0x3e84c1c0	0.2592907
15	0x3e0e32c5	0.13886555
16	0xbda66a8a	-0.081257895
17	0x3e82dbcf	0.25558326
18	0x3e0f0359	0.13966121
19	0xbe9b746a	-0.30362254
20	0xbd0ad912	-0.03389842
21	0x3eaa8a85	0.33308807
22	0xbe03bb49	-0.12864412
23	0xbe46c1e4	-0.19409901
24	0xbe118fb5	-0.14214976
25	0x3e367d9d	0.17821355
26	0xbb0b60fc	-0.0021267524
27	0x3e3920a4	0.18078858
28	0x3d3ce47e	0.046116345
29	0xbe0a396e	-0.1349847
30	0x3dcf397a	0.10118385
31	0x3df5cab5	0.12001554

encoder.encoder_g.conv2.lin.weight f4 [32, 32]
0	0xbe010bef	-0.12602209
1	0xbc3b8348	-0.011444874
2	0xbbc93f4b	-0.0061415783
3	0xbe033ab0	-0.12815356
4	0xbe213e23	-0.1574636
5	0x3e3e9974	0.18613225
6	0x3d842881	0.06453038
7	0x3eb8f541	0.36124614
8	0xbd8a25fb	-0.067455254
9	0xbd316091	-0.043304984
10	0xbe5499c7	-0.20761786
11	0xbe683ccd	-0.22679444
12	0xbe5ad7b1	-0.21371342
13	0xbdb5608e	-0.08856307
14	0x3e9992bc	0.29994762
15	0x3b04f7e0	0.0020289347
16	0x3e8f0148	0.27930665
17	0xbe27ac9c	-0.16374439
18	0xbe7c3a77	-0.24631678
19	0x3e39deab	0.18151347
20	0x3bfb38d1	0.007666685
21	0x3e50e38e	0.20399305
22	0x3e2ee105	0.17078026
23	0xbe793302	-0.24335864
24	0xbe96d654	-0.29460394
25	0x3e2e5d1f	0.1702771
26	0xbe49d3c8	-0.19709694
27	0xbe79d5f7	-0.24398027
28	0xbe484393	-0.19557028
29	0x3e506651	0.2035153
30	0x3ea89128	0.32923245
31	0xbeb5ff3e	-0.35546297
32	0xbca994e9	-0.020700889
33	0xbd50738a	-0.050891437
34	0xbc8c2460	-0.017107189
35	0x3e873a21	0.26411536
36	0x3ed2ba41	0.41157725
37	0xbec2c611	-0.38041738
38	0x3e0fe097	0.14050518
39	0x3e88e309	0.26735714
40	0x3e4a1bd3	0.19737177
41	0x3ebc3da9	0.36765793
42	0x3c99ce30	0.018775076
43	0x3e1c5281	0.15265848
44	0xbe76a667	-0.24086915
45	0xbe0b07ae	-0.13577148
46	0xbe1ba88a	-0.15201011
47	0x3e7e87ef	0.24856542
48	0xbedba6c6	-0.42900676
49	0x3eae69e4	0.34065163
50	0xbc703591	-0.014661209
51	0xbe3374ca	-0.1752502
52	0xbded6a78	-0.11592573
53	0xbc8de445	-0.017320761
54	0x3e5ed470	0.21760726
55	0x3db8663d	0.090038754
56	0x3e471d2e	0.19444725
57	0x3ec99ef7	0.39379093
58	0x3e654a0f	0.22391532
59	0xbdcf71de	-0.1012914
60	0xbe86b15a	-0.26307184
61	0x3d042132	0.03225822
62	0x3a02e133	0.0004992664
63	0xbe7845a4	-0.24245316
64	0xbdfabebe	-0.122434124
65	0x3ccc9cca	0.024977107
66	0xbe9953dc	-0.29946792
67	0xbd8da336	-0.06915896
68	0x3eb0c737	0.3452699
69	0xbd14ff04	-0.036376014
70	0xbdf5532d	-0.11978755
71	0xbccee423	-0.025255268
72	0xbe5ac4a7	-0.2136408
73	0xbd3aaad9	-0.04557309
74	0x3e824ed7	0.25450775
75	0x3e865151	0.26233914
76	0x3d9d677c	0.07685754
77	0x3ebc3c1d	0.36764613
78	0xbd5edc3c	-0.05440925
79	0xbd01abe3	-0.031658065
80	0xbd891ea3	-0.066952966
81	0xbecf6122	-0.40503794
82	0xbda56704	-0.08076289
83	0xbe0184dc	-0.12648338
84	0xbd8379e5	-0.06419734
85	0x3dc4ff25	0.096189775
86	0xbe0a1b12	-0.13486889
87	0xbe3b7706	-0.18307123
88	0xbd9ac274	-0.0755662
89	0x3e77b14f	0.24188732
90	0x3e333507	0.17500697
91	0x3db75270	0.089512706
92	0xbe0a3c1c	-0.13499492
93	0xbe4ff0ff	-0.20306776
94	0x3e0729ec	0.13199586
95	0x3dc3f067	0.095673375
96	0xbe84d5d0	-0.25944376
97	0x39b4e682	0.00034504017
98	0xbea84f7c	-0.32873142
99	0xbe2241b2	-0.15845373
100	0xbdaf3b45	-0.08556227
101	0xbdd42c24	-0.10359982
102	0x3ebc0450	0.3672204
103	0x3ea748c8	0.32672715
104	0xbdb4e4fc	-0.08832738
105	0xbdc1c316	-0.09461038
106	0x3e2e1d49	0.17003359
107	0xbe450ec8	-0.1924392
108	0xbe80983b	-0.25116143
109	0xbf0d2141	-0.55128866
110	0x3e5e1217	0.21686588
111	0xbe1a1712	-0.15047863
112	0x3dcdf0a6	0.10055666
113	0x3e45947c	0.19294924
114	0xbe54359a	-0.20723572
115	0x3e423e05	0.18968971
116	0x3da05380	0.07828426
117	0xbc80abb9	-0.015706884
118	0xbe4629b0	-0.1935184
119	0x3e8927fa	0.26788312
120	0x3d95159e	0.07279514
121	0x3e8a31f8	0.26991248
122	0x3e104d31	0.14091946
123	0x3e9508f9	0.29108408
124	0xbe444b73	-0.19169407
125	0xbe665cd8	-0.22496355
126	0x3e57a93c	0.21060652
127	0xbdc57fea	-0.09643538
128	0xbe1afe00	-0.15135956
129	0xbd5e1a79	-0.054224465
130	0x3daac04c	0.08337459
131	0xbea77057	-0.32702896
132	0x3d65d6b8	0.056112975
133	0x3e1901c6	0.14942083
134	0xbe31fb3d	-0.17380996
135	0x3e8be3fe	0.27322382
136	0xbe2316e8	-0.15926707
137	0x3d2fa765	0.04288425
138	0xbdfa7b3a	-0.12230535
139	0xbe0822f3	-0.13294582
140	0xbe9a4eab	-0.30138144
141	0x3d601766	0.054709814
142	0xbe0a0d34	-0.13481599
143	0x3dd9fad1	0.106435426
144	0x3dbd6f5b	0.09249755
145	0x3cd709d4	0.026249804
146	0x3ca00af5	0.019536475
147	0x3dfd12c0	0.12357092
148	0xbd4a6d0c	-0.0494204
149	0x3e1cef56	0.15325674
150	0x3dc55e5d	0.09637139
151	0x3e1a5448	0.15071213
152	0xbc195044	-0.009357516
153	0xbe2b77e2	-0.1674495
154	0xbe888fc2	-0.26672179
155	0x3e288d8e	0.16460249
156	0x3dff7048	0.12472588
157	0x3efa6d1c	0.4891137
158	0xbe9e0508	-0.30863214
159	0xbe4ff622	-0.20308736
160	0x3d9ad37b	0.07559868
161	0xbda7a94f	-0.0818659
162	0xbe69ff6c	-0.22851342
163	0xbd4a6ed0	-0.049422085
164	0xbe3742bb	-0.1789655
165	0xbe33f542	-0.17574027
166	0x3e7e464d	0.24831505
167	0x3dedf3f4	0.11618796
168	0x3e98bddd	0.29832354
169	0x3e261ec4	0.16222674
170	0xbd1a601d	-0.037689317
171	0x3e4708bb	0.19436924
172	0x3e1124a8	0.1417414
173	0xbd995a6e	-0.07487951
174	0xbd785c9a	-0.060635187
175	0x3caf9379	0.021432625
176	0x3ead17e1	0.3380728
177	0x3e138bc7	0.1440879
178	0xbe47997a	-0.1949214
179	0xbe8ade85	-0.27122894
180	0x3d7e00cf	0.06201249
181	0xbd596d80	-0.053082943
182	0xbea8bb0f	-0.32955214
183	0x3e692263	0.22767024
184	0xbdfdb4c1	-0.12387992
185	0xbe53a5a4	-0.20668656
186	0xbe227184	-0.15863615
187	0x3de194a3	0.11014678
188	0xbea40e3b	-0.32042107
189	0xbe53dab9	-0.20688905
190	0x3d902c84	0.07039741
191	0xbbbd4e84	-0.005777182
192	0x3e7b27e5	0.24526937
193	0x3e0d8aff	0.13822554
194	0xbe883bd1	-0.26608136
195	0xbdf186fb	-0.117933236
196	0x3ea850fe	0.32874292
197	0x3eb76515	0.35819307
198	0x3e6f1082	0.23346141
199	0xbe127d88	-0.14305699
200	0x3eb2ccb1	0.34921792
201	0x3e6bb90b	0.23019807
202	0xbdd6def8	-0.10491747
203	0x3d9317ed	0.07182298
204	0x3d8b2ad8	0.06795281
205	0xbe72023c	-0.23633665
206	0xbe70febd	-0.23534675
207	0x3eaa2772	0.3323322
208	0xbe7133cb	-0.23554914
209	0xbe28e4b1	-0.16493489
210	0x3d881185	0.066439666
211	0xbd919bb9	-0.0710978
212	0xbdd19be4	-0.10234812
213	0x3e9306a4	0.28716004
214	0xbd741385	-0.059588928
215	0xbe877df1	-0.26463273
216	0xbd926c90	-0.07149613
217	0xbddf9580	-0.10917187
218	0xbe809a2c	-0.25117624
219	0x3f04f3d3	0.51934546
220	0xbe6dc060	-0.23217916
221	0xbd8d46d9	-0.06898279
222	0x3e0aa444	0.13539225
223	0x3e10061d	0.14064832
224	0x3e286052	0.16442993
225	0x3e817504	0.25284588
226	0xbe483e2a	-0.19554964
227	0x3e1747d4	0.14773494
228	0xbec7f241	-0.39052013
229	0x3eaf30a1	0.34216788
230	0xbe834668	-0.25639653
231	0xbe9f815e	-0.31153387
232	0x3eb352eb	0.350242
233	0xbe42670b	-0.1898462
234	0x3dc52985	0.0962706
235	0xbe625513	-0.22102766
236	0x3e866b99	0.26253965
237	0x3e386c85	0.18010147
238	0xbcdadaca	-0.026715655
239	0x3e911470	0.28335905
240	0x3e8d4bdb	0.27596936
241	0xbdab14a3	-0.083535455
242	0xbe06b3c1	-0.13154508
243	0xbe01b416	-0.12666354
244	0x3e162f9c	0.14666599
245	0xbe7e2e51	-0.24822356
246	0x3d6e9f4b	0.058257382
247	0x3d1bb7f2	0.03801722
248	0xbdb936a4	-0.09043625
249	0x3ea6c07b	0.32568726
250	0xbe365abc	-0.1780805
251	0x3eb288e0	0.34870052
252	0xbe86b4a2	-0.26309687
253	0xbd885fb2	-0.066588774
254	0xbe503545	-0.2033282
255	0x3e835a65	0.25654903

encoder.encoder_g.linear.weight f4 [32, 1440]
0	0xbd12026d	-0.035646845
1	0x3db0d481	0.08634282
2	0xbd9ede53	-0.07757249
3	0xbd356975	-0.044290025
4	0x3dcce92f	0.10005414
5	0xbd808bc9	-0.06276662
6	0xbe27d3b8	-0.16389358
7	0x3d32a56d	0.043614794
8	0x3cdf7db4	0.02728162
9	0x3bfea3c6	0.007770988
10	0xbdad63cb	-0.084662996
11	0x3dbda973	0.092608355
12	0x3d7ebdab	0.0621926
13	0xbe1935c1	-0.14961912
14	0xbc32d6a9	-0.010915437
15	0xbd7f71c8	-0.06236437
16	0x3e56bbb6	0.20970044
17	0xbd97f36b	-0.07419475
18	0x3e06940e	0.13142416
19	0x3c59c932	0.013292598
20	0x3e25dbc5	0.16197117
21	0x3c9f0ede	0.019416269
22	0xbbc3feaf	-0.0059812884
23	0x3d5daf36	0.054122172
24	0x3e2fabcc	0.17155379
25	0x3b913e7a	0.0044324966
26	0xbd1ab62f	-0.0377714
27	0x3e0f26f0	0.13979697
28	0x3d940850	0.07228148
29	0xbda20256	-0.07910602
30	0xbd0d1ddc	-0.034452304
31	0xbdfff13b	-0.12497183
32	0x3d437a59	0.0477241
33	0xbd89cf83	-0.06729033
34	0xbdc88fcf	-0.09793054
35	0xbe25ec2c	-0.16203374
36	0x3c19657c	0.009362575
37	0xbcdeb3a4	-0.027185269
38	0x3e8a584d	0.27020493
39	0x3e1bcfc7	0.1521598
40	0x3bd670f2	0.006544226
41	0xbe1f6486	-0.1556569
42	0x3d304a4a	0.043039598
43	0xbe19c4fa	-0.15016547
44	0x3e17681c	0.14785808
45	0xbde74426	-0.11292295
46	0xbd9daca2	-0.07698943
47	0xbd32b8f3	-0.043633413
48	0x3e3eb08c	0.18622035
49	0x3e163647	0.14669143
50	0xbd7a9f1a	-0.061186887
51	0xbe3cc7af	-0.18435548
52	0x3dcf2b65	0.10115699
53	0x3c0c7d5e	0.008574812
54	0x3e48f019	0.1962284
55	0x3d591450	0.052997887
56	0xbdfd9efa	-0.12383838
57	0xbd635244	-0.055498376
58	0xbd41a2cf	-0.047274407
59	0xbd6b85f7	-0.057500806
60	0x3dbb8a9c	0.09157297
61	0xbddd36f1	-0.10801495
62	0x3dc32162	0.09527852
63	0xbd9c994b	-0.07646426
64	0x3e4c9c27	0.19981442
65	0x3dcb69fc	0.09932324
66	0xbc4940c1	-0.012283505
67	0x3d945d83	0.072443984
68	0x3de11efe	0.109922394
69	0xbccf4777	-0.025302632
70	0x3d52722b	0.05137841
71	0xbe4c31e8	-0.19940913
72	0x3cf6e881	0.030140163
73	0xbe52278c	-0.20522898
74	0x3da6d036	0.08145182
75	0x3e1cc51a	0.15309563
76	0xbcca677a	-0.024707545
77	0xbe22205f	-0.15832661
78	0x3c00b65b	0.007855977
79	0x3d808fd4	0.06277433
80	0x3e3a6377	0.18202005
81	0xbe93af81	-0.28844836
82	0x3e898f4c	0.2686714
83	0x3d4c97eb	0.049949568
84	0x3dcae2d0	0.09906542
85	0x3c106b0f	0.008814587
86	0xbbd13ffa	-0.0063858004
87	0xbd215db5	-0.039396007
88	0x3df60f28	0.120146096
89	0xbe070b0f	-0.13187812
90	0xbdd7c672	-0.10535897
91	0x3de045e4	0.109508306
92	0x3e531b1f	0.20615815
93	0x3d94a0fc	0.07257268
94	0x3e39b210	0.18134332
95	0x3d42a18f	0.047517356
96	0xbca153e6	-0.019693326
97	0x3e2ad4bb	0.16682713
98	0x3de908ec	0.11378655
99	0x3d429547	0.047505643
100	0xbce5a15a	-0.02803104
101	0xbd3a477d	-0.045478333
102	0x3ceb601d	0.028732354
103	0xbdc50df1	-0.096218
104	0x3b755168	0.0037432555
105	0x3dea6cb0	0.11446512
106	0x3e40c01b	0.18823282
107	0xbe2ae303	-0.1668816
108	0xbe3ca052	-0.18420532
109	0x3df4feab	0.119626366
110	0x3c38d010	0.011280075
111	0x3c9af774	0.018916823
112	0xbdc19d3d	-0.09453819
113	0x3ca972b9	0.020684587
114	0xbd43bc68	-0.0477871
115	0xbdbcd0e1	-0.09219528
116	0x3e7725fd	0.24135585
117	0x3dfc8cd8	0.12331551
118	0x3d3b079f	0.045661565
119	0x3c01d53f	0.007924377
120	0x3c9009be	0.01758277
121	0x3c99c803	0.01877213
122	0xbbc0a97c	-0.005879579
123	0xbd31a346	-0.0433686
124	0x3d4e38a5	0.05034699
125	0x3d44086b	0.04785959
126	0x3d446f78	0.047957867
127	0x3d3615c1	0.04445434
128	0x3ba5b6c3	0.0050571873
129	0xbd59b0ca	-0.053147115
130	0xbd5d08a8	-0.053963333
131	0xbd74cc6b	-0.05976526
132	0x3d344741	0.044013266
133	0xbdb49924	-0.08818272
134	0xbde13be4	-0.10997751
135	0x3dc83924	0.09776524
136	0x3d014dbb	0.03156827
137	0x3debcbb9	0.115134664
138	0xbda58cb8	-0.080834806
139	0x3c6a0687	0.014283783
140	0x3d8b0367	0.06787758
141	0x3dd040df	0.10168623
142	0xbcde0ac0	-0.027104735
143	0xbda3a568	-0.07990533
144	0x3cf81f8c	0.03028848
145	0xbda9803e	-0.082764134
146	0x3da513a2	0.08060385
147	0x3d65af71	0.056075517
148	0x3d7217c3	0.059104692
149	0xbbaf0239	-0.005340841
150	0x3cc8dc5b	0.024519136
151	0x3d3ff90a	0.04686836
152	0xbd8d6078	-0.069031656
153	0xbde9dbc1	-0.11418868
154	0xbd1ace82	-0.037794597
155	0xbde9958f	-0.11405479
156	0x3dac5245	0.08414129
157	0xbd2c6535	-0.042088706
158	0xbca2aa77	-0.019856675
159	0x3d6860b2	0.05673284
160	0xbb32bfea	-0.0027275034
161	0x3a1138bc	0.0005539765
162	0xbe0de691	-0.13857485
163	0xbd2a922e	-0.041643314
164	0x3ddf775d	0.109114386
165	0xbdd38872	-0.10328759
166	0xbd3ca7fe	-0.046058647
167	0x3dde5fb9	0.108581014
168	0x3cdf66c8	0.02727069
169	0x3e5cc7ef	0.21560644
170	0xbd9a1e51	-0.07525314
171	0xbd373c1b	-0.044735055
172	0x3d392d27	0.045209076
173	0xbdbaa3fd	-0.091133095
174	0xbd46018a	-0.04834131
175	0xbcb531ab	-0.02211841
176	0x3dcc1b5e	0.099661574
177	0xbd986dca	-0.074428156
178	0xbdddfae2	-0.10838868
179	0x3d798164	0.060914412
180	0x3ec28f6b	0.38000044
181	0xbc4b4af2	-0.012408005
182	0xbc38c29a	-0.011276865
183	0xbd551d0c	-0.052029654
184	0xbe1bd154	-0.15216571
185	0xbd7cb4bd	-0.061695803
186	0x3c3fa8a4	0.011697922
187	0xbd273b8e	-0.04082828
188	0x3dc7a2c9	0.09747846
189	0x3c0b2b11	0.008494155
190	0xbcb7e9cd	-0.022450352
191	0xbe13ad01	-0.14421465
192	0x3ddda4c2	0.10822441
193	0x3dc9514b	0.098299585
194	0x3d02a548	0.031895906
195	0xbd0449c7	-0.032296922
196	0xbd082650	-0.033239663
197	0x3ca12512	0.019670997
198	0x3e3e6ed6	0.18596968
199	0xbbc01481	-0.0058618193
200	0x39864c20	0.0002561519
201	0xbe0d2448	-0.13783371
202	0xbda401a7	-0.08008128
203	0x3e0d7667	0.13814698
204	0xbdf64d83	-0.12026503
205	0x3dfe7567	0.124247365
206	0x3ce16806	0.027515423
207	0xbd112bd9	-0.035442207
208	0x3e75f43e	0.24018952
209	0x3d64c6a1	0.05585349
210	0x3df4f194	0.1196014
211	0xbdfcbcee	-0.12340723
212	0xbe1a6e01	-0.15081026
213	0xbe09c3f2	-0.13453653
214	0x3d67cbe0	0.056590915
215	0x3d5ff04a	0.054672517
216	0x3d1e1ef0	0.038603723
217	0x3d44ff19	0.048094843
218	0xbdf5b4d9	-0.119973846
219	0xbdbc0973	-0.0918149
220	0x3b3f24f8	0.0029166322
221	0xbddbcd33	-0.10732498
222	0x3e046e6f	0.12932752
223	0x3e19081b	0.14944498
224	0x3c1dfa9c	0.009642269
225	0x3db77301	0.08957482
226	0xbe077722	-0.1322904
227	0xbb495613	-0.003072147
228	0x3da20c8d	0.0791255
229	0xbe558e9b	-0.20855181
230	0xbe174c60	-0.14775229
231	0x3c0b4220	0.008499652
232	0xbc0c9e40	-0.008582652
233	0xbec41f3e	-0.38305086
234	0xbbc99cc8	-0.006152723
235	0x3e751fe1	0.23937942
236	0x3ccd5243	0.02506364
237	0xbce7ef00	-0.028312206
238	0x3e0e685c	0.13906997
239	0xbe1e3416	-0.15449557
240	0xbca74007	-0.020416273
241	0xbc21fdcf	-0.009887173
242	0xbd2cf141	-0.042222265
243	0x3e54c03a	0.20776454
244	0x3d5a2bf6	0.05326458
245	0x3cd0f6db	0.025508335
246	0x3e25e3f3	0.16200237
247	0xbd937c67	-0.07201462
248	0x3ca58066	0.020202827
249	0xbd30efba	-0.04319737
250	0x3d0cd21b	0.03438006
251	0xbe360bc5	-0.17777927
252	0x3da08f02	0.078397766
253	0x3de47497	0.1115505
254	0x3dd33d57	0.10314434
255	0x3d511820	0.051048398

encoder.encoder_g.linear.bias f4 [32]
0	0xbd351385	-0.04420807
1	0xbd21233d	-0.039340246
2	0x3e399469	0.1812302
3	0xbcb8a35b	-0.022538831
4	0x3e0e1de9	0.13878597
5	0x3d55fb69	0.052241717
6	0xbe46478b	-0.19363229
7	0xbd835367	-0.06412392
8	0xbe60d9aa	-0.21958032
9	0xbd902091	-0.070374615
10	0xbe548a97	-0.20755993
11	0x3e5507fd	0.20803829
12	0xbe4d1111	-0.20026042
13	0x3d3465d1	0.044042412
14	0xbd903dd4	-0.07043043
15	0xbccce5c7	-0.02501191
16	0x3e898214	0.26857054
17	0x3de9b539	0.114115186
18	0x3da3d1c5	0.07998995
19	0x3e199d35	0.15001376
20	0x3e3917e6	0.18075523
21	0xbcabce55	-0.02097241
22	0xbb5f97dd	-0.0034117617
23	0x3e02c822	0.12771657
24	0xbd894257	-0.067021064
25	0xbdc05801	-0.093917854
26	0xbde79544	-0.11307767
27	0xbc0ada49	-0.008474895
28	0xbddf1fb2	-0.10894717
29	0xbd880f9a	-0.06643601
30	0xbe0bac80	-0.13640022
31	0x3e1e9b58	0.15488946

encoder.encoder_c.conv1.bias f4 [32]
0	0xbca3f696	-0.020015042
1	0x3bc53f46	0.0060195057
2	0xbcb19bdc	-0.021680765
3	0x3cb29ff3	0.021804785
4	0x3d890b2d	0.06691585
5	0x3d570a70	0.05250019
6	0xbd638598	-0.055547327
7	0xbc5366da	-0.01290294
8	0xbc2ba870	-0.01047717
9	0xbc9a92f6	-0.018868905
10	0x3da189d6	0.07887618
11	0xbc451ebe	-0.012031255
12	0xbdda10a5	-0.10647706
13	0xbcdef876	-0.027218085
14	0x3d40946a	0.04701654
15	0xbce19444	-0.027536519
16	0x3c675146	0.014118498
17	0x3c828fba	0.015937675
18	0xbbaf73d2	-0.005354383
19	0x3cd51a2d	0.026013458
20	0x3d537912	0.051629134
21	0xbd56c274	-0.05243154
22	0xbc0a6b4d	-0.008448434
23	0x3e0565a9	0.13027062
24	0x3cda2a32	0.026631448
25	0x3cd7ed20	0.026358187
26	0xbc88959c	-0.016672902
27	0x3c0a8577	0.008454672
28	0xbd507a33	-0.05089779
29	0xbd41a751	-0.047278706
30	0x3cb84e5f	0.022498308
31	0xbc2283e2	-0.009919139

encoder.encoder_c.conv1.lin.weight f4 [32, 125]
0	0xba873678	-0.0010315916
1	0xbe85b931	-0.26117852
2	0x3d65cbf1	0.056102697
3	0xbc288c01	-0.010287286
4	0x3eaa3374	0.3324238
5	0x3db97806	0.09056096
6	0xbde93831	-0.11387671
7	0xbdb080a5	-0.08618287
8	0xbe0c870c	-0.13723391
9	0xbe581aec	-0.2110402
10	0x3e04bb02	0.12961963
11	0x3dff25a8	0.12458354
12	0xbe8d0a5b	-0.27546963
13	0x3d784970	0.06061691
14	0xbe8829c1	-0.26594356
15	0x3da55366	0.080725476
16	0x3de4c849	0.11171014
17	0xbd49c6bc	-0.049261793
18	0x3dffcd1b	0.12490293
19	0x3dba96fa	0.09110828
20	0x3e5573fd	0.20845027
21	0x3e1e9477	0.15486322
22	0xbd707fc5	-0.0587156
23	0xbdcc1179	-0.0996427
24	0xbde6d3fb	-0.11270901
25	0x3e8df362	0.2772475
26	0x3e752573	0.23940067
27	0x3c14ae94	0.009074826
28	0x3c9252c3	0.01786173
29	0x3daff196	0.08591001
30	0x3c1b3f30	0.009475514
31	0x3d9690c4	0.073518306
32	0xbe9c590d	-0.3053669
33	0xbe396108	-0.1810342
34	0x3eb505d7	0.35356018
35	0x3ea2e239	0.3181322
36	0xbe1fa871	-0.15591599
37	0xbd924d25	-0.071436204
38	0xbe13f78d	-0.14449902
39	0x3e7bc0fc	0.24585336
40	0x3e3b9cc4	0.1832152
41	0xbe161453	-0.1465619
42	0xbd73f5c5	-0.059560556
43	0x3dc0d6b9	0.09415955
44	0x3e9ebc47	0.3100302
45	0x3d91b84f	0.07115232
46	0x3e738448	0.2378093
47	0x3db50a8e	0.08839904
48	0x3d92296d	0.071368076
49	0xbdeb67c6	-0.114944026
50	0xbd779265	-0.060442347
51	0xbe1249f1	-0.14286019
52	0xbe829343	-0.25502977
53	0xbdbfe1e7	-0.09369259
54	0xb929151c	-0.0001612496
55	0xbcf0aebf	-0.0293802
56	0xbd0c136f	-0.03419822
57	0xbec8d224	-0.39222825
58	0x3e53b6b5	0.20675166
59	0xbb114674	-0.0022167237
60	0x3caaf79a	0.020870019
61	0x3e11c49b	0.14235155
62	0xbe9934d3	-0.29923114
63	0xbd856c8f	-0.065148465
64	0x3d88b754	0.06675592
65	0x3e55f684	0.2089482
66	0x3e9c02f8	0.30471015
67	0xbe110e30	-0.14165568
68	0x3c17cbd9	0.00926491
69	0xbdfaa881	-0.12239171
70	0x3e1d972e	0.15389702
71	0x3dbabfb8	0.09118599
72	0xbd1f87cc	-0.038947865
73	0xbd635c59	-0.05550799
74	0x3d703066	0.058639906
75	0x3e3d69fb	0.1849746
76	0xbdb59680	-0.08866596
77	0x3df9f194	0.122042805
78	0xbd816224	-0.06317547
79	0xbdd8b566	-0.10581474
80	0x3e3b464f	0.1828854
81	0xbe13bb5f	-0.14426945
82	0xbd695342	-0.056964166
83	0xbdfc2786	-0.12312226
84	0x3de4b45e	0.11167215
85	0x3cecfe54	0.028929867
86	0xbd536acf	-0.051615532
87	0xbdc168bc	-0.094438046
88	0xbcae7cd0	-0.02129975
89	0xbb3f04fa	-0.0029147253
90	0xbe345a14	-0.17612487
91	0x3e4cd979	0.20004834
92	0x3da966c8	0.08271557
93	0xbd238cf6	-0.039929353
94	0x3db796b0	0.08964288
95	0xbd40bac3	-0.04705311
96	0xbd1c0184	-0.038087383
97	0xbdee156a	-0.11625178
98	0xbe4ba61d	-0.19887586
99	0x3e48d0eb	0.19610946
100	0x3d6ea7d0	0.058265507
101	0x3e0ef8a4	0.13962036
102	0x3e1da249	0.15393938
103	0xbcc697d6	-0.024242323
104	0xbc7d7301	-0.015469314
105	0xbdaf568b	-0.08561429
106	0x3d1ed3ca	0.038776197
107	0x3e7e21a5	0.24817522
108	0x3e27ab80	0.16374016
109	0x3eb8feb1	0.36131814
110	0x3e9f579a	0.31121522
111	0x3db75594	0.089518696
112	0x3e739d44	0.23790461
113	0x3e6f2254	0.23352939
114	0x3e7f577d	0.24935718
115	0xbd0b37c6	-0.033988737
116	0xbe89dde6	-0.26927108
117	0xbdd7b7ab	-0.10533079
118	0x3e04fe58	0.1298765
119	0xbe0bda48	-0.13657486
120	0x3e9c92b1	0.30580667
121	0x3df9d722	0.121992365
122	0xbe2c2e71	-0.16814591
123	0xbe799911	-0.24374796
124	0x3e2980fa	0.16553107
125	0x3d802266	0.06256561
126	0xbe0d6a07	-0.13809977
127	0x3eb8c8c8	0.36090684
128	0xbd78e7ab	-0.06076781
129	0x3ea2268a	0.31670028
130	0x3e11dbf8	0.14244068
131	0xbddff423	-0.10935237
132	0xbd80daff	-0.0629177
133	0x3df6d7c3	0.12052872
134	0xbe7ecfc8	-0.2488395
135	0x3dbc59e3	0.09196832
136	0xbe119c36	-0.14219746
137	0xbd52fb98	-0.05150947
138	0x3d86eeb9	0.065885015
139	0x3d59c145	0.05316283
140	0xbe521dfe	-0.20519254
141	0xbb619891	-0.0034423212
142	0xbe489abc	-0.19590276
143	0xbe4354e3	-0.1907535
144	0xbe71dc37	-0.23619162
145	0x3e3c673d	0.18398757
146	0x3d958e5d	0.07302544
147	0xbd1b8faf	-0.037978824
148	0xbdc462da	-0.09589167
149	0x3de211b1	0.110385306
150	0xbe64817c	-0.2231502
151	0x3dd41282	0.103550926
152	0x3e5eef8d	0.21771069
153	0xbd90b8d8	-0.07066506
154	0xbdf2408c	-0.118287176
155	0xbd063fc5	-0.03277566
156	0xbe28be8d	-0.1647894
157	0x3d06abce	0.03287869
158	0xbd840b59	-0.06447477
159	0xb947e580	-0.00019063614
160	0x3dd22a39	0.102619596
161	0x3d1cb0a2	0.038254388
162	0x3db7cfa1	0.08975149
163	0xbe13ad64	-0.14421612
164	0xbdc0e3e0	-0.09418464
165	0xbe222606	-0.15834817
166	0x3dea1f14	0.11431709
167	0x3e2498b8	0.16073883
168	0x3e26ff7c	0.16308397
169	0x3e15f1e3	0.14643054
170	0x3cca2da4	0.024679966
171	0x3e287fb6	0.16454968
172	0x3e7ef302	0.24897388
173	0xbe326de7	-0.17424737
174	0x3d317da3	0.043332707
175	0x3e2c4da4	0.16826493
176	0x3e4b173d	0.19833083
177	0xbe9a3d9b	-0.30125126
178	0x3db04157	0.086062126
179	0xbc9417e6	-0.018077802
180	0x3c1daff3	0.009624469
181	0xbc76e651	-0.01506956
182	0xbd0f2de7	-0.034955885
183	0xbe436e7d	-0.19085117
184	0xbde87a7e	-0.113514885
185	0xbc91b959	-0.017788576
186	0x3d06fb78	0.032954663
187	0xbe56bd95	-0.20970757
188	0x3e5bdfc0	0.21472073
189	0xbe662b2f	-0.2247741
190	0x3d86c3ee	0.06580339
191	0x3e3fa4ef	0.18715261
192	0xbe583ae5	-0.21116216
193	0x3d2e12aa	0.04249827
194	0xbe4bbb02	-0.19895557
195	0xbe20609d	-0.15661855
196	0x3d43c3a4	0.047794
197	0x3e682ac8	0.2267257
198	0x3d4c6e19	0.049909685
199	0xbd393ec3	-0.04522587
200	0x3e11e6ba	0.14248171
201	0x3e696126	0.22790965
202	0xbd225cc7	-0.03963926
203	0xbe57008a	-0.209963
204	0x3de60e1f	0.11233162
205	0xbd559f16	-0.05215367
206	0x3d30f875	0.043205697
207	0xbddda2b6	-0.1082205
208	0xbe31da7c	-0.17368501
209	0xbd43f233	-0.0478384
210	0xbe60b3be	-0.21943566
211	0x3e63d1b2	0.22247961
212	0xbe0fbf02	-0.14037707
213	0x3dfdb20c	0.12387475
214	0x3e0e6f39	0.13909616
215	0xbe11a8fd	-0.1422462
216	0xbe941378	-0.28921103
217	0xbdaeb110	-0.08529866
218	0xbd4dca84	-0.050241962
219	0x3d9b9c5d	0.07598183
220	0xbe89325b	-0.2679623
221	0x3cd0c3af	0.025483934
222	0xbd04c8c0	-0.032418013
223	0x3eb99401	0.3624573
224	0xbe508930	-0.20364833
225	0x3e312532	0.17299345
226	0xbd58e36f	-0.052951273
227	0xbe9bf9d8	-0.30464053
228	0x3e9cd44a	0.30630714
229	0x3c1ebd9f	0.009688764
230	0xbe511839	-0.20419396
231	0xbd02aea2	-0.031904824
232	0xbec3f466	-0.382724
233	0xbe3bb3f4	-0.18330365
234	0xbe0b9509	-0.13631071
235	0xbd98db24	-0.07463673
236	0xbe514c55	-0.20439275
237	0x3e74d48f	0.2390921
238	0x3d026179	0.03183124
239	0xbdece651	-0.11567367
240	0x3e92fead	0.28709927
241	0x3da02e01	0.078212745
242	0x3e1927f0	0.14956641
243	0xbd184027	-0.037170555
244	0x3eb19869	0.34686592
245	0x3ccadf5b	0.024764707
246	0xbb39e72a	-0.0028366544
247	0x3c40db8c	0.011771094
248	0xbe21f788	-0.15817082
249	0xbe8e9045	-0.27844444
250	0x3d55b918	0.052178472
251	0xbe294105	-0.16528709
252	0x3e0ff47e	0.1405811
253	0xbec92683	-0.39287195
254	0xbe107a27	-0.14109097
255	0xbd53170c	-0.05153565

encoder.encoder_c.conv2.bias f4 [32]
0	0xbd5e8070	-0.054321706
1	0x3df86c1c	0.12129995
2	0xbd2204bc	-0.039555296
3	0xbd6531f5	-0.055955846
4	0x3cf5e22d	0.030015076
5	0xbdf803e4	-0.12110117
6	0xbccbe4f4	-0.024889447
7	0xbe000904	-0.12503439
8	0xbdc7b769	-0.097517796
9	0xbdee6191	-0.11639703
10	0xbd355eb1	-0.044279758
11	0x3d499565	0.04921474
12	0x3de2e8d4	0.11079565
13	0x3d91ae10	0.07113278
14	0xbe0e21ce	-0.13880083
15	0x3d7c6efb	0.061629277
16	0xbd6766c8	-0.056494504
17	0x3d95f8ba	0.073228315
18	0x3d79e95e	0.061013572
19	0xbe309949	-0.17245974
20	0xbcc65547	-0.024210585
21	0xbe04980c	-0.12948626
22	0x3cfc7f9c	0.030822568
23	0x3dca792c	0.09886393
24	0x3cf88831	0.030338379
25	0xbdf89fef	-0.1213988
26	0x3db5c38a	0.08875187
27	0xbe1c9ceb	-0.15294234
28	0x3da1d0b2	0.079011336
29	0xbd21ed30	-0.03953284
30	0x3cbe3802	0.023220066
31	0xbe837b3c	-0.25679958

encoder.encoder_c.conv2.lin.weight f4 [32, 32]
0	0xbe32002e	-0.17382881
1	0xbe56b381	-0.20966913
2	0x3e0f35b5	0.13985331
3	0x3c1e3441	0.009656013
4	0x3e1508b3	0.145541
5	0xbdf32cea	-0.11873801
6	0xbe0f23c7	-0.13978492
7	0x3ecb93b6	0.39761132
8	0x3d90add7	0.07064407
9	0xbe35294b	-0.17691533
10	0x3ebc79e2	0.3681174
11	0xbcd1b626	-0.02559955
12	0xbd3400b5	-0.043945987
13	0xbe603d8f	-0.21898483
14	0xbd7cfbb5	-0.061763484
15	0x3e5cfa2c	0.21579808
16	0xbd937bd5	-0.072013535
17	0x3c8ef299	0.017449664
18	0xbcea86b6	-0.028628688
19	0xbe100283	-0.14063458
20	0xbe6969db	-0.22794287
21	0xbdd69d73	-0.1047925
22	0xbda0831b	-0.078375064
23	0xbe6d3b00	-0.23167038
24	0x3dd449b2	0.10365619
25	0x3f0843a3	0.53228205
26	0xbe1e0d57	-0.15434776
27	0x3e7e4f1f	0.2483487
28	0x3e65b367	0.22431718
29	0xbd788694	-0.06067522
30	0xbe6a0686	-0.22854051
31	0x3eba90bc	0.3643855
32	0xbe1af958	-0.1513418
33	0xbeab1a94	-0.33418715
34	0xbea7a3bb	-0.32742104
35	0xbd1dba56	-0.038507782
36	0x3eaab3fd	0.33340445
37	0x3e189072	0.14898852
38	0x3db00871	0.0859536
39	0xbcce5c29	-0.02519043
40	0x3df22529	0.11823494
41	0xbe73c07b	-0.23803894
42	0xbd285b85	-0.041102905
43	0x3ed35975	0.41279188
44	0x3e804222	0.25050455
45	0x3e9936a2	0.29924494
46	0x3e10d675	0.14144309
47	0xbe226591	-0.15859057
48	0x3c4d1083	0.012516144
49	0xbda5fcb3	-0.08104839
50	0xbe9536d4	-0.29143393
51	0xbe92fffc	-0.28710926
52	0x3ea8ad0c	0.32944524
53	0x3cda3e5e	0.026641067
54	0x3dd06cae	0.10176979
55	0xbebe7c3f	-0.37204167
56	0xbe784dfd	-0.242485
57	0x3d84f093	0.064911984
58	0x3e721a39	0.23642816
59	0xbe17bc67	-0.14817964
60	0x3d65975e	0.056052558
61	0xbe16c5b5	-0.14723857
62	0x3e03de28	0.12877715
63	0xbd3b3aac	-0.04571025
64	0x3e1a4a7f	0.1506748
65	0x3e36ea5e	0.17862841
66	0xbe36897b	-0.17825882
67	0x3e8176e9	0.25286034
68	0xbeaa19ff	-0.33222958
69	0x3dccd896	0.10002248
70	0x3e332121	0.17493106
71	0x3d6edc9c	0.05831586
72	0xbe7c9003	-0.24664311
73	0xbdec1d3f	-0.11529016
74	0xbe4fb448	-0.20283616
75	0xbe81357a	-0.25236112
76	0x3e7f0598	0.24904478
77	0x3ec2a4de	0.3801641
78	0xbe52811d	-0.20557065
79	0x3ec49565	0.3839523
80	0xbe2d3faf	-0.16918825
81	0x3e3b93cb	0.18318097
82	0xbeb5aebb	-0.3548487
83	0x3ea398c9	0.31952503
84	0x3e91732d	0.28408185
85	0x3e37f0ea	0.17962995
86	0x3e08e338	0.13367927
87	0xbe8e397e	-0.27778238
88	0x3e9eab88	0.30990243
89	0x3b59b134	0.0033217194
90	0xbe05e01c	-0.13073772
91	0xbea6fa0e	-0.32612652
92	0xbe6ef173	-0.23334293
93	0x3e44fee4	0.19237858
94	0xbd1d7ac8	-0.03844717
95	0x3e6f8f47	0.233945
96	0x3e649881	0.223238
97	0xbe899764	-0.26873314
98	0x3ed86872	0.42267185
99	0x3e4d0e7a	0.20025054
100	0x3ea76995	0.3269774
101	0xbe058ffa	-0.13043204
102	0x3e9303ff	0.28713986
103	0x3c93c2b5	0.01803718
104	0x3e8c67b5	0.27422872
105	0xbe78d37a	-0.24299422
106	0xbea14962	-0.315013
107	0x3dedb7e0	0.11607337
108	0xbcb3457e	-0.021883722
109	0x3e3ddf1f	0.18542145
110	0xbe699b12	-0.22813061
111	0xbe01860d	-0.12648793
112	0x3d2309c3	0.03980423
113	0xbdcaa216	-0.09894197
114	0xbe038bff	-0.12846373
115	0x3dfadb83	0.122489
116	0xbe45ac9e	-0.1930413
117	0x3e9c2550	0.30497217
118	0xbe54fd14	-0.20799667
119	0x3e123eb1	0.14281727
120	0xbe57ef5a	-0.21087399
121	0xbeee5c2e	-0.46554703
122	0x3d3fd59d	0.046834577
123	0x3dd70d86	0.10500626
124	0xbc8883e7	-0.016664458
125	0xbd8ce427	-0.06879454
126	0xbdca26fa	-0.098707154
127	0x3e952409	0.29129055
128	0x3ed929e1	0.42414764
129	0xbe8af426	-0.27139395
130	0xbe32816b	-0.17432182
131	0xbdd66c53	-0.1046988
132	0xbd53aac8	-0.05167654
133	0x3dc928b5	0.098222174
134	0xbe6e48f3	-0.23270015
135	0x3e906990	0.28205538
136	0xbd4c03a8	-0.049808174
137	0xbe6567eb	-0.22402923
138	0xbc4e4070	-0.012588605
139	0xbeab842a	-0.3349927
140	0x3eac7b6c	0.33687913
141	0xbe35cd91	-0.17754199
142	0xbd396df8	-0.04527089
143	0x3daa50b2	0.08316173
144	0xbe674d09	-0.2258798
145	0xbe512766	-0.20425186
146	0x3db37e6c	0.087643474
147	0x3cf4a630	0.0298644
148	0x3e6cf4f4	0.23140317
149	0x3d9e2378	0.07721609
150	0xbd27027e	-0.04077386
151	0x3ebc7e8a	0.36815292
152	0xbd3f0288	-0.046633273
153	0xbda028a9	-0.07820255
154	0xbe73f9c8	-0.23825753
155	0x3df6a0b1	0.12042368
156	0x3ec47fec	0.38378847
157	0x3ed04c6d	0.40683308
158	0xbe492b00	-0.1964531
159	0xbe0a124f	-0.13483547
160	0x3de18c32	0.11013068
161	0xbd815d5c	-0.06316635
162	0xbdfa0d82	-0.12209608
163	0x3c53937a	0.012913579
164	0xbec416a7	-0.38298532
165	0xbe55e133	-0.20886688
166	0xbdff2194	-0.124575764
167	0x3e292bd4	0.16520625
168	0x3e2219e7	0.15830193
169	0x3dda3fef	0.106567256
170	0xbe09ca65	-0.13456114
171	0x3f0ca99b	0.549463
172	0x3e00852d	0.12550803
173	0x3e5679ef	0.20944951
174	0xbe258771	-0.16164948
175	0x3eac5b01	0.3366318
176	0x3decfe7c	0.115719765
177	0xbe0b8331	-0.13624264
178	0xbe162118	-0.14661062
179	0xbe26ed76	-0.16301522
180	0xbec392a6	-0.3819782
181	0x3eba5a15	0.36396852
182	0x3dae35a1	0.08506323
183	0x3cf72339	0.030168163
184	0xbe0591cc	-0.13043898
185	0x3e054f49	0.13018526
186	0x3e5a5060	0.21319723
187	0xbd17dcc9	-0.03707579
188	0x3eb7d1ee	0.3590235
189	0xbd92b791	-0.07163919
190	0x3e0042df	0.1252551
191	0x3e943a89	0.2895091
192	0x3dc3d3d1	0.09561885
193	0x3de14f03	0.110013984
194	0xbd09ba06	-0.03362467
195	0x3e296ed8	0.1654619
196	0xbe493501	-0.19649126
197	0x3e0f1467	0.13972627
198	0x3e87f28e	0.26552242
199	0xbe1631f2	-0.1466749
200	0xbd4b4ea0	-0.04963553
201	0x3dc689c8	0.096942484
202	0xbd7f2e7a	-0.062300183
203	0xbea62371	-0.32448915
204	0x3e2224d3	0.1583436
205	0xbef1cd8b	-0.4722713
206	0xbed0ae2b	-0.4075788
207	0x3e4ea8a8	0.20181525
208	0x3e3d784a	0.18502918
209	0x3e2824dd	0.16420312
210	0x3de03cba	0.10949083
211	0x3e4ea16e	0.20178768
212	0xbebbada6	-0.3665592
213	0xbd14c39d	-0.036319364
214	0x3e5d2154	0.21594745
215	0xbdc5722b	-0.096409164
216	0xbe26ad72	-0.16277102
217	0x3eba433f	0.3637943
218	0xbce5a027	-0.028030468
219	0xbdee2822	-0.116287485
220	0xbdc35fe4	-0.09539774
221	0x3e0cf34d	0.13764687
222	0x3e0000c5	0.12500294
223	0x3e54b87b	0.20773499
224	0x3eb11feb	0.34594664
225	0x3e88517f	0.26624677
226	0x3de7b00d	0.11312876
227	0x3e5b2a2e	0.21402809
228	0xbe2e5fc5	-0.1702872
229	0xbe841d7f	-0.25803754
230	0x3eb44d89	0.35215405
231	0xbe8b454f	-0.27201316
232	0x3e7df8f8	0.24802005
233	0xbe8c6a3b	-0.27424797
234	0x3e35a996	0.17740473
235	0xbd22ed60	-0.03977716
236	0x3df0ad02	0.117517486
237	0xbe1f9f94	-0.15588218
238	0xbdb93743	-0.090437435
239	0xbbbc5e7e	-0.005748569
240	0xbd73784c	-0.059440896
241	0xbe6b2059	-0.22961558
242	0x3ca443a2	0.020051781
243	0xbe81742e	-0.2528395
244	0x3e8e8eac	0.27843225
245	0x3d846b52	0.06465782
246	0xbe25b56d	-0.1618249
247	0xbdf907e3	-0.121597074
248	0xbe744e0f	-0.23857902
249	0xbde7269a	-0.112866595
250	0x3dcb7756	0.09934871
251	0x3e92f27e	0.28700632
252	0xbe5310da	-0.20611897
253	0x3e350680	0.17678261
254	0xbcfaf22a	-0.030633051
255	0x3c90393d	0.017605418
