output/seqfish/model_pth/TENET_trained_gae_model.pth (torch, 221639 bytes, 10 tensors)

encoder.encoder_g.conv1.bias f4 [32]
0	0xbd2e8709	-0.04260925
1	0x3cb36396	0.021898072
2	0xbcf492d2	-0.029855166
3	0xbc783bd2	-0.015150981
4	0x3cb75cc5	0.022383103
5	0x3be6bbba	0.0070414217
6	0x3c3edf46	0.011649912
7	0xbd2b1766	-0.04177036
8	0x3bbf601e	0.0058403155
9	0x3cbe38fa	0.023220528
10	0x3cd36d2d	0.025808895
11	0xbc658f39	-0.014011198
12	0xbaa04826	-0.0012228533
13	0xbd306545	-0.04306533
14	0xbc1f0440	-0.009705603
15	0xbcfbee96	-0.030753415
16	0xbcf1c20c	-0.029511474
17	0x3d6628f9	0.05619142
18	0x3d292437	0.041294303
19	0xbc54d230	-0.012989566
20	0x3c222b71	0.009898053
21	0x3c31fd38	0.010863595
22	0x3ca4c4fa	0.020113457
23	0x3c2cbafc	0.010542627
24	0x3c2d8d9e	0.010592846
25	0xbc5799b7	-0.013159207
26	0xbd6fae04	-0.058515564
27	0xbcbc87ce	-0.023013975
28	0xbc3d2c18	-0.011546157
29	0x3cfc4517	0.030794663
30	0xbc5fb26d	-0.01365338
31	0xbc58ee6a	-0.013240436

encoder.encoder_g.conv1.lin.weight f4 [32, 64]
0	0xbdb7ff1c	-0.08984205
1	0xbeb9ea6a	-0.36311656
2	0xbe93d899	-0.28876188
3	0x3dfc2b8d	0.12312994
4	0xbd1ee917	-0.03879651
5	0xbe9fbe30	-0.3119979
6	0x3e3cfd5b	0.18456022
7	0xbe487e52	-0.19579437
8	0x3e30abd2	0.17253044
9	0x3e196a0c	0.1498186
10	0xbe206fba	-0.1566762
11	0x3deb0153	0.11474862
12	0x3e08e9f1	0.13370492
13	0xbdaf6c94	-0.085656315
14	0x3cb97d6a	0.02264281
15	0xbe8bc382	-0.27297598
16	0xbdd2f612	-0.103008404
17	0x3e7d8320	0.24757051
18	0xbe1aeb9e	-0.15128943
19	0x3d6e4ed1	0.058180634
20	0xbed306e8	-0.41216207
21	0xbddd75b7	-0.10813468
22	0x3e82866c	0.2549318
23	0x3e58c6a0	0.2116952
24	0xbda9f9c2	-0.08299591
25	0xbde6ad9c	-0.11263582
26	0x3df2e4c6	0.11860041
27	0xbcf7c52e	-0.03024539
28	0xbeb6c768	-0.3569901
29	0xbdf53775	-0.11973468
30	0x3e3f787f	0.1869831
31	0xbd41bed4	-0.04730113
32	0x3e0176ec	0.12643021
33	0x3e67176e	0.22567531
34	0xbea5141e	-0.3224191
35	0x3b03aa0b	0.0020090367
36	0x3da45fd4	0.0802609
37	0x3e57b3cf	0.21064685
38	0x3e46b59c	0.19405216
39	0xbde14a47	-0.110004954
40	0x3e96dc88	0.29465127
41	0x3e5dd768	0.21664202
42	0x3e2de24a	0.16980854
43	0xbe7bf597	-0.24605404
44	0xbe075f4f	-0.13219951
45	0xbe25ed48	-0.16203797
46	0x3e64e9f2	0.22354868
47	0xbd7dc466	-0.06195488
48	0x3df30bd3	0.1186749
49	0xbcd3dc18	-0.025861785
50	0x3e906938	0.28205276
51	0xbdf3b915	-0.11900536
52	0x3e24edf6	0.161064
53	0xbeb0fb45	-0.34566703
54	0x3e5ce9e5	0.21573599
55	0xbea6e831	-0.32599023
56	0xbe9bc30e	-0.30422252
57	0x3e8156eb	0.25261626
58	0x3ddba369	0.107245274
59	0xbeae3af1	-0.34029344
60	0x3ed97559	0.42472342
61	0x3e64d140	0.22345448
62	0x3e09d893	0.13461523
63	0xbc00ceec	-0.007861834
64	0x3d7c344e	0.06157332
65	0x3ec62901	0.38703158
66	0x3cb1f03b	0.021720996
67	0xbda48470	-0.08033073
68	0x3e8ca885	0.2747232
69	0x3e964998	0.29353023
70	0x3e542060	0.20715475
71	0x3e82da07	0.25556967
72	0x3dd90262	0.105961576
73	0xbe8d94d2	-0.27652603
74	0xbcb5cc6a	-0.022192199
75	0x3ed9d573	0.4254566
76	0x3e2678ae	0.16256973
77	0xbecdcf7a	-0.40197355
78	0xbebc8450	-0.36819696
79	0x3e0e3fa4	0.13891464
80	0xbeb2cc25	-0.34921375
81	0x3e321983	0.17392544
82	0x3e8b3fa2	0.27196985
83	0xbd5d9970	-0.054101408
84	0x3e2d66ab	0.16933696
85	0xbe35fc47	-0.17772017
86	0xbe1b8617	-0.1518787
87	0x3df9797e	0.12181376
88	0x3d12a038	0.035797328
89	0x3d67a1e9	0.056550894
90	0x3ead142d	0.33804455
91	0xbcb6076e	-0.02222034
92	0x3ea1eb48	0.31624818
93	0xbccbc942	-0.02487624
94	0x3ecd13c3	0.4005414
95	0xbe68ae1c	-0.22722667
96	0x3e1d2e46	0.15349683
97	0xbebd583f	-0.3698139
98	0xbdc8f3f4	-0.09812155
99	0x3e263ec2	0.16234878
100	0xbe4a92d0	-0.19782567
101	0x3e9e4b8d	0.30917016
102	0xbc1bb914	-0.009504575
103	0x3e0d1a6f	0.13779615
104	0xbdc9c550	-0.098520875
105	0xbc8aa948	-0.016926423
106	0x3e53e3d4	0.20692378
107	0xbd7ba9ad	-0.061441112
108	0xbe7f369e	-0.24923179
109	0xbd2558b3	-0.040367793
110	0xbe8f1676	-0.27946824
111	0xbdf82628	-0.12116653
112	0xbc2af9d8	-0.010435544
113	0x3d8564db	0.06513377
114	0x3df88347	0.12134414
115	0x3d9e0dbe	0.07717465
116	0xbe3e00e1	-0.18555023
117	0x3c6374f5	0.013882865
118	0x3db90242	0.09033634
119	0xbdcb8a9d	-0.09938548
120	0xbe0a1107	-0.13483058
121	0x3dbe32b3	0.09287014
122	0xbe3a4884	-0.18191725
123	0x3e13b317	0.14423786
124	0x3e55155d	0.2080893
125	0xbe38d73d	-0.18050857
126	0x3e0dd0be	0.1384916
127	0xbbbc05a3	-0.0057379766
128	0xbe81c453	-0.25345096
129	0x3e6590b9	0.22418489
130	0x3e4bc3eb	0.19898956
131	0xbdd07b52	-0.101797715
132	0x3e5197fb	0.20468132
133	0x3e319921	0.1734357
134	0xbd8bd560	-0.068278074
135	0xbcd0caa2	-0.025487248
136	0x3d0dc8f2	0.034615465
137	0xbe1067a6	-0.14102039
138	0x3e38324b	0.17987935
139	0xbd10bf50	-0.0353387
140	0xbe5d74c8	-0.2162658
141	0xbe3f34f5	-0.18672545
142	0x3c8594d0	0.01630631
143	0xbdd2aab8	-0.10286468
144	0x3c8ad4ef	0.016947238
145	0xbe90fd51	-0.28318265
146	0xbd594aa4	-0.0530497
147	0x3e54f8fa	0.20798102
148	0xbe458d43	-0.19292168
149	0xbcae4855	-0.021274725
150	0x3d69e3ce	0.057102017
151	0xbe617da8	-0.2202059
152	0xbe0e4a99	-0.13895644
153	0x3e802e4d	0.25035325
154	0x3e0393c4	0.12849337
155	0xbd7cbc94	-0.06170328
156	0x3da5cefa	0.08096118
157	0x3e5434ef	0.20723318
158	0xbdffb30d	-0.12485323
159	0x3e653a29	0.22385468
160	0xbe107d11	-0.14110209
161	0x3e4c88a8	0.19974005
162	0x3c3c862d	0.011506599
163	0xbe8e3122	-0.2777186
164	0xbd8b240b	-0.06793984
165	0x3d1e3790	0.038627207
166	0xbda77149	-0.08175904
167	0x3bcb4707	0.0062035355
168	0x3d53ead8	0.051737636
169	0x3de016ff	0.10941886
170	0x3e051a53	0.12998323
171	0x3e815418	0.2525947
172	0xbdbafd12	-0.091303006
173	0xbe00a92f	-0.12564538
174	0xbd0de089	-0.03463796
175	0x3c3b26ed	0.011422855
176	0xbc795da7	-0.015220082
177	0xbe1a0659	-0.15041484
178	0x3e2a08f3	0.16604976
179	0x3d19f32b	0.03758542
180	0xbc263d60	-0.010146469
181	0xbdbb7af6	-0.09154312
182	0x3baefbbb	0.005340067
183	0x3b5baad9	0.0033518581
184	0x3d2011cb	0.03907947
185	0xbdff0f07	-0.12454038
186	0xbe5c16d0	-0.21493077
187	0xbec951d6	-0.39320248
188	0xbe67bbe5	-0.2263027
189	0xbebc6d16	-0.36801976
190	0x3bf2e935	0.0074130544
191	0x3e3ecaac	0.18632
192	0x3e2d2a46	0.16910657
193	0x3d46322d	0.048387695
194	0xbd8a5843	-0.06755116
195	0xbdf3378d	-0.1187583
196	0xbe534db8	-0.20635116
197	0x3e9b2e92	0.30308968
198	0x3e2ce80e	0.16885397
199	0x3d928220	0.071537256
200	0x3ca0736b	0.019586286
201	0xbea3c08e	-0.31982845
202	0xbd080cd6	-0.033215366
203	0xbdaf6e3b	-0.08565947
204	0x3da7d353	0.08194604
205	0xbc81a0f4	-0.015823819
206	0x3d4c0739	0.049811576
207	0xbe68dcf4	-0.22740537
208	0xbde1f96b	-0.11033901
209	0x3e602dce	0.21892473
210	0x3b7bc4ac	0.0038416786
211	0x3da47ea3	0.080319665
212	0x3a8522d6	0.0010157477
213	0x3e698092	0.22802952
214	0xbf05a74a	-0.5220839
215	0xbdeed499	-0.116616435
216	0xbe4d6302	-0.200573
217	0x3c14b22d	0.009075684
218	0x3ca7a684	0.020465143
219	0xbe41bcfa	-0.18919745
220	0xbeb4fe4a	-0.35350257
221	0xbe528738	-0.20559394
222	0x3d66df11	0.056365076
223	0xbd949a95	-0.07256047
224	0x3e6c1b12	0.23057202
225	0xbd62cb26	-0.05536952
226	0xbda487c9	-0.080337115
227	0x3e6bd602	0.23030856
228	0xbd9d9f1c	-0.07696363
229	0xbe32ba16	-0.17453799
230	0xbeeea693	-0.4661146
231	0xbedf5f82	-0.43627554
232	0x3e51e81e	0.20498702
233	0x3e611972	0.21982363
234	0x3e6796e0	0.22616148
235	0x3eca84cd	0.39554444
236	0x3e0445ca	0.12917247
237	0x3e7d9bd8	0.24766481
238	0x3de22b54	0.110434204
239	0xbeaee8e5	-0.3416206
240	0xbe1943c0	-0.14967251
241	0x3d50121e	0.050798528
242	0x3e89d174	0.26917613
243	0x3e4271f8	0.18988788
244	0xbdc38662	-0.09547116
245	0x3cdaefa4	0.026725598
246	0x3d14dac0	0.03634143
247	0xbd21127b	-0.039324265
248	0x3c84f663	0.016230768
249	0x3def1898	0.11674613
250	0x3e0cdc4e	0.13755915
251	0xbe437e03	-0.19091038
252	0x3e97fef7	0.2968671
253	0xbe13ae0d	-0.14421864
254	0x3d7b8229	0.061403427
255	0x3dcab6cc	0.09898147

encoder.encoder_g.conv2.bias f4 [32]
0	0x3ceab48f	0.02865055
1	0x3da27535	0.07932512
2	0x3c868f9b	0.016425898
3	0x3e07023c	0.13184446
4	0x3ea54fae	0.32287353
5	0x3c06e960	0.008234352
6	0xbe566343	-0.20936303
7	0x3e90a9ab	0.28254446
8	0x3d1722f5	0.036898572
9	0x3e7e3e82	0.24828532
10	0x3d38bd90	0.045102656
11	0xbdaff69f	-0.08591961
12	0x3d6cacfe	0.057782166
13	0xbd41fa44	-0.047357813
14	0xbcac534c	-0.021035813
15	0x3b0a2a06	0.0021082177
16	0x3eb947c5	0.36187568
17	0x3d9a7a5a	0.07542868
18	0x3e09c696	0.13454661
19	0xba997104	-0.0011706655
20	0x3ebf2d97	0.3733947
21	0xbd055b69	-0.03255788
22	0x3e2e0326	0.16993389
23	0xbdaa046c	-0.08301625
24	0xbda006ad	-0.07813773
25	0x3ec9250b	0.39286074
26	0x3dd35e7f	0.10320758
27	0x3edff455	0.43741098
28	0xbe1cb212	-0.15302303
29	0x3e1d7a58	0.15378702
30	0x3e327e91	0.17431094
31	0x3e4c47a3	0.19949202

encoder.encoder_g.conv2.lin.weight f4 [32, 32]
0	0x3dff8275	0.124760546
1	0x3e95e014	0.2927252
2	0x3e36524c	0.17804831
3	0x3e4c52d6	0.19953474
4	0x3e127045	0.1430064
5	0x3e99df87	0.3005335
6	0xbe898a4e	-0.2686333
7	0x3e8347ea	0.25640804
8	0xbe9b7000	-0.30358887
9	0xbea1711d	-0.3153161
10	0xbde4cd4a	-0.11171968
11	0xbde96dc7	-0.113978915
12	0x3d0c8eca	0.03431586
13	0x3e2d6f3a	0.16936961
14	0x3eaac6a9	0.3335469
15	0xbec30a36	-0.38093728
16	0x3d2cbeca	0.042174138
17	0xbea288e1	-0.31745055
18	0x3deff1f0	0.11716068
19	0x3b8ddffd	0.00432968
20	0xbdb737cc	-0.08946189
21	0x3dc46a09	0.09590537
22	0xbd07199f	-0.03298342
23	0xbe0bd818	-0.13656652
24	0xbe14f95b	-0.14548247
25	0x3df452e0	0.1192987
26	0x3e5358f0	0.20639396
27	0xbab67747	-0.0013921045
28	0xbe7b7a61	-0.24558403
29	0xbe0184f3	-0.12648372
30	0xbe6e5e58	-0.23278177
31	0x3ccb639d	0.024827773
32	0x3d2275ee	0.039663248
33	0xbe9ffb80	-0.31246567
34	0x3e902970	0.28156614
35	0x3dbe1f31	0.09283293
36	0x3e2ae18c	0.16687602
37	0x3e9f180e	0.3107304
38	0x3ecbc03e	0.39795107
39	0xbe8d4fc5	-0.27599922
40	0xbe3c52db	-0.18390982
41	0x3dfb69f6	0.1227607
42	0x3e92a7c0	0.28643608
43	0x3cc6660a	0.024218578
44	0x3e7a904e	0.2446911
45	0xbd516821	-0.051124696
46	0xbaec9f30	-0.0018052813
47	0xbbf1991c	-0.0073729884
48	0xbdd102d4	-0.102056175
49	0xbe20c52b	-0.15700214
50	0x3d40c3fe	0.047061913
51	0x3d4a3ec2	0.049376257
52	0xbdc7b3a8	-0.097510636
53	0xbd09b4b8	-0.033619612
54	0xbaac1dea	-0.0013131474
55	0x3e7b963d	0.2456903
56	0xbd3d07dd	-0.046150077
57	0x3d801e57	0.06255787
58	0xbd8c5434	-0.06851998
59	0xbe6355e6	-0.22200736
60	0x3ef8033d	0.4843997
61	0xbe6b4653	-0.22976045
62	0x3e4873ac	0.19575375
63	0x3e94ab44	0.29036915
64	0xbcd0906f	-0.025459496
65	0xbe7796f8	-0.24178684
66	0xbdc94719	-0.09828014
67	0x3eb18500	0.34671783
68	0xbe438bb7	-0.19096266
69	0x3e822738	0.25420547
70	0x3d974460	0.07386088
71	0x3d8b5c9f	0.068047754
72	0xbd6c2517	-0.05765256
73	0x3e90cebf	0.28282735
74	0x3ec1bbd1	0.37838605
75	0xbd9d45a4	-0.076792985
76	0xbe62f323	-0.22163062
77	0xbe96bed8	-0.29442477
78	0xbc5fa2da	-0.013649667
79	0xbde4d254	-0.111729294
80	0xbdafa84a	-0.085770205
81	0x3e61cb08	0.22050107
82	0x3e7e3bc0	0.2482748
83	0x3e28c524	0.16481453
84	0x3dabf71e	0.08396743
85	0xbe066965	-0.13126142
86	0xbdfba348	-0.12287003
87	0xbdfc9e57	-0.123348884
88	0xbe1c5e09	-0.15270247
89	0xbe26d209	-0.1629106
90	0xbd65e312	-0.056124754
91	0x3d8246a3	0.06361129
92	0x3ec98fa3	0.393674
93	0x3ec50180	0.38477707
94	0xbd9af014	-0.075653225
95	0xbd8e5b46	-0.06951003
96	0x3e3c6113	0.18396406
97	0xbe9029fb	-0.2815703
98	0xbe416a60	-0.18888235
99	0x3f094e8b	0.5363547
100	0x3d1fc476	0.03900572
101	0x3ed8001e	0.4218759
102	0xbe8398e7	-0.25702593
103	0xbe1c9e8a	-0.15294853
104	0xbe169eef	-0.14709066
105	0x3e1fbe98	0.1560005
106	0x3ece0660	0.4023924
107	0xbe9806ca	-0.2969268
108	0xbe1cda12	-0.15317562
109	0x3c2ea76a	0.010660032
110	0xbe343081	-0.17596628
111	0x3dec4f9b	0.11538621
112	0xbd5ba650	-0.053625405
113	0x3dcce19b	0.10003968
114	0xbc3e5838	-0.011617713
115	0x3e89e39c	0.26931465
116	0xbe91e3c9	-0.284941
117	0x3e5fe0fa	0.21863165
118	0xbea93112	-0.3304525
119	0xbeb361b4	-0.3503548
120	0xbcfee418	-0.031114623
121	0x3e147ad6	0.14499983
122	0x3be4f058	0.006986659
123	0x3d670f70	0.056411207
124	0xbda2faa0	-0.07957959
125	0x3e5a724f	0.21332668
126	0x3de24ef4	0.11050215
127	0x3e24187a	0.16024962
128	0x3e9723b3	0.29519424
129	0xbd864340	-0.06555796
130	0xbe707361	-0.23481514
131	0x3e897207	0.26844808
132	0x3e28ef83	0.16497616
133	0xbe298427	-0.16554318
134	0xbe6d2ad6	-0.23160872
135	0x3ea4436f	0.32082698
136	0xbe2b032d	-0.1670043
137	0xbe44d048	-0.19220078
138	0xbe141dcc	-0.14464492
139	0xbd5ae0ca	-0.05343703
140	0x3dfada7a	0.12248702
141	0xbdab2a11	-0.08357633
142	0xbe367acc	-0.17820281
143	0x3e16490c	0.14676303
144	0x3dacd7d5	0.08439604
145	0x3e9f2634	0.31083834
146	0xbc97a007	-0.018508924
147	0x3d55e6d0	0.052222073
148	0x3e81faf2	0.2538677
149	0x3dd5c9dc	0.10438892
150	0x3e39c167	0.18140183
151	0xbe6d294a	-0.23160282
152	0xbd3c350a	-0.04594902
153	0xbcbf9fbc	-0.023391597
154	0xbe72a94a	-0.23697391
155	0x3e975be0	0.29562283
156	0xbde5d077	-0.11221402
157	0xbe8d0e40	-0.27549934
158	0x3d9d1cc8	0.07671505
159	0x3e7810b3	0.2422512
160	0xbe8a36f2	-0.26995045
161	0x3c4c1da4	0.012458239
162	0xbd9d9ea5	-0.07696275
163	0xbeb3608c	-0.35034597
164	0x3c5717ed	0.013128263
165	0xbea9d4bd	-0.3317012
166	0x3e26c55b	0.16286223
167	0xbe105a3f	-0.14096926
168	0xbe7f8423	-0.2495275
169	0xbea113f7	-0.31460544
170	0x3e2ed09e	0.17071769
171	0x3c90ca74	0.017674662
172	0xbed06ab0	-0.40706396
173	0xbe3da34e	-0.18519327
174	0xbf156b99	-0.58367306
175	0x393d0da0	0.0001802952
176	0x3e9fbbc3	0.31197938
177	0x3cd0e562	0.025500003
178	0xbe831d81	-0.25608447
179	0xbd3febb1	-0.046855632
180	0x3e18f07b	0.14935486
181	0x3e538ce4	0.20659214
182	0x3e44d9ad	0.19223662
183	0xbe7d39a7	-0.24729024
184	0x3c9d03cf	0.019166855
185	0xbeb055fa	-0.34440595
186	0xbda87100	-0.08224678
187	0x3d8fc784	0.070204765
188	0x3a963f6e	0.0011462995
189	0xbdcd1061	-0.1001289
190	0x3e24db59	0.160993
191	0xbe7f29fd	-0.24918361
192	0x3e5e9af8	0.21738803
193	0x3db3b4f8	0.087747514
194	0x3dc3fae5	0.09569339
195	0xbdde80e7	-0.1086443
196	0xbea15a48	-0.31514192
197	0xbe5623c1	-0.20912077
198	0x3edcd263	0.43129262
199	0x3dd63c7f	0.104607575
200	0x3dd9cedc	0.106351584
201	0x3e98f8e7	0.29877397
202	0x3e1f9b83	0.15586667
203	0x3e4dd191	0.20099474
204	0x3c589db7	0.013221196
205	0x3e4a3088	0.19745076
206	0x3e022c3a	0.12712184
207	0xbd932c29	-0.07186157
208	0x3d4149bd	0.047189463
209	0xbe026aaa	-0.12736002
210	0xbed174c7	-0.40909407
211	0xbd20cf05	-0.03925993
212	0x3d398582	0.04529334
213	0xbed8c706	-0.42339343
214	0xbdbc4ec7	-0.09194713
215	0x3d039698	0.03212604
216	0x3ca4ec5f	0.020132242
217	0x3def8206	0.11694722
218	0x3d62144f	0.05519515
219	0x3e5909d3	0.21195154
220	0xbe392d22	-0.18083623
221	0xbe904af9	-0.281822
222	0xbeb12cec	-0.34604585
223	0x3d5507a9	0.05200926
224	0x3dd315ef	0.10306918
225	0x3dc25722	0.094892755
226	0xbc70b95e	-0.0146926325
227	0xbe6fd2a3	-0.23420195
228	0x3eaed2ce	0.34145206
229	0xbd389efc	-0.045073494
230	0xbdc94db2	-0.09829272
231	0xbe486958	-0.19571435
232	0xbda043c6	-0.07825427
233	0x3d8c6cdb	0.068567
234	0x3e789e0b	0.24279039
235	0xbdd575ec	-0.104228824
236	0xbe3a8914	-0.18216354
237	0xbea7dc92	-0.3278547
238	0xbeca9fe3	-0.3957511
239	0x3dccb478	0.09995359
240	0x3d653218	0.055955976
241	0xbe9855c6	-0.2975294
242	0x3e6f3c22	0.23362783
243	0x3dc8eb0b	0.09810456
244	0x3a565d28	0.00081773335
245	0x3da7484e	0.08168088
246	0xbe95f04d	-0.29284897
247	0xbe97ffc4	-0.2968732
248	0x3c24aff2	0.010051714
249	0xbe941337	-0.2892091
250	0xbbf0c76f	-0.007347993
251	0x3e9541cc	0.29151762
252	0xbebc0a8c	-0.36726797
253	0xbe573a95	-0.21018441
254	0xbdc6fa12	-0.09715666
255	0xbd83b355	-0.06430689

encoder.encoder_g.linear.weight f4 [32, 1440]
0	0xbdff5ad8	-0.12468499
1	0x3deeebbc	0.116660565
2	0x3dfce659	0.12348623
3	0x3de003b1	0.10938204
4	0xbc669436	-0.014073422
5	0x3dfc42f9	0.123174615
6	0xbe40d929	-0.1883284
7	0x3dd0f093	0.10202136
8	0x3ccc0705	0.02490569
9	0x3df5bcfa	0.11998935
10	0xbd86375f	-0.0655353
11	0xbe741347	-0.23835479
12	0xbd6b52e2	-0.05745209
13	0x3d8fa715	0.0701429
14	0xbbfe3ed0	-0.0077589527
15	0x3e30e42e	0.17274544
16	0x3bfee3ee	0.007778636
17	0x3e36e32a	0.17860094
18	0x3e584b1f	0.21122406
19	0x3d97f3b9	0.07419533
20	0x3dd1fbb6	0.10253088
21	0x3e2ac063	0.16674952
22	0xba570300	-0.0008202046
23	0x3d2b5e27	0.041837838
24	0x3ceb76b9	0.028743135
25	0x3e1665ad	0.14687224
26	0x3d6db444	0.058033243
27	0xbd8f8c29	-0.07009155
28	0x3cffa150	0.03120485
29	0x3e1bde97	0.1522163
30	0x3d8d0774	0.06886187
31	0x3dceb0ac	0.10092291
32	0xbdf4638a	-0.11933048
33	0xbccba073	-0.024856782
34	0x3b009210	0.001961831
35	0xbe13ec56	-0.14445624
36	0xbe1b46be	-0.15163705
37	0x3e239cdb	0.15977804
38	0x3e674022	0.22583058
39	0xbdbf05b1	-0.093272574
40	0xbdde39db	-0.10850879
41	0xbe8c0233	-0.27345428
42	0xbd6689d5	-0.05628379
43	0xbbe686f9	-0.007035133
44	0x3caf82e0	0.02142471
45	0x3bd4919e	0.0064870855
46	0x3dcfcd36	0.10146563
47	0xbdd06318	-0.10175151
48	0x3e0449bf	0.12918757
49	0x3d0eff3f	0.03491139
50	0xbe13d947	-0.14438353
51	0x39520258	0.00020028034
52	0xbe409682	-0.18807414
53	0xbe83b139	-0.25721148
54	0xbda274b3	-0.07932415
55	0xbc8ba652	-0.017047081
56	0x3de1fec4	0.11034921
57	0xbe354022	-0.17700246
58	0xb9eb090c	-0.00044829433
59	0xbade008f	-0.0016937422
60	0x3e272bcf	0.16325305
61	0x3c603736	0.013685038
62	0xbd737750	-0.059439957
63	0xbe905974	-0.28193247
64	0xbdfa62db	-0.122258864
65	0xbe1e6f1e	-0.15472075
66	0x3e687dc4	0.22704226
67	0x3dece97b	0.1156797
68	0x3de647d6	0.1124417
69	0x3dfecb45	0.12441114
70	0xbe26e2cc	-0.16297454
71	0x3e6c84a0	0.23097467
72	0x3cdab681	0.026698353
73	0x3dc29d43	0.095026515
74	0xbd2bca86	-0.04194119
75	0x3deda159	0.1160304
76	0xbd40d0e5	-0.047074217
77	0xbbe19453	-0.0068841367
78	0xbd165bc1	-0.036708597
79	0xbd3d1b63	-0.046168696
80	0x3e22346e	0.15840313
81	0x3d508fd1	0.050918404
82	0x3e13eb83	0.1444531
83	0xbd82b8ca	-0.06382902
84	0x3e3ce1a2	0.18445447
85	0x3dc02000	0.093811035
86	0x3e246d5f	0.16057347
87	0xbd9fea5b	-0.07808372
88	0xbe0974ed	-0.1342351
89	0x3e804f15	0.25060335
90	0x3e08bcb2	0.13353232
91	0x3dc10af2	0.09425916
92	0x3d437e92	0.04772813
93	0xbd0b8eff	-0.03407192
94	0xbd5c93ac	-0.05385177
95	0x3e5e583e	0.21713349
96	0xbd2fcaf4	-0.04291816
97	0xbe936106	-0.2878496
98	0x3d961b6f	0.07329451
99	0xbca7770d	-0.02044251
100	0xbe94d4a2	-0.29068476
101	0x3db5c7dd	0.088760115
102	0xbe02e5b5	-0.12782939
103	0x3dcb312f	0.099214904
104	0xbcb0c2c6	-0.02157725
105	0xbddef00d	-0.1088563
106	0x3e580232	0.21094587
107	0x3e0adb3e	0.13560197
108	0xbe63b197	-0.22235714
109	0xbe3a6ca3	-0.18205504
110	0x3e9293d6	0.28628415
111	0x3c85d54a	0.016337056
112	0x3c76bc49	0.015059539
113	0xbe15508b	-0.14581506
114	0x3e70691b	0.23477595
115	0x3cd14169	0.025543885
116	0x3e4b19f1	0.19834115
117	0xbd2a0159	-0.04150519
118	0xbe42fe04	-0.19042212
119	0xbd9f49a2	-0.07777716
120	0x3d60fe2a	0.05492989
121	0xbe885969	-0.26630715
122	0x3dc98126	0.09839086
123	0xbe26b94b	-0.16281621
124	0xbe23362d	-0.15938635
125	0x3e60f5b1	0.21968724
126	0x3db7f4bd	0.08982227
127	0x3dca403b	0.09875532
128	0xbdf52517	-0.11969965
129	0x3e01a093	0.1265891
130	0xbdb18e35	-0.08669702
131	0xbe0b5827	-0.13607846
132	0x3eac89e4	0.33698952
133	0x3ccdb27d	0.025109524
134	0xbe8d7a77	-0.27632496
135	0xbd2abba6	-0.04168286
136	0xbd7047d8	-0.058662266
137	0x3dceab88	0.10091311
138	0xbe0c1f22	-0.13683751
139	0xbe4058fb	-0.18783943
140	0x3e2beaf2	0.16788843
141	0x3d2b99e7	0.04189482
142	0xbb916fb2	-0.004438364
143	0x3d882653	0.06647935
144	0x3d7e4474	0.062077
145	0x3e438295	0.19092782
146	0x3e216cab	0.1576411
147	0x3dc06421	0.09394098
148	0xbd585354	-0.052813843
149	0x3ddcf47f	0.107888214
150	0xbcfde881	-0.030994656
151	0x3c9e882d	0.019352043
152	0xbde4f493	-0.11179461
153	0xbcb8d6bc	-0.02256333
154	0xbdabdfc7	-0.083922915
155	0x3cfa6cea	0.030569512
156	0x3e818081	0.25293353
157	0x3d0c6939	0.034280036
158	0x3e1fe707	0.15615474
159	0xbd369e75	-0.04458471
160	0xbd518efc	-0.05116175
161	0x3df0937a	0.11746879
162	0x3dce9271	0.10086525
163	0x3dd8216d	0.105532505
164	0xbcbcafb8	-0.023033008
165	0x3d8eee14	0.069790035
166	0xbc9b570b	-0.018962404
167	0x3e14e54b	0.14540593
168	0xbd55aac1	-0.052164797
169	0x3e810713	0.2520071
170	0xbd7b6865	-0.061378855
171	0x3dd01bc0	0.10161543
172	0x3be8ca83	0.0071042194
173	0xbda20bc7	-0.079124026
174	0xbe0b57bc	-0.13607687
175	0xbc98b32a	-0.01864012
176	0x3d0b1f8c	0.033965632
177	0x3d04a0ef	0.03238004
178	0x3dd557c5	0.10417131
179	0xbab4c887	-0.0013792672
180	0x3d9e6275	0.07733623
181	0x3dff9bcb	0.12480887
182	0xbe43d644	-0.19124705
183	0xbd7e2a84	-0.062052265
184	0xbde79aba	-0.113088086
185	0xbdba7bfc	-0.091056794
186	0x3e697b5f	0.22800969
187	0x3d102653	0.0351928
188	0x3cc15205	0.02359868
189	0x3d418ed9	0.04725537
190	0xbca57002	-0.020195011
191	0x3d9946bb	0.07484194
192	0xbd20eeb5	-0.03929015
193	0xbcd31df1	-0.025771113
194	0xbcfef579	-0.03112291
195	0xbda4937b	-0.08035942
196	0x3e835c7a	0.25656492
197	0xbc56c51d	-0.013108519
198	0xbd609ff5	-0.054840047
199	0xbe4fba27	-0.20285855
200	0xbe212fe2	-0.15740922
201	0x3d0b43de	0.03400027
202	0xbcceeb41	-0.025258662
203	0xbcf77fcd	-0.030212307
204	0x3d0cbca2	0.03435958
205	0xbdf7fdc2	-0.12108947
206	0xbc893150	-0.016747147
207	0x3dba8022	0.09106471
208	0x3dd96571	0.106150515
209	0x3e8a5945	0.27021232
210	0xbe27022a	-0.1630942
211	0xbdc2d209	-0.09512717
212	0xbe3dbff2	-0.18530253
213	0xbccf4956	-0.025303524
214	0xbd93c871	-0.072159655
215	0x3cafb030	0.021446317
216	0xbd3df241	-0.04637361
217	0xbd164562	-0.036687262
218	0xbdf89706	-0.121381804
219	0x3dd20375	0.102545656
220	0xbe03af33	-0.12859802
221	0x3e07b435	0.13252337
222	0x3d0ad570	0.033894956
223	0x39c62dd0	0.00037799636
224	0x3cb32065	0.021866033
225	0x3c800c96	0.015631001
226	0x3b7c58f6	0.0038505173
227	0x3cba28e4	0.022724576
228	0xbdb851d6	-0.08999984
229	0x3c995365	0.018716523
230	0x3dc6fb93	0.09715953
231	0x3dbfd56a	0.093668774
232	0x3c26465d	0.010148612
233	0x3ca8e892	0.02061871
234	0xbb2bc1e0	-0.0026208088
235	0x3aee9f0c	0.0018205359
236	0xbcf8bf92	-0.030364785
237	0x3ce19409	0.027536409
238	0xbccd3a2c	-0.025052153
239	0xbd996e96	-0.07491796
240	0x3e12c780	0.14333916
241	0xbd15df54	-0.036589935
242	0xbd54ca10	-0.051950514
243	0xbcb491c7	-0.022042168
244	0x3d594544	0.053044572
245	0xbdd0ee53	-0.10201707
246	0xbc763b28	-0.015028752
247	0xbcbd65ed	-0.023119891
248	0x3c066f8e	0.008205308
249	0x3cb544b6	0.02212749
250	0xbaaae3c8	-0.0013037855
251	0x3b8163bf	0.0039486582
252	0xbd8cac47	-0.06868797
253	0x3d700346	0.05859687
254	0x3b3a4c21	0.0028426724
255	0x3d1a557b	0.037679177

encoder.encoder_g.linear.bias f4 [32]
0	0x3de8f809	0.11375434
1	0x3dc5eeea	0.0966471
2	0xbd230f5b	-0.039809566
3	0xbd2d5a25	-0.042322297
4	0xbea0d084	-0.31409085
5	0x3c6c7b26	0.014433658
6	0xbde056d7	-0.109540634
7	0x3de804ae	0.113290176
8	0xbe1e7e92	-0.1547797
9	0x3df7f2d1	0.121068604
10	0x3dba54ba	0.090981916
11	0xbe10a9ff	-0.14127348
12	0x3dcae587	0.0990706
13	0xbe106a79	-0.14103116
14	0x3ea770f1	0.32703355
15	0x3d1ebedf	0.038756248
16	0x3d9c92ca	0.07645185
17	0xbe299290	-0.16559815
18	0xbc9d2acf	-0.019185452
19	0x3d92f03f	0.071747296
20	0x3bb408fb	0.0054942346
21	0x3e098f17	0.1343349
22	0xbe2ad01a	-0.16680947
23	0x3abd2bd8	0.0014432622
24	0xbe95a960	-0.29230785
25	0x3e43892d	0.19095297
26	0xbd9518df	-0.072801344
27	0xbc8500d3	-0.016235745
28	0x3dab1a41	0.08354617
29	0x3c97748b	0.01848819
30	0x3dbc0c3f	0.09182023
31	0xbbcd9fc6	-0.00627515

encoder.encoder_c.conv1.bias f4 [32]
0	0xbcd7b1ab	-0.026329836
1	0xbd380d76	-0.044934712
2	0x3ada0ccb	0.0016635893
3	0xbd2fbeb4	-0.042906478
4	0x3b37998c	0.0028015105
5	0xbc07cf11	-0.008289115
6	0x3d110ace	0.035410695
7	0x3c9a91ad	0.018868292
8	0x3d1cc318	0.038271993
9	0x3dbb7f9c	0.09155199
10	0x3d891c59	0.0669486
11	0x3cadf5d0	0.021235377
12	0x3ba95182	0.005167187
13	0x3d5a9676	0.053366147
14	0xbcd16e79	-0.025565373
15	0x3c4848d6	0.012224397
16	0x3d47f288	0.04881528
17	0x3ca5d39c	0.020242505
18	0x3d112f23	0.035445344
19	0x3cead608	0.028666511
20	0x3c8a9e16	0.016921084
21	0xbd1c1266	-0.038103484
22	0xbc8b33a2	-0.016992394
23	0x3d4e4fc5	0.050369043
24	0x3d862be9	0.06551344
25	0x3b83a37c	0.0040172916
26	0x3c87282a	0.016498644
27	0xbc2ede06	-0.010673052
28	0xbc9a288e	-0.018818166
29	0x3d6342f5	0.055483777
30	0x3dc48d5f	0.09597277
31	0x3d7044de	0.058659427

encoder.encoder_c.conv1.lin.weight f4 [32, 125]
0	0xbd28fe35	-0.041258056
1	0x3b1a9ab0	0.0023590736
2	0x3d7698df	0.060204383
3	0xbe21ba79	-0.1579379
4	0x3dfe985b	0.12431403
5	0xbdbe7412	-0.092994824
6	0xbccf8a76	-0.025334578
7	0xbdb83646	-0.08994727
8	0xbe49e50f	-0.19716285
9	0xbe613bcd	-0.21995468
10	0xbd65825e	-0.05603253
11	0x3c4801ca	0.012207458
12	0xbe7173bf	-0.2357931
13	0x3e5f399e	0.21799323
14	0x3d1a6509	0.03769401
15	0xbe002fd1	-0.1251824
16	0x3d901790	0.07035744
17	0xbda534fb	-0.08066746
18	0x3ce205e2	0.027590696
19	0x3e90429f	0.28175828
20	0x3cdc79d0	0.026913553
21	0x3e1b9f36	0.15197453
22	0xbe1c9199	-0.15289916
23	0x3d38ee92	0.045149393
24	0x3e3af39b	0.1825699
25	0x3c18560e	0.009297861
26	0xbdebb4d1	-0.11509097
27	0x3d345f46	0.044036172
28	0xbb5fafc1	-0.0034131857
29	0x3df52616	0.11970155
30	0x3e982c24	0.29721177
31	0xbba519c9	-0.005038474
32	0x3d39ee10	0.04539305
33	0xbd531a45	-0.051538724
34	0x3e9854f9	0.2975233
35	0xbd0e5604	-0.03475
36	0xbe4ea46e	-0.20179912
37	0x3cb1d567	0.021708203
38	0xbc782a70	-0.015146837
39	0xbda9db6d	-0.08293805
40	0xbdfbd584	-0.12296584
41	0xbdc88191	-0.09790338
42	0x3e6c036e	0.23048183
43	0x3d8beb0c	0.06831941
44	0x3e12464b	0.14284627
45	0x3e4e3a21	0.20139362
46	0xbdf1c7c4	-0.118056804
47	0x3c0582ea	0.008148888
48	0xbe0db4b6	-0.13838467
49	0xbd28f56b	-0.041249674
50	0xbe3831a8	-0.17987692
51	0xbd351666	-0.044210814
52	0x3c92abcc	0.017904185
53	0x3e3f1e57	0.18663917
54	0xbc88269e	-0.016619977
55	0xbc984e7b	-0.01859211
56	0xbec3cdbe	-0.38242906
57	0x3dca016a	0.09863551
58	0x3d114b2c	0.03547208
59	0x3e3fd14d	0.18732186
60	0xbe26396e	-0.16232845
61	0xbe07ad6c	-0.13249749
62	0xbd38cdd9	-0.045118187
63	0x3d4fa51f	0.05069458
64	0xbb1452b8	-0.0022632312
65	0xbdac4d85	-0.08413223
66	0xbb232eaf	-0.0024899652
67	0x3c3832b4	0.011242557
68	0xbcd8cf72	-0.026466105
69	0xbe145c77	-0.14488398
70	0xbe48a1f7	-0.19593035
71	0xbe4995af	-0.19686006
72	0x3ea57ed8	0.32323337
73	0x3e3c8bbc	0.1841268
74	0x3d70f989	0.058831725
75	0xbdbcab76	-0.09212391
76	0x3cac0673	0.020999169
77	0xbea486b0	-0.32134008
78	0xbc22a469	-0.009926894
79	0x3c9a0847	0.018802775
80	0xbd7e28b0	-0.06205052
81	0xbd94b6a6	-0.072614
82	0x3d590d50	0.05299121
83	0x3e73595d	0.23764558
84	0xbe263464	-0.16230923
85	0xbcaf81e6	-0.021424245
86	0x3dd5e8b3	0.104447745
87	0xbea4c7c5	-0.32183662
88	0x3e510185	0.20410736
89	0x3d8d178d	0.068892576
90	0xbe327261	-0.17426445
91	0xbe574c33	-0.21025161
92	0xbe1916de	-0.1495013
93	0xbda54a6a	-0.08070834
94	0x3e2d4fdc	0.16924995
95	0xbd02c6e9	-0.031927977
96	0xbe93e57e	-0.28886026
97	0x3e21bf3b	0.15795605
98	0xbe561d39	-0.20909585
99	0x3e6fd9ce	0.2342293
100	0x3e8265cc	0.2546829
101	0xbdb248f9	-0.08705325
102	0x3d4f8de4	0.050672427
103	0xbe24b569	-0.16084827
104	0x3dca596a	0.09880336
105	0x3e333cfb	0.17503731
106	0x3cbaf558	0.022822067
107	0x3ac25c56	0.0014828544
108	0x3d6de21c	0.058076963
109	0xbe072c29	-0.1320044
110	0x3e4dd757	0.20101677
111	0x3dbf34b2	0.09336223
112	0x3d9d42e2	0.076787725
113	0x3e854934	0.26032412
114	0x3e7b6e9f	0.24553917
115	0x3d6e6569	0.05820218
116	0xbe4f96e9	-0.20272411
117	0x3cb33c10	0.021879226
118	0x3debbba3	0.11510398
119	0xbe707536	-0.23482212
120	0x3e7c5692	0.24642399
121	0x3db2922a	0.08719285
122	0x3dfb1523	0.12259891
123	0x3e93eebf	0.28893086
124	0x3cc8c793	0.024509227
125	0xbd241c67	-0.04006615
126	0xbe94055a	-0.28910333
127	0x3dacd946	0.08439879
128	0x3e863fa9	0.26220444
129	0x3e00f565	0.1259361
130	0x3e8c308a	0.27380782
131	0x3e077fb9	0.13232316
132	0xbe39f7e4	-0.18160969
133	0xbe5cb44d	-0.21553154
134	0xbe37019a	-0.17871705
135	0x3e47834b	0.19483678
136	0x3c5a7686	0.013333922
137	0x3cae4817	0.02127461
138	0xbd15a687	-0.036535766
139	0x3e82eec2	0.25572783
140	0x3c367362	0.011135908
141	0x3d8b1b4d	0.067923166
142	0x3d26d1e9	0.04072753
143	0x3d8329de	0.0640447
144	0x3d8e8994	0.06959835
145	0xbe1e6e97	-0.15471874
146	0x3d4fbd19	0.050717447
147	0xbd1c1739	-0.038108084
148	0xbe2192f0	-0.15778708
149	0x3e1f35c9	0.15547861
150	0x3d8d85ce	0.06910287
151	0xbcea6daa	-0.028616745
152	0x3ed45cc5	0.41477028
153	0x3d74a219	0.0597249
154	0xba364c30	-0.0006954102
155	0x3ea54b83	0.32284173
156	0x3de74716	0.112928554
157	0xbc584000	-0.013198853
158	0x3e2242af	0.1584575
159	0xbdf4490c	-0.11927995
160	0xbd3dbcf6	-0.046322785
161	0x3dba621e	0.091007456
162	0xbe24d989	-0.16098608
163	0xbbf51c7b	-0.007480202
164	0x3dc27e2f	0.09496724
165	0xbad8af80	-0.0016531795
166	0xbd9184ba	-0.07105394
167	0xba48b6a7	-0.0007656612
168	0xbeaa33b1	-0.33242562
169	0x3d5fd748	0.054648668
170	0xbdc1cbdc	-0.09462711
171	0xbe7a05cb	-0.24416272
172	0xbd9a77fd	-0.07542417
173	0xbcf18e12	-0.02948669
174	0xbeb5ae65	-0.35484615
175	0xbd9563d9	-0.07294435
176	0x3da3c2a2	0.07996108
177	0x3e858542	0.2607823
178	0xbe2af7a7	-0.16696034
179	0x3e87ae7b	0.26500306
180	0x3df00f98	0.11721724
181	0xbea4965c	-0.32145965
182	0xbe355450	-0.17707944
183	0x3ea8627c	0.32887638
184	0xbd9494ed	-0.07254968
185	0x3dd2890c	0.10280046
186	0xbe512811	-0.2042544
187	0xbdd18538	-0.102304876
188	0x3cd1ed8d	0.025625968
189	0xbe0ecc89	-0.13945211
190	0xbc8fbdda	-0.017546583
191	0xbd453a70	-0.048151433
192	0xbeb6dfe0	-0.35717678
193	0xbb34f549	-0.0027612022
194	0x3dfbc5a9	0.1229356
195	0x3c9ff1ff	0.019524572
196	0xbbeeebe9	-0.0072913063
197	0xbd09473e	-0.033515207
198	0xbe4164cb	-0.18886106
199	0xbdf7b7aa	-0.12095578
200	0x3e488abe	0.19584176
201	0xbdb38298	-0.08765143
202	0x3e5139d6	0.20432219
203	0x3cb757d7	0.022380752
204	0x3e3fde20	0.18737078
205	0x3d81f294	0.06345096
206	0x3eba50cb	0.36389765
207	0x3e318404	0.17335516
208	0x3d01725a	0.031603195
209	0x3e7c0735	0.24612124
210	0x3d0b44f5	0.03400131
211	0x3e8b8395	0.27248827
212	0x3e714df1	0.23564889
213	0x3e90a536	0.28251046
214	0x3e11f024	0.14251763
215	0x3e6ffb91	0.23435809
216	0x3d9e2f81	0.077239044
217	0x3cde44f9	0.027132498
218	0xbcdd1e70	-0.026992053
219	0x3cf77650	0.030207783
220	0xbca28c3c	-0.01984226
221	0xbdeaa137	-0.114565305
222	0x3e2d0b24	0.16898781
223	0xbcef7dda	-0.029234815
224	0x3d3d8645	0.046270628
225	0xbe341787	-0.175871
226	0xbda9de16	-0.08294313
227	0xbe178146	-0.14795408
228	0xbe4eee73	-0.20208149
229	0xbcd5cac0	-0.026097655
230	0xbc2a1d32	-0.010382937
231	0xbe2b365a	-0.16719952
232	0xbe30766f	-0.17232679
233	0xbcdc0e00	-0.026862144
234	0xbe940848	-0.28912568
235	0x3d2d3773	0.04228921
236	0xbe0bb3c8	-0.136428
237	0xbe71bdce	-0.23607561
238	0x3e96c28d	0.29445305
239	0x3d8f413c	0.06994864
240	0x3e4bfa79	0.19919766
241	0xbe466175	-0.19373114
242	0xbdfeb293	-0.12436404
243	0xbd85ad7e	-0.06527232
244	0xbe98c847	-0.298403
245	0x3d91eb28	0.071249306
246	0xbdbe49e9	-0.09291441
247	0x3c30e851	0.010797576
248	0x3d2c2ade	0.04203307
249	0xbd7c4654	-0.061590508
250	0x3dc90d04	0.09816936
251	0xbd021d6a	-0.031766333
252	0x3de81fdf	0.11334204
253	0x3e964d74	0.29355967
254	0x3e25b4aa	0.16182199
255	0xbe4e228c	-0.20130366

encoder.encoder_c.conv2.bias f4 [32]
0	0xbc01f096	-0.007930895
1	0xbd653b3a	-0.055964686
2	0x3c880cbc	0.016607635
3	0xbd61d2ce	-0.05513268
4	0x3c8f12a3	0.017464941
5	0xbda93773	-0.08262529
6	0xbd791886	-0.060814403
7	0x3e1bc91b	0.15213434
8	0xbd453d32	-0.048154064
9	0xbd8e1d81	-0.06939221
10	0xbdc011ad	-0.093783714
11	0x3c9ac3b9	0.018892156
12	0xbd14c0bc	-0.03631662
13	0xbe7b7c3a	-0.24559107
14	0x3dcab37d	0.09897516
15	0xbe0c3e06	-0.13695535
16	0xbd65270c	-0.05594544
17	0xbdc9ae45	-0.098476924
18	0x3d01383f	0.03154778
19	0x3c4beaae	0.012446089
20	0xbd923bdd	-0.07140324
21	0xbdfcd846	-0.123459384
22	0x3c6d0c6a	0.014468292
23	0xbdb98f44	-0.09060529
24	0x3d11e31b	0.035616975
25	0xbca93686	-0.020655882
26	0xbd860f9f	-0.06545948
27	0x3dd37d29	0.10326607
28	0xbce04082	-0.02737451
29	0xbd361a23	-0.04445852
30	0xbc20e28a	-0.009819636
31	0x3c137185	0.008999233

encoder.encoder_c.conv2.lin.weight f4 [32, 32]
0	0xbd1d7e0f	-0.038450297
1	0x3e72692e	0.23672935
2	0xbe1def05	-0.1542321
3	0xbe1b6448	-0.15174973
4	0x3ed0da6e	0.4079165
5	0x3d1905a5	0.0373589
6	0xbe92d504	-0.28678143
7	0xbc92f24c	-0.017937802
8	0xbd605d96	-0.05477675
9	0x3d2c8bee	0.042125635
10	0x3d55641d	0.05209743
11	0x3e0e69c6	0.13907537
12	0xbec97a24	-0.39350998
13	0xbcc44119	-0.023956822
14	0x3baa870c	0.005204087
15	0x3dfa7cba	0.12230821
16	0xbe8e3d38	-0.2778108
17	0xbe90d2ee	-0.28285927
18	0xbeaf0e28	-0.34190488
19	0x3e05b58e	0.13057539
20	0xbe447d07	-0.19188319
21	0xbd5c2de7	-0.053754713
22	0x3e079f3b	0.13244335
23	0x3de6933e	0.11258553
24	0xbdb9c41b	-0.09070607
25	0xbe5becb4	-0.21477014
26	0xbdb914bd	-0.09037159
27	0x3e5a846b	0.21339576
28	0xbe3febd4	-0.18742305
29	0xbdeafe82	-0.11474325
30	0x3ed425bd	0.41435042
31	0x3d624837	0.05524465
32	0x3e2c5454	0.16829044
33	0xbcfccfd5	-0.03086082
34	0xbea9b8b2	-0.33148724
35	0xbe81adf1	-0.2532802
36	0x3ebc6ebc	0.36803234
37	0xbe8e2f98	-0.27770686
38	0xbe46087c	-0.19339174
39	0xbe896caf	-0.26840732
40	0x3e5bdb79	0.21470441
41	0xbe886d41	-0.26645854
42	0x3e2a9e51	0.16661955
43	0x3cc181c5	0.02362145
44	0x3e78bf12	0.24291638
45	0xbf00e7e2	-0.50353825
46	0x3df90cc1	0.12160636
47	0x3d31020c	0.043214843
48	0xbd901c71	-0.07036675
49	0xbe2ca238	-0.16858757
50	0x3e1d4922	0.15359929
51	0xbca4ffe6	-0.020141553
52	0x3d2e988c	0.04262595
53	0x3ea2c268	0.31788945
54	0x3e268c58	0.16264474
55	0xbd355997	-0.044274893
56	0x3e736add	0.23771234
57	0xbe674204	-0.22583777
58	0x3d82f4ce	0.06394349
59	0x3e318f82	0.173399
60	0x3e3ec850	0.186311
61	0xbda6fcb6	-0.081536695
62	0xbe6ea249	-0.23304094
63	0x3e4a2f78	0.1974467
64	0x3dad1753	0.08451714
65	0xbcd7008a	-0.026245374
66	0xbd575f11	-0.052580897
67	0xbb9d89c5	-0.004807683
68	0xbda69650	-0.081341386
69	0xbd9407c4	-0.07228044
70	0x3e70be74	0.23510152
71	0x3e07255c	0.13197845
72	0x3e4eca88	0.20194447
73	0xbd6057ca	-0.054771222
74	0x3e8e7527	0.27823755
75	0x3ddab38e	0.106787786
76	0xbe5aab8f	-0.21354507
77	0xbedd5229	-0.43226746
78	0x3ec94b1c	0.39315116
79	0x3dda6952	0.106646195
80	0x3e03f2d2	0.12885597
81	0xbe6ef7f1	-0.2333677
82	0xbe26eec0	-0.16302013
83	0xbe8083e3	-0.25100622
84	0xbe233f0c	-0.15942019
85	0xbd841ca9	-0.06450779
86	0xbe4400c6	-0.1914092
87	0x3e906e1f	0.28209016
88	0x3e649c98	0.22325361
89	0x3eab4746	0.33452815
90	0x3e84be15	0.2592627
91	0xbe06394e	-0.13107798
92	0xbd01d7ad	-0.031699825
93	0xbd825687	-0.0636416
94	0xbda28688	-0.07935816
95	0xbec03af0	-0.37544966
96	0xbe3de47a	-0.18544188
97	0xbe684a72	-0.22684649
98	0xbeb9f881	-0.36322406
99	0x3e5bcf45	0.21465786
100	0x3ebaee6c	0.36510026
101	0xbdcd0ce0	-0.10012221
102	0x3e203c2a	0.15647951
103	0xbdebe63e	-0.115185246
104	0xbcb95165	-0.02262182
105	0xbe4b2dc7	-0.19841681
106	0xbec2d53c	-0.3805331
107	0xbdd77f5d	-0.105223395
108	0x3d192139	0.0373852
109	0x3e960bb9	0.2930582
110	0x3e85d36e	0.2613787
111	0xbe28b8ec	-0.16476792
112	0xbe83db83	-0.25753412
113	0x3dc2eac5	0.09517435
114	0xbdeac3fe	-0.11463164
115	0xbd1ac1cd	-0.03778248
116	0x3ca0e406	0.01963998
117	0xbd9c4f12	-0.07632269
118	0xbba9b3ad	-0.0051788897
119	0xbe3b2524	-0.18275887
120	0x3c976e4d	0.018485213
121	0xbd8c17be	-0.06840466
122	0xbc0258d9	-0.007955753
123	0x3e5dc7ea	0.21658292
124	0x3e148baf	0.1450641
125	0x3e850a53	0.2598444
126	0xbdee5b01	-0.11638451
127	0x3d87c10c	0.06628618
128	0xbec0f865	-0.3768951
129	0x3eaa410e	0.33252758
130	0x3e806a19	0.25080946
131	0xbe48f2bf	-0.1962385
132	0x3d828c17	0.06374376
133	0xbe00eae6	-0.12589607
134	0x3dde347e	0.10849856
135	0xbe6a2799	-0.22866668
136	0x3d6d2595	0.05789717
137	0xbd883cf8	-0.06652254
138	0x3e3a9666	0.18221435
139	0xbe987654	-0.29777777
140	0xbde0c512	-0.10975088
141	0x3e32223e	0.17395875
142	0x3e1f3f08	0.15551388
143	0xbeb3ee33	-0.3514267
144	0xbd881092	-0.066437855
145	0x3dda5f6f	0.10662734
146	0x3e279c0f	0.16368125
147	0xbe8e35ef	-0.27775523
148	0xbe9ec644	-0.3101064
149	0xbd55d300	-0.05220318
150	0xbb4ca83a	-0.00312282
151	0x3eb4ca1f	0.35310456
152	0x3dbf087e	0.09327792
153	0x3d9b07ea	0.07569869
154	0x3e316099	0.17322005
155	0xbe83f2b7	-0.25771114
156	0x3e9805bf	0.29691884
157	0x3eb14394	0.3462187
158	0x3ce7e2ce	0.028306391
159	0x3e1c3542	0.15254691
160	0xb938bee0	-0.00017618714
161	0xbeea70bf	-0.45789143
162	0x3e13d135	0.14435275
163	0x3e35e14a	0.17761722
164	0xbdbb7c7e	-0.091546044
165	0x3ded9894	0.116013676
166	0x3dfa3f38	0.12219089
167	0xbe0ecf14	-0.13946182
168	0xbe6e3d03	-0.23265462
169	0xbe6235ce	-0.22090837
170	0x3eda87c6	0.42681712
171	0xbe424016	-0.1896976
172	0x3e8152d9	0.2525852
173	0xbe249798	-0.16073453
174	0x3c62a4cc	0.013833236
175	0xbe40b455	-0.18818791
176	0xbcafbe1d	-0.021452958
177	0x3d31e57d	0.043431748
178	0xbd917238	-0.071018636
179	0x3e9e935d	0.30971804
180	0x3c88ae05	0.016684541
181	0xbe99279e	-0.29913038
182	0xbe84724c	-0.25868452
183	0xbe221ca6	-0.15831241
184	0xbd5dd6ca	-0.054159917
185	0x3d809a40	0.06279421
186	0x3e818c29	0.25302246
187	0xbda79dd8	-0.08184403
188	0xbc543578	-0.012952201
189	0x3e973ec4	0.29540074
190	0x3ebe6e3d	0.3719348
191	0x3e70f6aa	0.23531595
192	0x3eb6c3ea	0.35696346
193	0xbe03afa0	-0.12859964
194	0xbcd374fc	-0.025812618
195	0x3ede75a0	0.43449116
196	0x3dae4e47	0.08511024
197	0x3e859cb1	0.2609611
198	0xbebf5b29	-0.37374237
199	0xbe4c5f78	-0.19958293
200	0x3e8f4445	0.27981773
201	0x3d5b1522	0.05348695
202	0x3dc5273f	0.09626626
203	0xbeb697ad	-0.35662594
204	0xbebea7c7	-0.3723738
205	0xbe0b01b8	-0.13574874
206	0x3dba4f4b	0.09097155
207	0x3ec10ebf	0.37706563
208	0x3e7ec680	0.24880409
209	0xbe733d47	-0.23753844
210	0x3e37ff7a	0.1796855
211	0x3d9af995	0.07567135
212	0xbe84e81f	-0.25958344
213	0xbe9d6857	-0.30743667
214	0xbe3e8f7a	-0.1860942
215	0xbd6a9074	-0.057266667
216	0xbe493ff2	-0.196533
217	0x3e0c2f86	0.13690004
218	0x3e34ca62	0.17655328
219	0x3dd82d25	0.10555486
220	0x3e281083	0.16412549
221	0x3d3ec696	0.046576105
222	0xbdec6d02	-0.11544229
223	0xbc063d1f	-0.008193283
224	0x3e276eab	0.1635081
225	0x3e203ab5	0.15647395
226	0x3e63c643	0.222436
227	0x3e51953c	0.20467085
228	0xbe43c7b7	-0.19119154
229	0xbe43b51a	-0.19112054
230	0x3e602e1c	0.2189259
231	0xbdc457e4	-0.09587076
232	0x3d1dc1ee	0.038515024
233	0x3e120a81	0.1426182
234	0x3e8e39c9	0.27778462
235	0x3dd88a95	0.105733074
236	0x3df5979c	0.11991808
237	0xbe96fb79	-0.29488733
238	0xbe22adfd	-0.15886684
239	0x3e346cbb	0.17619602
240	0x3d40dec7	0.047087457
241	0xbe02b15a	-0.12762967
242	0xbea6b578	-0.32560325
243	0x3c83c20c	0.01608374
244	0xbea01040	-0.31262398
245	0x3ef45493	0.47720775
246	0x3ebb3b8d	0.3656887
247	0xbd8b2d71	-0.06795777
248	0xbe639805	-0.2222596
249	0xbdf17e2d	-0.11791644
250	0xbe7549e2	-0.23953965
251	0xbdb1f921	-0.08690096
252	0x3db028ff	0.086015694
253	0x3e4f6664	0.20253903
254	0xbdc1accc	-0.094567865
255	0x3e9fbd68	0.31199193
