output/tansfer/seqfish/sc_0.1.pth (torch, 220103 bytes, 10 tensors)

encoder.encoder_g.conv1.bias f4 [32]
00000000: 0e93 18bd bac0 f0bc cd75 0fbd 2a0e 8ebd
00000010: 1aa6 94bc 82b2 43bd b610 c6bd 284c 90bd
00000020: bdc2 88bd 7397 64bd 21b5 3abd 50ae 85bd
00000030: 1aea 4bbd 8b01 07bd 301f 88bd 99c8 86bd
00000040: 2b3e 16bd 7aa2 0abd d95d 56bd 8f71 89bd
00000050: 9de9 63bd 9396 89bd 16b9 90bd 45c4 12bd
00000060: 94f1 7abd 0785 11bd 54f2 84bd dc81 6abd
00000070: 4ff2 86bd d330 d5bc 8bc5 34bd 3aca 8dbd
-0.037249617 -0.029388774 -0.035024453 -0.06936295 -0.01814561 -0.04777766 -0.09671156 -0.07045776
-0.066777684 -0.055808496 -0.045582894 -0.06527388 -0.049783804 -0.032960456 -0.066465735 -0.0658123
-0.03668038 -0.033846356 -0.052335594 -0.06711113 -0.055642713 -0.06718173 -0.07066552 -0.03583171
-0.061265543 -0.035527255 -0.06491533 -0.05725275 -0.065891854 -0.026024258 -0.044133704 -0.06923337

encoder.encoder_g.conv1.lin.weight f4 [32, 64]
00000000: df2a c53b 67b1 873e 0715 2b3e 3e84 1a3e
00000010: 845e c5bd 22e1 ad3d 7ea1 f6bd 68d9 4dbe
00000020: 760d f1bd 6e36 28be 3d8c 1b3c 1d4f bb3d
00000030: fcd4 24be d78f ac3d 6285 353c a060 103e
00000040: 641f 45be 5371 5c3e 3d5d ec3d 022e 393e
00000050: 67df 933d 3645 4b3e ff67 4a3e 628e 423c
00000060: d848 cf3d ccd2 e6ba 4c19 383d 16c6 2dbd
00000070: 30d2 17ba 8e29 233e 1651 5cbe da05 ca3d
00000080: 799b 36be 6199 0dbe aa82 8b3d 5b38 56be
00000090: 6e00 1abd ca77 5fbe cf9f 23bd d452 49be
000000a0: a5a3 59be 89d6 41be d6c5 333e f21a c5bd
000000b0: 0c0b bdbc 5b6e 343e 032a 36bd caf8 5ebe
000000c0: 5bd6 b03d b9f0 3dbe 902b 2f3e 71ab c83e
000000d0: 471f d3bb 9082 0e3e 121d b33d 8173 20be
000000e0: e2f1 8a3e e13b 9abd fef2 233c e1ab 3f3e
000000f0: a9e3 6c3e 978d 7dbe 0bff 3c3d 19d6 36be
00000100: 5f0c 413e 66e6 6c3e c870 29be 2870 8fbd
00000110: afd2 2a3d 4b8c 7abd 5233 a23d acc7 233e
00000120: 1626 39be d505 8d3e 39c8 483e aa4b 853d
00000130: 9c15 48be 2566 3ebd fc54 81bd 372f 53be
00000140: ead7 5dbe 40bf f23d 7d6d 103e 72aa febd
00000150: 8e0d f23d a7a8 b03d 6dcd 72be e1f1 6cbd
00000160: 7ec1 29be ab6c 3dbe 59de e6bd b650 bdbc
00000170: 47ea 5dbb 86e2 abbd bab0 b83d 2bef 613e
00000180: 5fd2 26bd 87ac 97bd 4097 563e 6915 76bc
00000190: 07a3 b7bd 29f9 013e 64f1 d23c 0f09 6e3e
000001a0: e5a4 a4bc 189a fa3d 0fd4 283e 8f36 1bbe
000001b0: 364c e8bc 89a9 9e3d 16b8 44be 0d84 59be
000001c0: c549 a33d 5f48 433e 1f4a 3abe b99d e5bd
000001d0: d504 c83d 06b7 9fbc fe56 873e f25b e2bd
000001e0: a0d6 c2bb 514d 4c3e e4aa 503d 2e21 253e
000001f0: 2c2d 2a3e 0bb4 02be 5fd5 5b3e 99ea 903c
00000200: a5dc f63d ad09 893e 3741 54be 959d 82bb
00000210: bba5 c13c 17f1 37be a636 0cbd 89d5 0ebe
00000220: 7ace 8d3d d9d4 8a3e 0ebd 8f3d abfe 7dbc
00000230: 539f 653b 2067 ebbd a2ed 53be 38f1 32be
00000240: f4b8 76bc 2095 42bd 0f99 a0bd 2a3c 2d3e
00000250: f52a 343e b571 d0bd 9ac9 2bbe d7ef efbd
00000260: b8f9 18be 2732 39bd 9f02 653d 6501 49be
00000270: 0355 2e3e 526c d33b 400f a9bd 144d 00be
00000280: 3d89 dc3d 3d93 3fbe 4281 d3bd 9e9c 16bd
00000290: b78d 01be f55c 50be be3c d33d 2518 32be
000002a0: 7514 4c3d a165 66bd 2dba 553e 81a8 493e
000002b0: 34e4 c23d 28b7 d43d 5b2b e83c ac86 0d3e
000002c0: 71aa e9bc 1ab1 093d bf64 6a3e 817e eebc
000002d0: d021 003e 8fc3 033e 8534 673e 2256 08be
000002e0: 3b7e 0abe 1c35 633c 1021 c5bd 009e 23be
000002f0: eac3 8f3e 5ee8 913c 3907 ea3c 4a08 82bd
00000300: 630c 2f3d 8875 96bd 696a 74bd 4a99 763e
00000310: ae51 ad3d 772b 483e 6358 07be dc0e ca3d
00000320: b15f 8b3e 7ae3 a03d 9567 52be 9513 d8bd
00000330: 5d3c a03e 65ae 493d 2668 f03d 1459 afbc
00000340: bbd1 dc3d d06c 913d f012 0b3a f6c7 53be
00000350: 30a8 113e bae1 1e3e dba9 a5bd 8aad 2ebe
00000360: f14e eabb 1607 903e f9d8 8bbd 9e85 9abe
00000370: 3068 25be a986 b33c 2282 1e3e ebed 2e3e
00000380: e4e5 bebb 9ecc be3d 0798 2f3e 9108 053c
00000390: d169 15bc 225e f139 45d0 753d e857 7e3d
000003a0: ddd0 1e3e 4eb5 6dbd 9ed6 75bd 41fd acbd
000003b0: 1679 98bc 9e7d 29be c57b 453e 5a72 60bd
000003c0: 2b7e e6bd da7d 23be 7b1a 773e fcd1 c8bd
000003d0: b43e 26be 6b1b be3b 8991 8dbd 3281 02be
000003e0: 59a1 a03d b364 e1bd fc35 3cbe 9dc3 eabd
000003f0: 8d7d a33e 247c 91be 3bfd 23be 94ff cc3c
0.0060170735 0.26502535 0.1670724 0.15089509 -0.09637168 0.08490206 -0.12042521 -0.20102465
-0.117701456 -0.16427013 0.009493885 0.09145949 -0.16096872 0.08425873 0.011079164 0.1409936
-0.19250256 0.21527605 0.11541221 0.18083957 0.07220345 0.1985062 0.19766234 0.011874767
0.10121316 -0.001761043 0.044946 -0.042425238 -0.0005791513 0.1593382 -0.21515307 0.09864397
-0.17832746 -0.1382804 0.068120316 -0.20919935 -0.037598066 -0.2182304 -0.039947327 -0.19660503
-0.21253832 -0.18929495 0.17555937 -0.0962428 -0.023076557 0.17620222 -0.04447366 -0.21774593
0.08634635 -0.1854886 0.17106462 0.391933 -0.0064429375 0.13916993 0.08745779 -0.15669061
0.27137667 -0.07530952 0.010006664 0.1871791 0.2313372 -0.24761043 0.046141665 -0.1785511
0.18852375 0.23134765 -0.16546929 -0.07003814 0.04170483 -0.06116895 0.07919945 0.15994138
-0.18080935 0.27543512 0.19607629 0.065085724 -0.19539493 -0.04648413 -0.063150376 -0.2062348
-0.21664396 0.11852884 0.14104266 -0.124348536 0.118189916 0.08625918 -0.23711176 -0.05784786
-0.16577718 -0.18498485 -0.11272878 -0.023109775 -0.0033861564 -0.08392815 0.09018083 0.22063892
-0.04072797 -0.07405954 0.20956135 -0.015019753 -0.08966642 0.12692703 0.02574987 0.23245643
-0.02009816 0.12236422 0.16487144 -0.15157531 -0.028356653 0.0774718 -0.19210848 -0.2124178
0.07973055 0.19070576 -0.18192337 -0.11211724 0.09766547 -0.019496452 0.26433557 -0.110526934
-0.0059459955 0.19951369 0.050944224 0.16125938 0.16618794 -0.12763993 0.21468113 0.01768999
0.12053803 0.26765195 -0.20728002 -0.0039860704 0.023638597 -0.17963062 -0.034231804 -0.13948645
0.06924148 0.27115515 0.07018481 -0.015502612 0.0035037592 -0.11494279 -0.20696118 -0.1747483
-0.015058745 -0.047505498 -0.078416936 0.16917482 0.17594512 -0.10177938 -0.16776124 -0.11715668
-0.1493901 -0.045213845 0.055910703 -0.19629438 0.17024617 0.006452122 -0.08254862 -0.12529403
0.107683636 -0.1870851 -0.10327388 -0.036770456 -0.12651716 -0.2034796 0.1031432 -0.17392023
0.049824197 -0.056249265 0.20871802 0.19693185 0.095161825 0.10386497 0.028340986 0.13820904
-0.028523656 0.033616163 0.22889994 -0.029113056 0.12512898 0.12867568 0.22578628 -0.13314107
-0.13524716 0.013867643 -0.09625447 -0.15978241 0.28079158 0.017810997 0.028567897 -0.06349237
0.042736422 -0.07346636 -0.059671793 0.24081913 0.08462845 0.1954783 -0.1321731 0.098661155
0.27221444 0.07855888 -0.20547326 -0.1055061 0.31296054 0.04923858 0.11738615 -0.02140478
0.107821904 0.071008325 0.0005305251 -0.20681748 0.14224315 0.15515795 -0.08089038 -0.17058387
-0.007150524 0.28130406 -0.068284936 -0.30180067 -0.16153026 0.021914797 0.15479329 0.17082946
-0.005825745 0.093163714 0.17147838 0.008119718 -0.009119467 0.00046037236 0.060013074 0.062095553
0.15509363 -0.058034234 -0.060019128 -0.08446742 -0.018612426 -0.16551825 0.19285496 -0.054796554
-0.112545334 -0.15965977 0.24131195 -0.09805676 -0.16234857 0.0058016083 -0.06912524 -0.12744597
0.078432746 -0.11005535 -0.18379968 -0.114630915 0.31931725 -0.28415024 -0.16014569 0.025024213

encoder.encoder_g.conv2.bias f4 [32]
00000000: fd5a 623c 8c02 153c 1ddf 9fbc 8ce6 56bc
00000010: 1fae 45bd 9d45 a53a ec43 c83b 6c05 b3bb
00000020: 58ba 633b e1d4 55bb 619d 933c 1a3b 33bc
00000030: d023 403c 1d9e 26bc dc24 6d3b 4c10 ac3b
00000040: 4330 36bc bf15 9bbb 1c4d 54bc 6cfb 5f3c
00000050: 4940 aabc 47d6 50bc 0fca c93c aae6 c4bc
00000060: 1b46 36bc e8ef d93b ede7 c23b 9628 b9bc
00000070: 5e93 89bc 6447 da3b 04d8 243c 1bf2 223b
0.013815639 0.0090948455 -0.019515568 -0.01311649 -0.048261758 0.0012609247 0.0061116125 -0.005463293
0.003474852 -0.0032628106 0.01801938 -0.010939384 0.011727288 -0.010169533 0.00361853 0.005250966
-0.011119905 -0.004732817 -0.012957837 0.0136707835 -0.020782607 -0.0127464 0.024632482 -0.02403577
-0.011125113 0.0066509135 0.005948058 -0.02260236 -0.016793903 0.0066613425 0.010061268 0.0024863544

encoder.encoder_g.conv2.lin.weight f4 [32, 32]
00000000: 7e0c e4bd aa82 7bbc 404f bbbd 7dd5 0a3e
00000010: a5ee 503e 77e0 09bd 6fe6 b73e 6e4a a4bd
00000020: 81eb 40be 8d6c 013e 1fd4 67bd 1e01 653e
00000030: 093a 3dbe 6fb4 873d bd50 ae3e 1bb7 a5bd
00000040: 6078 213e b827 7bbd 513f 4ebe a6d3 ffbd
00000050: e07f 22be 8bef 51be 1be7 6f3e 4237 473e
00000060: 43f5 d13d 5c34 3b3d 2c99 eabd 10a5 1ebd
00000070: 282f 6dbe 6379 9e3e 7b48 a23e 7e49 943c
00000080: a2df b5bd aaa8 8c3e 1f09 fabd cd84 f1bd
00000090: 03e6 31be 7489 09be 95f2 bd3b ce08 a13d
000000a0: 8e96 13bd 4eeb 9e3d 2dcf c3bd adce cebd
000000b0: 67ef 413e 64ec 5f3e 2ff5 103d 25f1 773e
000000c0: b6a6 d23d 09bd fd3c 6894 463d 6779 9c3e
000000d0: 5ac0 053e 5b84 bf3d 4375 4a3e aa11 9b3e
000000e0: fb89 e13a e1d7 61bc 3086 c43e 99ea 17be
000000f0: 8526 3fbe c793 ee3c 5916 18be 0447 833e
00000100: 6a5b 113e 9f52 68be eee9 383d 317b cc3d
00000110: 2d9e 8f3e 9ffd 5e3e f926 c13d a272 b7bd
00000120: c7f7 7cbe 4d2b 9ebe af5a b23d 3a3e 433e
00000130: 0e1d 673d 0170 443e c9cc 3cbe 6d78 98be
00000140: 4771 fbbd 0a39 663e 2782 1c3e a345 093e
00000150: 51f4 e93d 57bd 9abd e48c 853b 0501 823e
00000160: b5db e7bd 0637 9bbe 2634 053d 51a9 d13d
00000170: 08e7 1abc 92ca c43d 7c31 8dbe b5b1 083e
00000180: 26c0 5e3e 90a7 9c3d 32d8 fc3d d377 dfbb
00000190: 483f 5ebd 2a28 d73d 0b8c 64bd 5351 3bbd
000001a0: 4338 4bbd 7e17 5fbd 0501 8cbe 5d47 a0bd
000001b0: b38d 5f3d abcf 1dbe 11bb 89be cd13 2a3e
000001c0: 49ee 6a3e 9908 8dbe fa9e 4c3e 93ac 273e
000001d0: 31d4 7b3e 1c0c bcbe c800 753e 13f4 e2bd
000001e0: c1af 7ebe 385a e83d 8936 bfbc b8f8 ca3d
000001f0: 8f6d 82be 5548 5ebd 8f23 1d3e 83f9 c73d
00000200: b84c 463c b167 413e 755c 4e3d 3bce 7c3d
00000210: 5013 8a3d 109c 9ebe 937d 093e 2969 9ebe
00000220: 7723 18be f4a7 c4be 1a5a 68be 9090 72be
00000230: 974b 153e e067 e23d ef2e 203e 8193 cc3d
00000240: 4e57 2ebe a91a 85be 5975 31be dbc7 54be
00000250: ec37 dfbd 4c6a 323e c39a 8b3b 0d11 013e
00000260: 0f94 b03d f9cb c83d 4deb 92be b97e 393c
00000270: ab7b ccbd 34df 173e 67c1 473e 2870 353e
00000280: 9428 3dbe 7ba1 a33d eada 8f3e be16 b33c
00000290: 8932 2f3e 0b0e d53d a2cf 0b3e 926e 6f3e
000002a0: eb1b 9bbd 614a 9a3d 6f15 74be e095 173e
000002b0: bbfc 043e 8c67 87be 7f27 893c 5fda 22be
000002c0: 1a14 843e 213f 26be b53f 93be c9df 6bbe
000002d0: 249b 70bd de4f a23e 2b16 33be a92e 3b3e
000002e0: ac98 073e c57a 82be 4613 093e 167c 48be
000002f0: 1490 01be e2b4 77bc eeb2 4e3e 8c6a a5bd
00000300: 3f97 523e 2a3e 713e 1c19 6cbe 96d9 c6bd
00000310: e381 7d3d 87af 95bd a657 46be 5c52 453e
00000320: c456 9ebd 3bab 66be 9f57 b3bd 7464 dfbd
00000330: 6994 d5bc cc98 19be d2cb b03e b5c5 993e
00000340: d432 2e3e e055 1ebd 8a0d 9dbc 492c 553d
00000350: 2b28 57be c59a 973d 2349 94bd aa64 9b3e
00000360: 0883 1e3d ba80 903d e207 23be 2910 a43d
00000370: 86a3 e8bc 4b53 a73d 4028 523e 7cea 4c3e
00000380: 51f9 76bc 7f99 833e 0e12 9cbd e4f8 603e
00000390: d5f4 18be dd63 2fbe 8a2e bfbc 8442 0ebe
000003a0: e5fb a3bc bbbf 633e a121 86bd 52ab c63d
000003b0: 9a91 a2be 9f36 893e a0f5 843d ec51 b6be
000003c0: 99d5 f53d 3bbe 403e 3b1a f83c be62 57be
000003d0: 8b57 dd3d ecf0 d2bd 7beb 91be 87a7 3f3e
000003e0: c604 3fbe 3e54 b1bd fa90 493e 73b6 973e
000003f0: 8ceb 92be a5a0 03be 3eac e33c 4759 94bc
-0.11135195 -0.015350977 -0.09145975 0.13558002 0.20403536 -0.033661332 0.35917994 -0.08022009
-0.18839838 0.12639065 -0.05659878 0.22363707 -0.1847917 0.06626212 0.34045973 -0.08091565
0.15768576 -0.061317176 -0.20141341 -0.124915406 -0.15869093 -0.20501535 0.23428003 0.19454673
0.10251858 0.04570423 -0.114549965 -0.038731635 -0.2316252 0.30951986 0.31695923 0.01810145
-0.08880545 0.2747243 -0.12208771 -0.11792908 -0.17372899 -0.1343134 0.0057967403 0.078630075
-0.036032252 0.077597246 -0.09561 -0.10098014 0.18938981 0.2186752 0.035390075 0.24213083
0.10285704 0.030973928 0.048481375 0.30561373 0.13061658 0.09351417 0.19771294 0.30286914
0.0017207259 -0.01378438 0.38383627 -0.14835586 -0.18667038 0.0291232 -0.14852275 0.25640118
0.14195028 -0.22687767 0.045144968 0.099844344 0.28050366 0.21776436 0.094312616 -0.08957411
-0.24703895 -0.3089241 0.08708703 0.19066706 0.056424193 0.19183351 -0.18437494 -0.29779378
-0.12277465 0.22482696 0.15284024 0.1340547 0.11423553 -0.07555645 0.0040756334 0.25391403
-0.11321203 -0.30315417 0.032520436 0.10237373 -0.009454496 0.0960895 -0.27576816 0.1334904
0.21752986 0.076491475 0.123459235 -0.006819704 -0.05425957 0.105057076 -0.055797618 -0.045731854
-0.049614202 -0.054465763 -0.27344528 -0.078261115 0.054578494 -0.1541125 -0.26900533 0.16609116
0.22942461 -0.27545622 0.1998252 0.16374426 0.24592663 -0.3672799 0.2392608 -0.1108171
-0.24871732 0.11345333 -0.023341434 0.099107206 -0.25474212 -0.0542682 0.15345596 0.097643875
0.012103252 0.18887211 0.050381143 0.061720114 0.06741965 -0.3097844 0.13426809 -0.30939606
-0.14857279 -0.38409388 -0.22690621 -0.23687959 0.14579616 0.11054969 0.15642904 0.09989072
-0.17025492 -0.25996903 -0.17329921 -0.20779364 -0.10899338 0.17423362 0.0042603924 0.1260416
0.0862199 0.0980453 -0.28695145 0.011321717 -0.09984525 0.14831239 0.19507371 0.17718565
-0.1847251 0.07989784 0.28096706 0.02186143 0.17109121 0.10403069 0.13653424 0.23382023
-0.07573684 0.07533718 -0.23836301 0.14803267 0.12987034 -0.26446187 0.016742466 -0.15903614
0.25796586 -0.1623502 -0.28759542 -0.23034586 -0.058741704 0.3170156 -0.17488925 0.18279518
0.13241833 -0.2548429 0.13386258 -0.19578585 -0.12652618 -0.015118809 0.20185444 -0.08076963
0.20565508 0.2355887 -0.23056453 -0.0970947 0.061891448 -0.0730887 -0.19369373 0.19269699
-0.07731393 -0.22526257 -0.08756947 -0.10907832 -0.026071744 -0.14999694 0.34530503 0.3003365
0.17011577 -0.038656116 -0.019171495 0.052044187 -0.21011417 0.07402567 -0.07240512 0.30350238
0.03869918 0.07055803 -0.15920976 0.08010895 -0.028398287 0.08170184 0.20523167 0.20011324
-0.01507409 0.25703046 -0.07620631 0.21969944 -0.14937146 -0.17127939 -0.023337621 -0.13892561
-0.020017574 0.22241108 -0.06549383 0.097006455 -0.3175171 0.26799485 0.06492162 -0.35609376
0.12003631 0.18822567 0.030285945 -0.21033761 0.10807713 -0.102998585 -0.2849997 0.1871625
-0.18654165 -0.08658646 0.1968421 0.29631385 -0.28695333 -0.1285425 0.027792092 -0.018108977

encoder.encoder_g.linear.weight f4 [32, 1440]
00000000: 4c9c 9b3c 7ae1 6b3b 1c1b 25bd 8630 883d
00000010: 8d70 adbc 05b6 42bc 8798 f1bb 8a0d 393d
00000020: 41fa 9d3c 5811 393c a3c4 78bc f431 0b3c
00000030: d421 96bc 107b d23b 4516 84bc 3a30 dabb
00000040: 4bb5 273b e7e9 1fbd 9971 7fbc a733 893c
00000050: 14b0 f6bb 8aa9 f2bb d7ec 32bd c50d 853b
00000060: 26c7 9cbb 21fc f1bc 4895 973b 0585 403c
00000070: 274c a1bc 6f16 893c 1928 023d 821e 16bd
00000080: ae24 eb3b 6ba5 08bd 6537 403c 0c46 8e3d
00000090: 3257 9cbc 90ce adbb 8aa6 95bc 0749 313d
000000a0: e5eb dabc a17f ab3b c22f a8bc ea11 cf3b
000000b0: 15c8 3b3c 617c ccbb cc56 a63c b7e7 bc3c
000000c0: 83c9 9dbc 8215 85bc e208 793c 2c3f 3c3d
000000d0: 7b04 ca3c 98ac bd3a 4aa3 d8bb cf7b edbb
000000e0: fe57 cc3b da71 183c fa49 0ebd c4f8 abbc
000000f0: 8502 ebbb 62a3 ecbc 85dc 143c 3abb 0ebd
00000100: 9ded 14bc 1d9b 0fbd 78af 23bd 67fa ff3c
00000110: d535 69bc 6879 213c 9832 15bd 5e3b 533d
00000120: c9a8 e03b 13b8 27bc 90e7 f939 1cff 00bd
00000130: cf1c bd3b 02c4 033d 2ead 683c 5b7a 2e3b
00000140: e8a6 a8bb 04d0 ffbc d201 ed3c 73af 453d
00000150: 1bf3 e53c 6c7f f3bc 76ed 42bc a4f3 223c
00000160: a80c 74bc 978e d33b 67a8 0abd 04fd 1c39
00000170: 49d8 bebc 85ac 9d3b 8ba3 6b3c 45b8 0fbd
00000180: f10c 6c3c 6cc3 14bb bf3c e9bc 04fe 433d
00000190: a5b3 f0bc 5260 5b3c 25cb 10bc a311 bc3c
000001a0: 8cb0 38bc cbbf c73c 99a6 af3c 3891 76bc
000001b0: 2add 66bb d291 0bbc cb4b 773c d869 e03b
000001c0: b51d 65bb 1fe9 0fbd e441 6d3c 83dd 053d
000001d0: 1785 2a3c d57a 08bd 7c82 433b 7b61 8bba
000001e0: 791e 1bbd d2b8 f7bc bc8c c4bc 3ed7 ffbc
000001f0: ad57 08bd aaf2 e63b b468 353c ab32 ffbc
00000200: 8c03 0a3d 10a8 cabc 024f 133c ccb7 a83c
00000210: b7e0 623a 26f7 083d b682 13bb 626d e63c
00000220: 627e bb3c 2673 babc 3c7c 9a3c 3e67 b9bb
00000230: 17e0 8c3c 2ee7 193c 9bd0 abbc c50b 273d
00000240: 8008 c3bb d02b a5bb 62da a63c fd77 693d
00000250: 3ce9 9b3c 8f69 2dbc 4ac0 88bc bcee 68bc
00000260: b12f bbbb fbe7 d6bc e732 cf3b 9c84 7f3b
00000270: 47c3 b6bc 3683 d53b 8386 1dbc 8553 c4bc
00000280: 52d5 a73b 0313 d43b 779d ffbc 7bdc a63c
00000290: 30b0 ed3a 8a69 163d 2582 9cbc 30fa 663d
000002a0: a266 35bc bdb2 cb3a 6b4c a83b d048 f4bc
000002b0: 631e fd39 08b8 213d 9185 1cbc 6c3c eabb
000002c0: 8e9b b93a 7fe6 9dbc 5c9b 963c 1740 c13c
000002d0: d9ed 91bc 05f9 b3bc f7f1 acbc baf7 dc3c
000002e0: 97c2 dabc 7e95 91bb ebec b9bc 56fc 40bc
000002f0: fa9c 09bd 125c 043c ee78 b73c 2af7 34bd
00000300: 08f9 1a3b 6eec 89bc 669f ff3b 9708 9d3c
00000310: 184a 08bd a5cf e53c fa1f 21bd 6103 933d
00000320: f324 bb3c 406f 9838 23cf ee3c cc20 90bc
00000330: 2095 16bb 8889 0c3d 3b7b acbc 0a25 2d3b
00000340: bea3 313c 1a79 6a39 a5ad d73c be18 403d
00000350: b139 75bc c8ed 31bb 2df9 24bc 716f 6ebc
00000360: ac10 f4bc cf78 e83b cbf6 87bc 42d0 97bc
00000370: 4b12 05bd 4d9f 1b3a 7a6c dd3c ae8d dcbc
00000380: ecb9 403c 4aaa 0bbd 26d8 b9bc 6831 803d
00000390: 4763 bcbc f24f dc3c b1df 14bc a5a0 473d
000003a0: 2f37 9fbc 660b 28bc a98e a0bc a590 cabb
000003b0: 91e0 023c ca60 f53c f396 af3c 324e 0b3d
000003c0: 34b6 d0bc 543a 9a3a c3d6 78bc eda4 d63c
000003d0: 49aa 56bc 2298 debc 38e8 9038 44e2 acbb
000003e0: 98af abba 7041 ef3b ec2f d4bc 3520 763c
000003f0: e89f 58bc 7d95 a23c 0ea6 133d f3c5 14bd
0.018995427 0.0035992549 -0.040309057 0.0664988 -0.021171832 -0.011884217 -0.007372919 0.045178927
0.01928437 0.011295639 -0.015183601 0.0084957965 -0.018326677 0.0064233616 -0.0161239 -0.006658581
0.0025590237 -0.039041426 -0.015591049 0.016748263 -0.0075283144 -0.0074054645 -0.0436829 0.0040604793
-0.0047844825 -0.02953917 0.00462595 0.011750464 -0.019689633 0.01673433 0.03177652 -0.03665019
0.0071760034 -0.03336088 0.011731957 0.06946954 -0.019084547 -0.005304165 -0.018267889 0.043282535
-0.026723811 0.0052337204 -0.020530585 0.006319274 0.0114612775 -0.006240413 0.02030506 0.023059709
-0.019261127 -0.016245607 0.015199872 0.045958683 0.02466034 0.0014470993 -0.0066112624 -0.007247425
0.0062360754 0.009304488 -0.03473852 -0.020992644 -0.007171931 -0.0288865 0.009085779 -0.034846522
-0.009089855 -0.035060037 -0.039962262 0.03124733 -0.014234026 0.009855606 -0.036425203 0.05157029
0.0068560583 -0.010236758 0.00047665508 -0.03149329 0.0057712565 0.03216935 0.0142014455 0.0026623223
-0.00514685 -0.03122712 0.028931532 0.048263025 0.028070023 -0.029723845 -0.011897435 0.009945784
-0.014895596 0.006456207 -0.033852007 0.00014971575 -0.023296492 0.0048118257 0.014382253 -0.035087842
0.014407382 -0.0022699488 -0.028471349 0.04784967 -0.029382536 0.013389664 -0.008837496 0.022957629
-0.011272561 0.024383446 0.021441745 -0.015049271 -0.003522704 -0.008518653 0.015093754 0.006848555
-0.0034960334 -0.03513443 0.014481042 0.032681953 0.010407708 -0.033320267 0.0029832413 -0.001063391
-0.037870858 -0.030239496 -0.023992889 -0.031230565 -0.03328674 0.007047971 0.011072326 -0.03115209
0.03369479 -0.024738342 0.008991005 0.020595454 0.0008654701 0.033438824 -0.002250833 0.02812833
0.022887412 -0.022759985 0.018858068 -0.0056580594 0.017196698 0.009393496 -0.020973494 0.04078271
-0.005951941 -0.0050406232 0.020367805 0.056999195 0.019032113 -0.010584249 -0.016693253 -0.014217075
-0.0057124724 -0.026233664 0.0063232067 0.0038988953 -0.022309912 0.0065158857 -0.00961459 -0.023965606
0.0051218653 0.006471993 -0.031203015 0.020368805 0.0018134173 0.036721744 -0.019105026 0.05639094
-0.011071833 0.0015540939 0.005136063 -0.029819876 0.0004827856 0.039482147 -0.009553329 -0.007148316
0.0014160739 -0.019274948 0.018384628 0.02359013 -0.01781361 -0.021969328 -0.021111472 0.026973594
-0.026704116 -0.0044428697 -0.02269598 -0.011778912 -0.03359697 0.008078592 0.022396531 -0.044181027
0.002364697 -0.016836371 0.007800984 0.019169135 -0.033273786 0.028053114 -0.039337136 0.07178379
0.022844767 7.268647e-05 0.029151505 -0.017593764 -0.002297707 0.034310848 -0.021054855 0.0026419782
0.010842262 0.00022361093 0.026327917 0.046898596 -0.014967368 -0.0027149785 -0.010069174 -0.014552937
-0.029793106 0.0070944796 -0.016597172 -0.018531922 -0.03248815 0.00059365184 0.027029265 -0.026923027
0.011763077 -0.034097947 -0.022686075 0.062594235 -0.022996558 0.02689359 -0.009086535 0.048737187
-0.019435493 -0.010256624 -0.019599276 -0.0061817938 0.007988111 0.02995338 0.021434283 0.03401012
-0.025477506 0.0011766651 -0.015187922 0.02620169 -0.013102123 -0.027172152 6.909709e-05 -0.0052759964
-0.0013098596 0.007301502 -0.025901757 0.015022327 -0.013221718 0.019846672 0.036047034 -0.03632159

encoder.encoder_g.linear.bias f4 [32]
00000000: 5458 ccbb e4ec f33b 0c18 03bd 045a 8ebc
00000010: cbde 0d3d 3bd1 53bb eed2 1ebd fb4f 273c
00000020: 9ecf 003d 3ad1 dfbc e589 b83c 9e22 e23c
00000030: 37e2 8c3c 3223 003c 4b08 083d 6414 893c
00000040: c5c3 f039 8ac1 73bc 0bb3 00bd 65c8 c4bc
00000050: 0787 873c 6585 01bd d675 3ebb 6783 00ba
00000060: e03b ed3b 2820 2d3b 0ae7 32bc c502 cf3c
00000070: 525e 823c 686d e13c ef14 0e3d e264 d8bc
-0.0062361155 0.007444011 -0.032005355 -0.017376907 0.0346363 -0.0032320756 -0.038775377 0.01021194
0.031448 -0.027321447 0.02252669 0.027604397 0.017197711 0.007820891 0.033211034 0.016733356
0.00045922227 -0.014877686 -0.03142075 -0.024021337 0.016543878 -0.031621356 -0.0029061935 -0.0004902393
0.0072398037 0.0026416872 -0.010919342 0.025269875 0.015914116 0.02751799 0.034687933 -0.026415292

encoder.encoder_c.conv1.bias f4 [32]
00000000: e49c 58bd d54b 80bd 3e45 37bd 0000 0000
00000010: b2f4 75bd f06a 8fbd e72e 75bd 0000 0000
00000020: f384 9fbd 6247 f3bc f647 9bbd 0000 0000
00000030: 0000 0000 cbfb 75bd 3d74 3cbd ab08 87bd
00000040: 0000 0000 abb8 d43c ac9f 3abd 0000 0000
00000050: 0000 0000 0716 3abd 0000 0000 0000 0000
00000060: 0000 0000 2fcb 42bd 478f 27bd 0000 0000
00000070: 0000 0000 6ded 95bd 0000 0000 0426 33bd
-0.052883998 -0.06264464 -0.04474377 0.0 -0.060047813 -0.070028186 -0.059859183 0.0
-0.0778903 -0.029697124 -0.07582085 0.0 0.0 -0.06005458 -0.04600929 -0.0659345
0.0 0.025966963 -0.04556243 0.0 0.0 -0.045431163 0.0 0.0
0.0 -0.047557052 -0.040908124 0.0 0.0 -0.07320676 0.0 -0.043737426

encoder.encoder_c.conv1.lin.weight f4 [32, 120]
00000000: b6db 8abd d702 23bd 1a58 34be c254 883d
00000010: 3d6d 1bbe 3004 093e 5b0e 98bd df50 22bb
00000020: 3ef5 f7bd 9218 133b 89d4 43bd c3e4 493d
00000030: 72d7 eabd 614e a03d 7c7a d13d a97d 773d
00000040: 2219 b6bd bec3 c1bc 6920 0e3e cf57 ae3d
00000050: 33b8 e1bd 17ce 983d 473c 3bbe e73d 31bc
00000060: 67e6 48be be4b 9c3c 4312 cabd 6d02 b2bd
00000070: 7927 39be fea7 4dbe 9519 b0bc d28d a53c
00000080: 0a1b 1fbc ad47 513d da28 0dbd a511 02be
00000090: ac85 95bd 70cb d9bd 6a67 46be 36ba cf3c
000000a0: 376d 98bd 1c93 1cbe 7ef5 89bd b032 213d
000000b0: 311a acbc e3a5 a6bd 6734 3ebd df61 7abe
000000c0: b33f 59be b133 44be fc86 e83d 07e5 bf3d
000000d0: 235d b7bd 10e7 2dbe da91 373c b1d6 953d
000000e0: 422d a73d 584a 823d 5e8e 4d3d b4d7 d93d
000000f0: 5ee2 dabc a6a0 ecbd 003b f8bd 2d52 1cbe
00000100: c8ca d93c 17d4 72be b73e fc3d 4879 34be
00000110: 2884 11be cf0c 6bbe 6404 3bbe 9ddd 3f3d
00000120: 1ff0 98bd d81f 983d 9619 95bd 60bc b03d
00000130: faf2 fbbc 5f40 67be 5c1b 32be 0eee 27be
00000140: da5d c6bd ebd7 b6bd 8167 85bd ecc9 373c
00000150: 56be 58be be6b 28bd ef5d 6e3d c92e 783c
00000160: b3b9 dcbd 5cbc 2fbe 72b7 b73c 098c 9b3b
00000170: af51 debb 3733 3bbe 3cc4 62be 5f49 f43c
00000180: 55b0 8f3d dc59 1bbe 421b 113e f901 a3bd
00000190: 2f7f 18bd 5abc 0f3e 32d8 023e 9d4b 1a3c
000001a0: 25f6 50bc ea1c a23d eb4b 25be e125 073e
000001b0: 3abe 4ebe 8247 073e 275d 0bbe a5ab 39be
000001c0: dff7 43bd f348 57be dc44 78be 3fb1 79be
000001d0: 811a 36bd fdb6 df3d b202 b0bd 6bdd 4fbe
000001e0: 3bea 533d ce86 05be b4db 0ebe f836 313d
000001f0: f165 a83d 289f 39be e188 cebd ecd4 a0bd
00000200: a514 46be 3934 80be 23ee 183d 260d 00be
00000210: d4a9 4abe d2bd 893d e4fb 43be f4f0 2ebd
00000220: 1108 9b3c a3a2 89bd 410a b83d 23b5 5cbe
00000230: 4533 423d bdf9 d2bd 19c1 71be ed34 a93d
00000240: 23ef 54be dd6b 2bbd c8d3 bebd de4d 78bd
00000250: 1dec f3bc dbfb a23d 7b41 2ebe 8102 77be
00000260: 775c 42be bced 7a3d fff7 9ebd 25a6 a33d
00000270: 403b 233d 5f65 25be 49a0 22be 9f65 c9bd
00000280: 32c8 18be aabd 42be ad9e 16bc d993 f43d
00000290: d909 03bd 6981 87bd c3f9 5fbe d56a e83c
000002a0: c06c 71bd 7b23 9dbd 1e99 77be 0cac 37bd
000002b0: 1451 e5bd d158 1b3d db51 e2bd f2f3 743d
000002c0: 37df 073e 402b bfbd bf24 3f3d 962b f5bd
000002d0: 70fc 513d ae72 6dbe ec6f 63be d50d a43d
000002e0: 5af7 a9bd ed06 4abe 773c 843c b36f 733d
000002f0: c12c 583d f54a ae3c 733b 38bd d724 843c
00000300: 8f22 16be 7b5d 013e 08a7 37bd 55dd b53d
00000310: 291c 933c 0f0f fcbd 3ea7 6abe 0219 61be
00000320: eff1 31bc 2535 1ebe 244e 8ebd 4aad 9bba
00000330: a385 e6bd 9309 513d b5a8 98bd 3503 c83d
00000340: c779 31bd b410 ff3d 67b7 e33d d5a1 1dbe
00000350: 8edc 833d b938 73be 89b3 fcbd a205 fc3c
00000360: 1275 7abd 4ae0 98bb 2b75 983d 9a0c e23d
00000370: 1e76 edbc 20d9 a83c da4a 81be 35f2 8d3d
00000380: 021c 22be ab92 7cbe 06d7 f8bd 36b7 f9bc
00000390: d553 70bd 5d43 4fbe 2419 7bbe 980d 24bd
000003a0: 2172 40bc 0bbe 08be be77 533d a835 8fbd
000003b0: d3d2 e73d b840 cabd d677 12be 99cb 42be
000003c0: 6461 c83c f861 d13d f841 f5bd 0f09 74be
000003d0: 7456 b83c 9f10 92bc 42f0 14be ba2f 38be
000003e0: 4d8c febd 4e9e f4bb 632a b33c 023c 01be
000003f0: 455b 863d 3f6e 1bbb 22da 16bd 6454 0c3e
-0.06780188 -0.03979763 -0.17611733 0.06656791 -0.1517839 0.13380504 -0.07424613 -0.0024767441
-0.12107323 0.0022445065 -0.04781011 0.04929043 -0.11466874 0.078274496 0.1022844 0.060422573
-0.088915125 -0.023652907 0.13879551 0.08512842 -0.11021461 0.074611835 -0.18284713 -0.010817981
-0.19619142 0.019079085 -0.098667644 -0.08691869 -0.18081464 -0.20083615 -0.021496573 0.020209227
-0.009711036 0.051093746 -0.034462787 -0.12702043 -0.073008865 -0.10634506 -0.19375387 0.025357347
-0.07442706 -0.15290493 -0.06736277 0.03935498 -0.021008583 -0.08137109 -0.046436694 -0.24451397
-0.21215706 -0.19160344 0.11353871 0.093698554 -0.08953311 -0.16982675 0.011204207 0.0731634
0.08162929 0.06361836 0.0501846 0.10636845 -0.026719268 -0.11554079 -0.12120628 -0.15265723
0.026585951 -0.23713718 0.123166494 -0.1762439 -0.1421057 -0.22954105 -0.18263394 0.046842206
-0.074676745 0.07427949 -0.07280271 0.0862968 -0.030755509 -0.2258315 -0.1739325 -0.16399404
-0.096858695 -0.08927902 -0.065138824 0.0112175755 -0.21166357 -0.041118376 0.05819505 0.015147873
-0.10777607 -0.17161697 0.02242634 0.004746918 -0.00678464 -0.18281256 -0.2214517 0.029820142
0.070160545 -0.15170997 0.14170554 -0.07959361 -0.037230667 0.14036694 0.12777784 0.009417442
-0.012753998 0.07915671 -0.16142242 0.13198043 -0.20189753 0.13210872 -0.13609754 -0.18131883
-0.04784381 -0.21023922 -0.24245018 -0.2438402 -0.04445887 0.10923574 -0.08594264 -0.20299308
0.05173705 -0.13039705 -0.13950998 0.043265313 0.08222569 -0.1812712 -0.10084701 -0.078531116
-0.19343813 -0.25039843 0.03733648 -0.12505016 -0.19791347 0.067256585 -0.19139057 -0.04271026
0.018924745 -0.067204736 0.08986331 -0.21553473 0.047412176 -0.1030154 -0.23608817 0.08262048
-0.20794348 -0.041850913 -0.09317738 -0.060621135 -0.029775674 0.07958194 -0.17017166 -0.24122049
-0.18980585 0.061261877 -0.07762145 0.07990674 0.039851427 -0.16151951 -0.15881456 -0.09833836
-0.14920118 -0.19017664 -0.009193105 0.11942262 -0.031991813 -0.0661648 -0.2187262 0.028371254
-0.058941603 -0.07672783 -0.24179503 -0.04484181 -0.11197105 0.0379265 -0.11050769 0.059802957
0.13268743 -0.09334421 0.046665903 -0.11971204 0.051266134 -0.23188278 -0.22210664 0.08010451
-0.08299132 -0.19729204 0.016142113 0.059432697 0.052777056 0.021275977 -0.04497857 0.016130848
-0.1466162 0.12633316 -0.044837028 0.08880106 0.017957764 -0.1230756 -0.2291536 -0.21982196
-0.010860904 -0.1544996 -0.06948498 -0.0011877206 -0.11255958 0.05103452 -0.07454053 0.09766237
-0.043329027 0.12454358 0.111189656 -0.15393765 0.06438552 -0.23752107 -0.12338931 0.030764405
-0.061146803 -0.004665409 0.07444223 0.1103756 -0.028986987 0.020611346 -0.2525242 0.06930963
-0.15830997 -0.24665324 -0.121503875 -0.03048287 -0.0586737 -0.20240541 -0.24521309 -0.040052027
-0.01174596 -0.13353746 0.051627867 -0.06992656 0.113195084 -0.09875625 -0.14303526 -0.19022979
0.024460502 0.10223764 -0.11975473 -0.2383158 0.022502162 -0.017830191 -0.14544776 -0.17986956
-0.12429104 -0.0074651605 0.021870798 -0.12620547 0.06560377 -0.0023716835 -0.03682912 0.13704067

encoder.encoder_c.conv2.bias f4 [32]
00000000: bca3 6bbe 8650 a1be 9c9e f2bd 683b 693c
00000010: b79b 69bd 458b 94bd 62ab 0abd 0fbc 7a3e
00000020: 29bc 2e3e c408 76be cc69 993e 8035 acbd
00000030: 473c 183e 8963 213e 9b93 773e 3c87 933e
00000040: 690e 8dbd 70ff f6bc 97bf 38be 9536 e8bd
00000050: 5752 59be 1d95 053e 01f6 96be 289c bb3d
00000060: ae1a 1bbe b1c2 373e 777a 113e 1f8d 683e
00000070: 7e69 bcbd 200e 81be 908b 8b3d 5ee0 86be
-0.23011678 -0.31506747 -0.118466586 0.014235355 -0.057033267 -0.07253126 -0.03385485 0.24485801
0.17063965 -0.24026781 0.2996353 -0.08408642 0.14866744 0.15760626 0.24177401 0.28814113
-0.06887514 -0.030151099 -0.18041836 -0.11338536 -0.21222816 0.13045163 -0.2948456 0.09160644
-0.15146896 0.17945363 0.14206873 0.22710083 -0.091998085 -0.2520609 0.06813729 -0.26343054

encoder.encoder_c.conv2.lin.weight f4 [32, 32]
00000000: ef93 6ebe 03b2 293d 5e59 64be 2323 f4bd
00000010: 6820 ab3c 1e5b 90bc fbea 1a3e c1f9 82be
00000020: 1bd9 5a3d d69a fa3d 08a4 ad3d 7586 7b3e
00000030: c53a 923d e21f eb3c 8393 0b3e 0739 423e
00000040: 1e95 7cbe 599b 3b3f 6318 e8bc b502 8f3e
00000050: e162 273d ac12 64be 037a 0ebe 567c 643e
00000060: be19 e5bc a9b5 a3bd f58a a8bc 0687 86be
00000070: 1db0 92be 6a7e c8bc 5da7 b4bc 0d2c e33d
00000080: fb26 063e c979 acbe 5c49 81be c9c3 823e
00000090: 7521 98be 1d71 5a3d 3ef7 e73d 908a ff3d
000000a0: c9c4 89be 32f0 313c 6df5 5dbb 024a 37bd
000000b0: 49c1 fe3c 5309 a8bd 4619 30bd b686 1e3e
000000c0: 3e17 613e a92a 7a3f 7621 87bb 4a02 cdbd
000000d0: 8f6f 7abe a2bf ca3d 0956 22be 98ee 823e
000000e0: 2e8c 7cbd 65a6 ccbe ef09 d13d 624b fc3d
000000f0: eef5 ce3d 15ea 373e 9085 bdbd 66db f8bb
00000100: d7fe 21be 4ce8 7b3d 0a57 9d3d 171d 96be
00000110: daab 823e d9da 8a3d b1f6 46bd b4b3 45be
00000120: 12f4 e83d fcb5 a6be 5783 3d3e c348 d03d
00000130: 48ec adbd 2ffc 6f3e a5c1 13be 1b6a 473d
00000140: e2a8 ca3c 2001 c23e 59d6 4ebc 4997 72be
00000150: 8f04 a03d 82ef 68be c3fe babc 9938 863e
00000160: 3cab 88be 01c1 b43e ccc5 8d3d 8b9e e8bc
00000170: 8044 47be 6351 50be 4548 16be 3236 56be
00000180: e09e 07be 4381 023a a3b1 d3bd f3c2 fc3c
00000190: a854 393e 35b6 3bbe 51b8 553d a1c3 63be
000001a0: e427 b0bd e62c a13d 1f4e c5bd 8a7a 3b3c
000001b0: 59f8 163e 9fc6 66be 6642 6c3e eb1b db3d
000001c0: 07c1 3ebb 991e 33bd f07c c7bd 82d2 6cbe
000001d0: 2b32 1a3e aadf 133e c814 29bc e80a 40bd
000001e0: c44b 653e d371 56be 5055 ebbd 3d52 963e
000001f0: 2247 743e 017d 36bd 2d62 9c3d 514a db3d
00000200: e807 f63d b9b3 71bd 4340 443d 69b9 03be
00000210: 6b94 6dbe daff 1fbe 1bd9 f6bc 732c fdbd
00000220: a3ce e4bd 279e 80be ab27 6cbe 234a 9abd
00000230: 27e5 c9bc 0479 48be dd37 843e 2cc9 373d
00000240: 0327 5e3e 76af 3b3e cc83 823e bba2 f9bd
00000250: f7e1 253e 1235 683e b775 cc3d 8b51 2f3e
00000260: a16d 88be b67f 3abe fcef bc3c 443d 943e
00000270: 0419 85be f1eb b53e e9b3 9bbe 6eaa 36be
00000280: 4cb2 76bc 8c2b 83bd 74fe 5a3e cab7 193e
00000290: 92a1 94be 3471 033e 1be3 333e df5d 873e
000002a0: 7021 513c 0e59 493d 58ed 1abd 4895 213e
000002b0: 7271 b53d cc65 8bbc f8f6 08be 3ef1 b53c
000002c0: 53a7 1c3e 1672 493e 0eb4 3cbc c056 183e
000002d0: 8c69 9abe de12 5e3d 3d29 6ebe 45e0 283e
000002e0: e98b 81bd 65c9 92be a374 6c3e 8e3b f8bd
000002f0: abb0 db3c 9e4e 08be 95e7 483e fe0a 493e
00000300: dd15 10be 06ef 9b3e a2b3 3a3e 535f a03d
00000310: 0276 fd3d 6ddd babd f3fc 5dbe fdd1 13be
00000320: ceb3 83bd fd92 42be 2dd2 42bd c332 7bbc
00000330: 00c5 6c3e ef2b ef3d 4aed d1bd 1c3e 0c3e
00000340: 4b84 613e 9238 e53d 4ef1 9f3c dab7 253e
00000350: b258 9b3e e62d 923e 3262 8bbd 0d6c 0abe
00000360: 7bb7 82be 2346 c5bd dc0b 36be 61ad 743e
00000370: 7b82 26bd 045c b13e a013 ae3d c52d 89bd
00000380: 127a 9dbd 5c7f f9bc bb34 a4bd 224d 9a3e
00000390: 5ac4 2d3d 80bf 83be 889b 4f3e 95d3 893e
000003a0: ed0f a13d af38 71be e35e 973e a459 e5bd
000003b0: 9c69 4cbe 0bb7 d53d cf72 9bbc 1a97 e4bd
000003c0: ebf6 90be 136a 49bf 7439 06be a876 593e
000003d0: 3df2 6d3e bd28 a23e 3ba8 2b3d e2a5 953e
000003e0: 5444 aebc f68c 6e3e 1827 27bc fce8 0cbe
000003f0: 3059 7bbc 6a3f 2abe f21f b73d 58cd f73d
-0.2329862 0.04142953 -0.22299716 -0.11920764 0.020889476 -0.017621573 0.151287 -0.25581172
0.053429704 0.12236564 0.08478552 0.2456301 0.07140116 0.028701726 0.1363049 0.18967067
-0.24666259 0.73283917 -0.028331941 0.27931753 0.040865783 -0.22272748 -0.13913731 0.22313055
-0.027966376 -0.07993633 -0.020574072 -0.2627489 -0.2864999 -0.024474341 -0.022052461 0.110923864
0.13100807 -0.33686665 -0.2525128 0.25539997 -0.29713026 0.05333053 0.113264546 0.124776006
-0.26907948 0.01086049 -0.003386821 -0.044748314 0.031098025 -0.082049035 -0.042992853 0.15481076
0.21981522 0.97721344 -0.004123862 -0.10010202 -0.24456619 0.09899832 -0.15853132 0.25572658
-0.061657123 -0.399707 0.10206973 0.12319066 0.10105501 0.17960389 -0.09253991 -0.0075945137
-0.1581987 0.061500832 0.07682617 -0.2931907 0.25521737 0.06780023 -0.048575107 -0.19306833
0.11374678 -0.32560718 0.18507133 0.10170128 -0.08492333 0.23436044 -0.14429338 0.048685174
0.024738733 0.37891483 -0.012624347 -0.23690523 0.078133695 -0.22747615 -0.022826558 0.26215056
-0.2669314 0.353035 0.069224924 -0.028395912 -0.19459724 -0.20343547 -0.14676006 -0.20919111
-0.132442 0.0004978368 -0.10336616 0.030854678 0.180987 -0.18331225 0.05217773 -0.22242595
-0.086013585 0.07869892 -0.09634041 0.01144279 0.14743175 -0.22536705 0.23072204 0.10698684
-0.0029106752 -0.043730352 -0.09740627 -0.23127177 0.150582 0.1444079 -0.010319896 -0.0468854
0.22392184 -0.20941858 -0.114908814 0.29359618 0.2385526 -0.044552807 0.07635913 0.10707534
0.12013227 -0.059009288 0.047912847 -0.12863697 -0.23201148 -0.15624943 -0.03013282 -0.12361994
-0.11172225 -0.2512066 -0.23062007 -0.07533672 -0.024645401 -0.19577414 0.2582387 0.044869587
0.2169457 0.18328652 0.25491178 -0.121892415 0.1619948 0.22676495 0.0998339 0.1712095
-0.2664614 -0.1821278 0.023063652 0.28952992 -0.25995648 0.35531572 -0.30410698 -0.17838451
-0.015057158 -0.0640479 0.21386129 0.15011516 -0.29029518 0.12836152 0.17567103 0.26438805
0.01276432 0.049157195 -0.037824005 0.15779603 0.088595286 -0.017016314 -0.13375461 0.02220976
0.15298204 0.19672427 -0.011517538 0.14876842 -0.3015865 0.054217212 -0.23257919 0.16491802
-0.06325514 -0.28669277 0.23091368 -0.12120734 0.02681764 -0.1331124 0.19619592 0.196331
-0.1407084 0.30455798 0.18232587 0.07830682 0.12376024 -0.09124265 -0.21678524 -0.14435573
-0.064307794 -0.19001384 -0.04756372 -0.015331927 0.23122025 0.116783015 -0.102503374 0.13695568
0.22023122 0.111924306 0.019524243 0.16183415 0.30341107 0.28550643 -0.06805839 -0.1351778
-0.2553061 -0.09632518 -0.17777961 0.23894264 -0.04065178 0.34640515 0.08499837 -0.06698183
-0.07689299 -0.030456237 -0.0801787 0.30136973 0.042423584 -0.2573204 0.20274174 0.26919237
0.07864366 -0.2355678 0.2956458 -0.11198738 -0.19962162 0.10435303 -0.018975643 -0.11161633
-0.28313383 -0.7867748 -0.13107854 0.2123667 0.23236938 0.31671706 0.041908484 0.2922812
-0.021272816 0.2329596 -0.010202192 -0.13760751 -0.015341088 -0.16625753 0.0894164 0.12099713
